checkpoint/agent1_checkpoint_actor.pth (torch_old, 483987 bytes, 24 tensors)

fc1.weight f4 [256, 24]
000000 de 6e 16 3b 9f 57 a1 3e b9 22 3a bd e5 1f 03 be
       0.0022954266 0.31512162 -0.04544327 -0.12805136
000010 01 3e d4 3d 82 99 36 3e e8 b7 f2 3d 47 6f 3c 3e
       0.10363389 0.17831996 0.118514836 0.18401824
000020 f6 eb 2e bd 04 b0 5a 3e 29 7d 43 3d c2 fb f1 bd
       -0.0427055 0.21356207 0.047726784 -0.11815597
000030 79 52 70 bd 9b bd 74 3c a0 05 cf 3c 39 52 90 bd
       -0.058672402 0.014937784 0.025271237 -0.07046933
000040 e8 5f f4 3c 69 a4 78 3e ef a5 35 bc 2f fd 77 be
       0.029830888 0.24281467 -0.011086925 -0.24217676
000050 85 f4 4e 3e 4b 6f a0 3e 9f ab ae 3d be 43 0d ba
       0.20210464 0.3133491 0.08528828 -0.00053888175
000060 e3 11 d3 bc 42 10 4f bd 2c d2 46 3e c0 33 8b be
       -0.025765365 -0.050552614 0.19416112 -0.2718792
000070 02 c8 a7 bd d0 91 9e be b2 d8 8f bd 79 30 c0 3d
       -0.08192445 -0.3097062 -0.07023753 0.093842454
000080 8a de d6 bd 3e 21 2f be 6f c7 bd bd 95 69 87 be
       -0.10491665 -0.17102525 -0.092665546 -0.2644774
000090 58 ba cc bd db 19 62 3d 7b 69 10 3e 8b f5 d1 3c
       -0.0999648 0.05520044 0.14102738 0.02562978
0000a0 a3 e6 3e 3d a5 09 4e be 69 69 f7 3b c9 b7 99 be
       0.04660667 -0.20120867 0.0075504077 -0.3002303
0000b0 90 ae ef bd 07 9b 6e bd 43 7f d0 3d 20 84 24 3c
       -0.11703217 -0.058253314 0.10180523 0.010041267
0000c0 1a 33 0e be 0e 0a 7e bc 5d 5b 1c 3e 18 60 24 3e
       -0.13886681 -0.015505327 0.15269227 0.16052282
0000d0 0b 9d ab 3d 01 7f 88 bd 25 d2 22 3e 0a 7e 26 be
       0.08379563 -0.06664849 0.15900476 -0.16259018
0000e0 a8 e7 83 bd b5 21 50 be c0 8f 78 bd 9c a0 b1 bd
       -0.06440669 -0.20325358 -0.060683966 -0.08673212
0000f0 6d 07 18 3e ea df 24 3c 01 56 24 bd 98 9f a4 3d
       0.14846583 0.010063151 -0.040121082 0.080382526
000100 1b ce c9 3d 1c e4 14 bd 81 2b f1 3d 69 d3 e0 3c
       0.098537646 -0.036350355 0.11775876 0.027444558
000110 19 ab e9 3d eb a9 c8 3d 90 e4 41 bd ea db c1 bd
       0.114095874 0.09798034 -0.047337115 -0.094657734
000120 d7 c7 35 bd cd 81 f9 3d 51 7d 3f 3e 37 52 3e 3e
       -0.044380035 0.12182961 0.18700148 0.1858605
000130 d1 89 ef 3d c8 92 2f be a7 9a e6 3c 46 c1 f9 bd
       0.11696208 -0.17145836 0.028149916 -0.12195067
000140 d9 63 99 be 13 0e d4 3d 96 a1 ef 3d 10 57 35 be
       -0.2995899 0.10354247 0.11700742 -0.17708993
000150 89 72 10 3e ef 28 47 bd 64 07 93 bd aa 07 89 bd
       0.14106192 -0.04862302 -0.07179144 -0.06690915
000160 76 45 39 3c 94 f4 1f be c6 56 e6 3d 62 98 df 3d
       0.011308065 -0.15620643 0.112470195 0.109177366
000170 80 ed 7f 3e 48 13 ae bc 86 55 28 be c9 7f 01 be
       0.24992943 -0.021249428 -0.16438875 -0.12646402
000180 3f 5d b4 3d 8f de 7e 3e 76 43 cd bc f7 c6 72 be
       0.08806848 0.24889587 -0.025056582 -0.23708712
000190 1b e2 c9 3d 36 c0 cc 3d 25 09 39 3d 95 06 2f be
       0.09857579 0.09997599 0.045174737 -0.17092355
0001a0 cf 5a 52 be 01 cf 18 3e 84 8a 1b bd e4 81 82 be
       -0.20542453 0.14922716 -0.037973896 -0.25489724
0001b0 48 c0 37 bd 38 23 c0 bc 66 ae 03 3d 3a f8 c1 3c
       -0.044861108 -0.023454294 0.03214874 0.023677934
0001c0 3a 5f d7 bd 65 64 9f 3e 5e 91 2f 3e 8c a7 60 be
       -0.1051621 0.31131282 0.17145297 -0.21938914
0001d0 4e ea 84 bd b3 86 a9 bd 3a 47 7b 3d 48 be 97 3a
       -0.064900026 -0.08277645 0.061347224 0.0011577094
0001e0 3d d5 c4 3d ea 71 04 bd d2 60 8d bd 90 99 08 3e
       0.096109845 -0.0323352 -0.06903233 0.1333983
0001f0 2f 12 3b be dd 00 92 bd 9e 34 a8 bc 97 40 80 bd
       -0.18268655 -0.07129071 -0.020532902 -0.062623195
000200 1e bd 60 bd 5b 0e 52 be 4c d2 a8 bd 39 45 b7 3d
       -0.054867856 -0.20513289 -0.08243236 0.0894875
000210 58 12 17 be 09 ed a4 3d 24 5d db 3d b8 be cb 3c
       -0.14753091 0.08053023 0.107111245 0.024871215
000220 a1 77 a6 3c 92 24 b2 bd 60 5d 43 ba 11 66 ff 3d
       0.020320715 -0.086983815 -0.00074525736 0.124706395
000230 b8 e3 0f 3e d2 39 a7 3e 70 62 1b 3e 5b 94 a2 bc
       0.14051712 0.326613 0.1517427 -0.019846132
000240 a6 f5 48 be f4 3c 12 be 1f 7b 81 3e 73 b2 df 3b
       -0.19624957 -0.14281064 0.25289246 0.0068266927
000250 68 55 ae bd 65 c2 06 be a7 f4 9d bd 7a 12 28 be
       -0.08512384 -0.13160093 -0.07712679 -0.16413298
000260 ac b8 a2 bd 68 da 29 3d 34 41 dd 3d 99 b9 05 be
       -0.079453796 0.041468054 0.10803452 -0.13059081
000270 02 49 1a 3e 8c 53 01 be 77 45 3a bd e2 1e 87 bc
       0.15066913 -0.12629527 -0.045476403 -0.016494218
000280 3f 40 d3 bd 8d 76 b9 bd f9 3f 17 bd dc 4a 07 be
       -0.10314988 -0.09055815 -0.036926243 -0.1321215
000290 f0 dd 14 3b 5f e0 01 3c dd 33 5b 3d 88 d9 f7 3d
       0.0022715293 0.007927029 0.053516258 0.12102038
0002a0 bb 85 43 be b4 2a 55 3d cc cc 24 3e 6b 22 6a bd
       -0.19093983 0.052042678 0.16093749 -0.05716173
0002b0 86 c3 3f 3e 78 92 67 3b 7b a7 4f be 22 f9 1e 3e
       0.1872693 0.0035335105 -0.20278732 0.15524724
0002c0 51 2f b9 bc 0d b8 ac 3c 15 1e 95 3d a3 74 54 be
       -0.02260557 0.021083856 0.07281128 -0.20747618
0002d0 e7 c3 cf 3c ab b2 e7 bd 51 b7 62 3d 26 d7 6c 3c
       0.025361968 -0.11313375 0.055350605 0.014455592
0002e0 6c 1c e2 3d 0f a7 25 3e 39 5a ef bd 5b 21 08 be
       0.11040577 0.16177009 -0.116871305 -0.13293974
0002f0 a2 ad f1 bd 97 90 f5 3d 1d 19 c1 3d 80 64 4b 3d
       -0.11800696 0.11990469 0.09428618 0.04965639
000300 55 45 5f be 5f b9 3a 3c 01 91 dc bc 32 a2 d0 bd
       -0.21803792 0.011396735 -0.026924612 -0.10187186
000310 16 c1 38 3d f9 d8 07 3d 82 0d 99 bb d0 fc c5 3b
       0.045106016 0.033165906 -0.0046707997 0.0060421005
000320 9c a6 92 bd be a8 cf 3d b5 22 b9 bd 6b e9 be bd
       -0.071606845 0.10139607 -0.09039823 -0.09321865
000330 e0 46 d4 3d 46 e7 99 3d 8d 35 1b bc 9d 59 60 3e
       0.10365081 0.07514815 -0.009473217 0.21909185
000340 a9 cd e7 ba 76 be a2 3c 92 97 4d 3d 5d e2 8e bb
       -0.0017685193 0.01986621 0.050193377 -0.0043604807
000350 6b 9f 63 3e 20 3d 5f be f7 f0 4d 3d cd 18 7e 3d
       0.22228782 -0.21800661 0.05027863 0.06203537
000360 18 dd 1f bb 8a 4d 04 bd 9f a6 32 3e 1d fd 1a be
       -0.0024393257 -0.03230051 0.17446373 -0.15135618
000370 65 a1 b0 bd a5 fc d7 3c 5f be aa 3d 5d 7f a4 3c
       -0.086245336 0.026365587 0.08337092 0.020080263
000380 2d d4 87 bd 34 e7 44 3e 6a 28 b2 bd 9a 4a e9 bc
       -0.06632266 0.19228822 -0.086991146 -0.028477956
000390 4a 8d df bd 39 91 89 be 75 5c 78 3d c4 93 4a 3e
       -0.109156206 -0.2686861 0.06063505 0.1978293
0003a0 e3 b4 c1 3d 30 15 87 3e be 41 32 3e 44 54 20 bd
       0.094583295 0.26383352 0.17407891 -0.039142862
0003b0 e0 7c 93 3d bb 86 f1 be 08 c9 18 bd 43 8b 19 3e
       0.072015524 -0.47173104 -0.037301093 0.1499453
0003c0 e8 80 0b 3e 58 b2 33 3e 02 fa 34 bd bf 20 b9 3b
       0.13623393 0.17548501 -0.04418374 0.0056496556
0003d0 d4 f2 ea 3d ab 70 93 be 91 29 2d 3e 69 64 27 be
       0.11472097 -0.28796896 0.16910388 -0.16346897
0003e0 fe a8 9f 3c 4c c0 a1 bd 00 0d 47 bd 60 ad ff 3c
       0.019489761 -0.07898006 -0.048596382 0.031210601
0003f0 00 2f 9f 3d 71 47 f3 3c ed 15 7f bd bd f1 91 bd
       0.077726364 0.029697152 -0.06227677 -0.07126186

fc1.bias f4 [256]
000000 e9 1c 70 3d e9 f3 30 3d b8 97 dd 3d 50 47 1e 3e
       0.05862132 0.04320136 0.10819954 0.15456891
000010 17 d0 a2 bd cf 37 59 be 5b 87 ea bd 0d 8d 7c bc
       -0.07949846 -0.21212696 -0.11451598 -0.0154144885
000020 8a 4f 1d be 7c 0d 30 be 7a 33 02 3e a9 c5 38 b8
       -0.15362373 -0.17192644 0.12714949 -4.4053104e-05
000030 78 f6 02 3e 73 be 2f be 3b 95 19 bd 96 2b 4d 3e
       0.12789333 -0.17162494 -0.037495833 0.20036158
000040 73 06 6d 3d 85 0d bb 3d 17 21 0f be 72 17 ec bd
       0.05786748 0.09133438 -0.13977467 -0.11527909
000050 e1 a3 b2 3d 59 d8 35 be f6 92 28 3d 7b 2f 97 bd
       0.08722664 -0.17758311 0.041155778 -0.07382103
000060 f6 5d be bd 4d bb 86 be 3b 74 82 3d 75 24 dc 3d
       -0.092952654 -0.26314774 0.063698255 0.10749141
000070 df 1f 23 be 86 b9 fc bd 34 1a 0a be ff 60 5e 3d
       -0.15930127 -0.12340073 -0.13486558 0.05429172
000080 0a 0d 80 bd d7 a0 a3 3d a2 e3 e3 bd 36 1c 38 3d
       -0.06252487 0.07989662 -0.11127402 0.04494878
000090 d1 b7 23 be 98 cc 57 3e fd 81 1e be 61 d3 ed 3c
       -0.15988089 0.2107414 -0.15479274 0.029031457
0000a0 68 07 e3 bd 0b 3a 67 be 22 c3 ad 3d a1 6a c9 bd
       -0.11085397 -0.22580735 0.08484484 -0.09834791
0000b0 42 30 97 bd b3 70 f1 bd 7f ad 89 bd 55 26 98 bd
       -0.07382251 -0.11789074 -0.06722545 -0.07429186
0000c0 f4 ac 48 3e e3 ca 05 3e 06 5c 54 b9 4a fc 5f 3e
       0.19597226 0.13065676 -0.00020252177 0.21873584
0000d0 24 bd ae bd 34 ff 11 be 4e de bf 3d 58 ec 3e be
       -0.085321695 -0.14257509 0.09368573 -0.18644845
0000e0 73 fa e8 3d 78 0f 77 bc 5b 72 1c be 40 9a a3 3e
       0.113758944 -0.015079372 -0.15277998 0.3195362
0000f0 09 9c c6 3d e3 06 09 3e 83 f7 90 3c 13 65 02 be
       0.0969773 0.13381533 0.017696148 -0.12733869
000100 fc 6d 8d 3c 93 4e 88 3d 0d 8c 3c be 80 50 56 3e
       0.017264359 0.06655612 -0.184128 0.20929146
000110 c0 39 19 be c1 c1 8a bd 90 2e cd 3b 1b 0c 18 be
       -0.14963436 -0.06775237 0.006261654 -0.14848368
000120 ec 79 49 be 13 ea 41 bd 2f 51 64 bd be c2 50 3e
       -0.19675416 -0.04734237 -0.055741485 0.20386788
000130 af 05 d1 3d d1 59 01 3e 45 b8 0f 3e c4 5f d9 bc
       0.10206162 0.12631918 0.14035137 -0.026534922
000140 06 53 75 3d 19 a2 ac 3b 3e 1c ba bd 92 56 5e be
       0.05989363 0.005268347 -0.09087418 -0.21712711
000150 05 cd 8a 3d 99 0d d4 bd 7c 9a 90 bd f2 e6 3c 3e
       0.067773856 -0.10354156 -0.070607156 0.18447474
000160 40 2e f5 bd ba 19 a9 3d c0 24 1e 3d ea 1a 0a 3e
       -0.11971712 0.0825686 0.038609266 0.1348683
000170 11 6d 9d bd 94 53 0c 3e 7f 98 30 be 0c 92 9d bd
       -0.076868184 0.13703758 -0.17245673 -0.07693872
000180 44 a8 0c 3e db 9f 89 bd 07 c4 9c 3e 3d dd d7 3d
       0.13736063 -0.06719943 0.30618307 0.10540245
000190 b6 4d 35 3e 5e 8b 28 bc f2 b7 e7 bc e6 20 4a 3d
       0.17705426 -0.010287134 -0.028285954 0.04934778
0001a0 94 c5 a4 bd 57 fb 48 3e d4 1d da 3c 06 75 bc bd
       -0.080454975 0.19627129 0.026625551 -0.09202008
0001b0 78 d2 c0 3d b8 42 e3 bd ee 1c 6b bd 03 f2 7a bd
       0.09415144 -0.1109671 -0.057400636 -0.061265957
0001c0 01 c6 2a 3d d0 03 ed bd 60 42 ee bc 14 9c 23 3e
       0.041692737 -0.11572993 -0.029084384 0.15977508
0001d0 a4 35 1f 3e 4b b7 0f be 1d 80 2e bc 88 b7 04 3e
       0.15547806 -0.14034764 -0.010650662 0.12960637
0001e0 0f b0 0b be d2 45 82 3d b0 75 c4 3d a9 3f 4f 3e
       -0.1364138 0.063609734 0.095927596 0.20239128
0001f0 83 f2 c3 3d 02 cb 40 3e 8b 99 12 bd 81 ff 4d bd
       0.0956774 0.18827441 -0.03579096 -0.050292496
000200 67 bb 1d 3e 11 75 fb bd d7 95 fc bd 43 67 11 3e
       0.1540352 -0.12278188 -0.12333267 0.14199547
000210 26 9b 1d be 38 b8 72 3d c8 73 a5 3d d6 06 1d 3e
       -0.15391216 0.059257716 0.08078724 0.15334639
000220 01 05 ec 3d 4a f0 5d 3d c1 f9 01 3e a1 72 bb 3d
       0.11524392 0.054184236 0.1269293 0.09152723
000230 36 a8 54 bd 13 64 07 be a5 1e 37 3e da 43 14 3e
       -0.05191823 -0.13221769 0.17882784 0.14479008
000240 49 cc e1 3d 74 f9 cf bd 73 93 14 bd c7 47 73 be
       0.110252924 -0.10155001 -0.03627343 -0.2375785
000250 56 9d a3 3d e3 cd 45 3e ff 0d 4b bc d1 57 5a 3e
       0.07988994 0.19316821 -0.012393474 0.21322562
000260 99 8d ff 3d d0 17 34 be 96 8d 3c 3e ed a4 39 3d
       0.124781795 -0.17587209 0.18413386 0.0453233
000270 a7 b1 0f 3e 63 06 1b bc b0 42 45 bc e2 d7 23 3e
       0.14032613 -0.009461972 -0.012039825 0.16000322
000280 04 7b f3 bd cc 71 36 3d 80 dd b7 3c 81 02 89 3c
       -0.11888698 0.04454212 0.022444487 0.016724827
000290 70 f3 92 3c dc 4c 02 3e 64 7e 5c 3c 0f e6 33 3e
       0.017938346 0.12724632 0.013457868 0.17568229
0002a0 43 db a3 3d a2 b1 69 3e 5f e5 e5 3d e3 cd 53 be
       0.08000805 0.22821668 0.1122539 -0.20684008
0002b0 e5 be 00 be 8c 8a 48 be 01 11 62 be 4d 36 48 be
       -0.1257282 -0.19584101 -0.22076799 -0.19551964
0002c0 d7 3b 53 bd 24 87 68 3e dd 12 fb bd aa e5 c7 3d
       -0.05157074 0.22707802 -0.12259457 0.09760602
0002d0 20 43 17 be 3f b4 0e 3e 46 66 b9 3d 27 0f eb 3d
       -0.147717 0.13935946 0.0905271 0.114774995
0002e0 eb 5f a0 3e 05 84 c0 bd 18 e9 00 be 94 8a d6 bd
       0.3132318 -0.09400181 -0.12588918 -0.104756504
0002f0 38 89 a6 3d 88 88 14 3e a3 30 33 3e f1 80 0e 3d
       0.08131641 0.14505208 0.17499022 0.034790937
000300 ae 2e 78 3b 49 30 8f bc e9 75 6a 3e 7c f1 c7 bd
       0.003786962 -0.017479079 0.22896542 -0.09762856
000310 33 40 8b bd 3c ef bd 3d 5c 31 e9 3d 37 c2 40 3d
       -0.067993544 0.09274146 0.11386368 0.047060218
000320 2b 25 c7 3d 9d ab 3a bd f2 8b ae bc 13 d3 1a 3c
       0.09723886 -0.04557382 -0.021306966 0.009449738
000330 2f 5a 79 3e 06 11 2a 3e e5 23 6f 3c b2 6b 24 3e
       0.24350809 0.16608056 0.01459596 0.16056708
000340 16 47 fc 3d 76 31 b4 bd f0 0c 8f 3d b0 16 ae 3d
       0.12318246 -0.087984964 0.069848895 0.08500421
000350 6e 01 14 3e fe f4 d3 3c 7c a3 52 3d fc 5d 74 be
       0.1445367 0.025873657 0.051425442 -0.23863977
000360 98 a6 0b 3e c8 d2 05 3e c1 0c ac 3d 0b 12 5b bd
       0.13637769 0.13068688 0.0840087 -0.053484004
000370 3d 8b 03 be 25 17 87 3d 68 97 5f 3e 14 2d d0 bd
       -0.12846084 0.06596211 0.218351 -0.10164848
000380 f3 d7 e8 bc ad 02 41 be f0 e4 e2 3d ae 58 79 3b
       -0.028423285 -0.18848677 0.110788226 0.0038047242
000390 7b ee ee bb 85 f6 b7 bd 3b f9 f1 3d ad a9 02 3e
       -0.0072916127 -0.08982567 0.11815115 0.12760039
0003a0 6d 6d a2 bd dc d8 f2 bb 77 15 2e 3d 10 bf 3a 3d
       -0.079310276 -0.0074111056 0.04250094 0.045592368
0003b0 7f 95 6c ba 2f 78 60 3d f1 ae c5 3d 3a 43 21 3e
       -0.0009024962 0.054802116 0.09652508 0.15748301
0003c0 c2 4e 2c be 2d ac c2 bd a9 ed 10 3e 05 68 8d bb
       -0.16826919 -0.09505496 0.1415316 -0.0043153786
0003d0 df c8 0a be 3d 37 55 3e 7d 96 c8 bd e8 d7 ce bd
       -0.13553189 0.20821853 -0.09794328 -0.100997746
0003e0 ec 8a d4 bc 71 c9 a8 bc dd b3 15 be 30 4f 48 be
       -0.02594515 -0.020603867 -0.14619394 -0.19561458
0003f0 5a bb 2f 3e 53 3c 1a 3e cc c6 78 be 7e f7 0a 3e
       0.17161313 0.15062074 -0.24294585 0.13570973

bn1.weight f4 [256]
000000 7b 3f a1 3f c5 90 8c 3f d0 61 8e 3f 55 7b 95 3f
       1.2597498 1.098168 1.11236 1.1678263
000010 6c d0 90 3f b8 d7 8d 3f 9a ed 8c 3f d8 f1 87 3f
       1.1313605 1.1081457 1.101001 1.062068
000020 4f 14 9d 3f b3 2d 97 3f 8a ed 9b 3f 7d b6 92 3f
       1.2271823 1.1810821 1.2181866 1.1461941
000030 c7 6e 99 3f 76 3a 96 3f 18 6e 91 3f 39 72 84 3f
       1.1986932 1.1736591 1.1361723 1.0347358
000040 2d 9a 9b 3f 08 33 b8 3f 3b 2a a6 3f 8a 8e 9a 3f
       1.2156426 1.4390574 1.2981638 1.207475
000050 63 cd 93 3f 7c a8 8e 3f b6 40 8e 3f 66 2d 98 3f
       1.1547054 1.1145167 1.1113498 1.1888855
000060 21 27 90 3f bd f0 8d 3f 18 51 8f 3f 93 db 93 3f
       1.1261941 1.1089092 1.1196623 1.1551384
000070 12 27 9b 3f 37 02 8d 3f 7d 81 90 3f 13 83 a2 3f
       1.2121298 1.1016301 1.1289517 1.2696251
000080 82 46 93 3f 85 eb 96 3f 4e 5f 9c 3f 3e 00 98 3f
       1.1505892 1.1790625 1.2216585 1.1875074
000090 eb 5e 91 3f 15 ed 90 3f 55 3f 98 3f 9e ee 91 3f
       1.1357092 1.1322352 1.1894327 1.1400945
0000a0 db d2 8f 3f 31 91 93 3f 36 60 9a 3f ab 94 88 3f
       1.1236223 1.1528684 1.2060611 1.067037
0000b0 ad 70 8b 3f 5e 64 88 3f fd d9 8f 3f 04 fc 90 3f
       1.0893761 1.065563 1.12384 1.1326909
0000c0 7b 45 8c 3f 99 8f 92 3f 84 b8 9a 3f 51 28 8a 3f
       1.0958704 1.1450073 1.208756 1.0793554
0000d0 83 69 97 3f 11 1d 8d 3f 49 c7 9a 3f c7 e4 91 3f
       1.1829075 1.1024495 1.2092067 1.1397942
0000e0 87 e1 9b 3f a3 4f 96 3f b4 55 90 3f ab 2e b5 3f
       1.21782 1.1743053 1.1276155 1.4154867
0000f0 51 a2 8c 3f 22 91 9f 3f 55 f3 9a 3f 6d 0c a0 3f
       1.0987035 1.2466166 1.2105509 1.2503792
000100 eb 9c a4 3f 17 2e 9c 3f a7 f8 8f 3f ec 4a 94 3f
       1.2860388 1.2201566 1.1247758 1.1585364
000110 f6 3a 93 3f 4a ef 99 3f da f9 8c 3f dc 87 c9 3f
       1.1502368 1.202615 1.1013749 1.5744586
000120 b1 e9 8f 3f df 4d 93 3f 44 8b 9d 3f 5b 3c 99 3f
       1.1243192 1.1508139 1.2308125 1.1971544
000130 ca 27 95 3f 97 71 a3 3f 45 0c 99 3f fb b1 90 3f
       1.1652768 1.276904 1.1956869 1.1304315
000140 ee 50 a0 3f c9 69 93 3f 1c 54 a8 3f f5 50 96 3f
       1.2524698 1.1516658 1.3150668 1.1743456
000150 4d fe 8c 3f 22 1a 8a 3f bf 32 8f 3f 34 44 97 3f
       1.1015106 1.0789225 1.1187361 1.1817689
000160 ab b3 99 3f 22 95 90 3f ae 7b b6 3f ce 34 8b 3f
       1.2007955 1.1295512 1.4256494 1.087549
000170 46 b1 93 3f 17 d9 92 3f 1b 36 9d 3f 8e 79 ac 3f
       1.1538475 1.14725 1.2282137 1.3474596
000180 97 e8 88 3f a1 d7 91 3f 63 49 96 3f a5 5a 93 3f
       1.0695981 1.139393 1.1741146 1.1512038
000190 74 ae 97 3f 56 0c 93 3f 26 fa 85 3f e3 18 8f 3f
       1.1850114 1.148814 1.0466964 1.117947
0001a0 a6 6b b9 3f 1d 84 a9 3f d6 76 8c 3f b4 15 8c 3f
       1.4485977 1.3243443 1.0973766 1.0944123
0001b0 9b 28 96 3f a7 07 90 3f 46 3a 9b 3f 5d 57 8f 3f
       1.1731142 1.1252335 1.2127159 1.1198536
0001c0 e0 02 92 3f ea c8 92 3f 7b 3d 8f 3f c1 6b 95 3f
       1.1407127 1.1467564 1.1190637 1.1673509
0001d0 0d 00 93 3f 2a 4f 97 3f 40 57 92 3f 59 3d 94 3f
       1.148439 1.1821034 1.1432877 1.1581222
0001e0 59 8e 8c 3f 8a 6a ac 3f d0 cd 9d 3f 50 d0 a6 3f
       1.0980941 1.3470013 1.2328434 1.3032322
0001f0 a5 1e ab 3f 1a 4d 9e 3f ed ad 9b 3f c4 03 9c 3f
       1.3368727 1.236728 1.2162453 1.2188649
000200 5c 3a 95 3f c8 b1 93 3f af 66 9e 3f 9d 90 85 3f
       1.1658435 1.153863 1.2375087 1.0434757
000210 4b ad 92 3f 62 d1 8e 3f 96 7c 98 3f fa fe 90 3f
       1.1459135 1.1157649 1.1913021 1.1327813
000220 dd c1 98 3f 41 9d 8a 3f 68 29 95 3f 4c c6 8d 3f
       1.1934162 1.082924 1.1653261 1.107614
000230 a2 85 87 3f 47 cb 8e 3f 06 c7 9f 3f 49 78 a7 3f
       1.0587656 1.1155785 1.2482612 1.3083583
000240 78 8f 92 3f 24 f3 9e 3f 88 4d 91 3f 90 d9 86 3f
       1.1450033 1.2417951 1.1351786 1.0535145
000250 23 fb 96 3f 2d 19 a1 3f b2 5b 95 3f 60 8f 98 3f
       1.1795391 1.2585808 1.1668608 1.1918755
000260 aa 3c 98 3f d9 5b a6 3f 8a 85 92 3f 9d 1d 99 3f
       1.1893513 1.299678 1.1447003 1.1962162
000270 94 c0 99 3f 5b 54 8c 3f a4 d8 91 3f 54 a1 88 3f
       1.2011895 1.0963243 1.1394238 1.0674233
000280 2f 46 90 3f 45 a5 95 3f 34 4f 99 3f 69 f8 8d 3f
       1.1271418 1.1691061 1.1977296 1.1091434
000290 e5 34 96 3f d1 b3 97 3f de ba 94 3f f7 e1 9a 3f
       1.1734892 1.1851751 1.1619527 1.2100209
0002a0 cf f7 98 3f a8 b7 93 3f 0b eb 92 3f ef 0e 98 3f
       1.1950625 1.1540422 1.147798 1.1879557
0002b0 a9 7c 98 3f 59 e1 8f 3f 84 06 8d 3f 66 88 93 3f
       1.1913043 1.1240646 1.1017613 1.1526
0002c0 60 f2 8f 3f 38 00 99 3f 72 3b 8b 3f e0 33 8c 3f
       1.1245842 1.1953192 1.0877516 1.0953331
0002d0 d3 0d 92 3f f0 e5 94 3f 97 a8 8c 3f 0e a4 8f 3f
       1.1410469 1.1632671 1.098895 1.122194
0002e0 03 ee aa 3f 01 54 a1 3f e9 c5 95 3f cb 4d 98 3f
       1.3353885 1.2603761 1.1701022 1.189874
0002f0 f5 4b 8b 3f 8b ab 90 3f fa 66 91 3f 5c 10 90 3f
       1.0882555 1.1302351 1.1359551 1.1254992
000300 81 60 ac 3f 4b f3 9f 3f 57 f2 88 3f 69 4e 94 3f
       1.3466951 1.2496122 1.0698956 1.1586429
000310 23 4a 87 3f de 19 93 3f 0d af 9f 3f a5 1d 89 3f
       1.05695 1.1492269 1.2475296 1.0712172
000320 9f d8 99 3f 8b b7 92 3f 55 3e 8d 3f 25 d7 98 3f
       1.2019233 1.1462263 1.1034647 1.1940657
000330 79 f0 8b 3f ac b3 94 3f 10 aa 97 3f 62 21 8d 3f
       1.0932761 1.1617332 1.1848774 1.1025813
000340 b3 98 a6 3f 09 e4 89 3f 33 4d 8f 3f fa 06 ad 3f
       1.301535 1.0772716 1.1195434 1.3517754
000350 17 6d 9b 3f c0 84 96 3f 47 6e 98 3f 5a 72 94 3f
       1.2142667 1.1759262 1.1908654 1.1597397
000360 5a a5 9c 3f 50 9a 8c 3f ee 23 98 3f a2 07 92 3f
       1.2237961 1.0984592 1.1885965 1.1408579
000370 35 b0 8d 3f 2a 82 8b 3f a3 a9 8d 3f e6 f8 8d 3f
       1.1069399 1.0899098 1.1067394 1.1091583
000380 3a 21 92 3f 02 a1 84 3f 9e 30 98 3f e3 c1 8e 3f
       1.141639 1.0361636 1.1889837 1.115292
000390 ca 0a 92 3f 69 73 92 3f df 07 89 3f f0 02 90 3f
       1.1409543 1.144147 1.0705527 1.1250896
0003a0 f6 32 8e 3f b5 91 a3 3f 63 59 90 3f 4b c4 96 3f
       1.1109302 1.2778841 1.1277279 1.1778654
0003b0 ba dc 95 3f 6b 30 8e 3f 03 4d 9a 3f 51 6a 9b 3f
       1.1707985 1.1108526 1.2054752 1.214182
0003c0 ab 36 8a 3f dc ad 8d 3f 8b a3 92 3f 10 a5 91 3f
       1.0797933 1.1068683 1.1456159 1.1378498
0003d0 15 f3 a0 3f fa 38 87 3f d0 dc 8b 3f 4f 84 a1 3f
       1.2574183 1.0564263 1.0926762 1.2618502
0003e0 1e d5 8d 3f 45 1b 97 3f 53 69 91 3f 40 a1 9d 3f
       1.1080663 1.1805197 1.1360267 1.2314835
0003f0 45 39 89 3f 49 46 9c 3f 6e 70 9a 3f f8 31 88 3f
       1.0720602 1.2208949 1.2065561 1.0640249

bn1.bias f4 [256]
000000 f8 d0 ac 3d 80 a3 18 3d d1 17 a7 3b dc b9 87 3d
       0.08438295 0.0372653 0.0050992747 0.06627247
000010 8d 94 e5 3b 30 3f 83 3d 76 37 84 3d 29 39 a7 3d
       0.007006234 0.064085364 0.06455891 0.08165199
000020 46 61 21 3d 08 96 3a ba f1 ef 7a 3d 24 d4 38 3d
       0.039399408 -0.00071176933 0.061263982 0.045124188
000030 de cb bb 3d d1 61 55 3c fc fd a0 bb 31 e8 02 bc
       0.09169744 0.0130238095 -0.00491309 -0.007989929
000040 32 ad b8 3c 2a b1 ca 3d ed 90 b3 3d 10 7b 50 3c
       0.022543523 0.098970726 0.08767877 0.012724653
000050 aa 30 3c 3d 46 d4 84 bb b2 48 b1 3d 98 bb d2 3c
       0.045944847 -0.0040536253 0.08656444 0.025724217
000060 7d a7 97 bc d8 43 c6 3b 4c 84 7d 3c 17 b9 bf 3d
       -0.018512482 0.006050568 0.015473437 0.09361475
000070 4d 3b be 3a 4f 4b 2e 3d 68 6a a5 3c 3b 10 f2 3d
       0.0014513523 0.04255229 0.02019234 0.11819502
000080 b4 98 87 bc 65 65 83 3d fe a0 fd 3c 8c 40 9c 3d
       -0.016552307 0.06415824 0.030960556 0.07629499
000090 9a e4 39 3d f1 01 5d 3d f0 45 cf bb 52 43 63 bb
       0.045384027 0.05395693 -0.006325476 -0.0034677577
0000a0 c4 9d 0e bd 19 2c 55 3c a2 f8 8e 3d 5f 9f 0c 3b
       -0.034818426 0.013011002 0.06981017 0.0021457297
0000b0 2f c0 e4 3c af 75 b5 bc 75 5d 01 bc 17 b1 87 3d
       0.027923672 -0.022150842 -0.007895817 0.06625574
0000c0 c4 fb 25 3d 2c c7 15 bd 4c 77 81 3c e1 11 90 3d
       0.040523306 -0.0365669 0.015803955 0.0703466
0000d0 0e e6 dd 3c f6 81 08 3d e4 56 a5 3c 57 bc ce 3c
       0.027087238 0.033327065 0.020183034 0.025236292
0000e0 b7 a2 cb 3c c4 71 90 3d 24 f4 23 3d 16 1d 0b 3e
       0.024857862 0.07052949 0.040027753 0.13585314
0000f0 c3 05 25 3d 09 fc a4 3d ab 1a b3 3d 19 54 4e 3d
       0.040288698 0.080558844 0.08745321 0.05037317
000100 03 9e ec 3b df a9 87 3d 8f ce 07 bd fc 58 a3 3d
       0.007220985 0.06624197 -0.033155974 0.07975957
000110 65 e4 db 39 95 18 cf 3d 58 c8 86 3d 93 67 70 3d
       0.00041941102 0.101121105 0.06581181 0.058692526
000120 db e9 2b 3d 68 da 64 3d 44 2e cf 3c 25 ff 03 3d
       0.04197107 0.05587235 0.025290616 0.032225747
000130 72 f1 6f 3d cb d7 80 3c a8 ca ce 3d c9 b5 db bd
       0.05857987 0.015727898 0.10097247 -0.10728032
000140 f9 fc d0 3d 95 07 8d 3d 2c 06 d9 3d ba 9d 4d 3c
       0.10204501 0.06886212 0.1059688 0.012549812
000150 07 be 8f 3c 9b a4 f4 3c 77 1d a2 3d 93 a0 d9 3d
       0.017546667 0.029863646 0.07915776 0.1062633
000160 51 f6 c3 3c 56 ba 1b 3d 91 f5 5a 3d 27 f0 96 3d
       0.023921164 0.0380195 0.053456847 0.07370024
000170 bc 29 93 3b 44 38 8e 3c df bc 72 3c ff 98 f5 3d
       0.004491059 0.017360814 0.014815538 0.11992072
000180 ae 3d 6d 3c 04 7f 9b 3d ef 0b 57 3d 23 85 d2 3d
       0.014480038 0.07592586 0.052501615 0.102793
000190 6d 32 c0 3c 26 50 84 3c 43 99 64 3c 2e ed de 3d
       0.023461545 0.016151499 0.013952556 0.10885082
0001a0 01 20 56 bb 4f 13 14 3d 43 a0 17 bd eb 5b 89 3c
       -0.0032672884 0.036151227 -0.03701807 0.016767463
0001b0 87 1a a4 3d 84 7d a1 3c 8b 62 a1 3d c1 08 98 3d
       0.08012872 0.01971317 0.07880124 0.07423545
0001c0 98 5e f6 3d 58 8c c9 3d c5 6f ab 3d a5 94 99 3d
       0.12029761 0.098412216 0.08370928 0.07499055
0001d0 6a bb 51 3d a1 ca e6 3d 68 f0 0f 3e 88 39 cb 3c
       0.051204123 0.11269117 0.14056551 0.024807706
0001e0 61 62 45 bc 82 b4 ea bc c2 5f 21 3d 35 53 10 bd
       -0.012047381 -0.028650526 0.039397962 -0.035235602
0001f0 2e 5a 0e 3e f1 b9 08 3e 6c 8a 36 bd 81 5b ed 3c
       0.13901588 0.13352181 -0.044565603 0.028974297
000200 34 13 e1 3d 1c ea b5 3d e3 14 c7 3d 5b 7b 92 3d
       0.10989991 0.088825434 0.09720781 0.071524344
000210 a8 36 90 3d 9e b1 54 bc 94 d2 86 3c c5 94 19 3d
       0.07041675 -0.0129818 0.016457833 0.037495393
000220 16 d1 3f 3d a1 52 af 3d 57 8d 0b 3d 56 ca 00 3d
       0.04683026 0.08560682 0.03407034 0.031442963
000230 7c 92 00 bb 8b 4d 45 3d 2e e7 32 3d 13 20 d8 3d
       -0.0019618561 0.048169654 0.0436775 0.10552993
000240 57 82 13 3d 64 8b b5 3d 47 d0 46 3d 00 0d fd 3c
       0.036012974 0.08864477 0.048538473 0.030889988
000250 58 f8 e1 3d e3 04 f1 3c ff ba 98 3c e4 e5 6e 3d
       0.11033696 0.029421275 0.018643854 0.05832471
000260 90 fa fc 3c fd e9 48 bb 30 d5 d3 3c 96 c7 84 3d
       0.030881196 -0.0030657046 0.025858492 0.064833805
000270 0b d7 3a 3c 3f 14 ac 3d b1 ad 0d 3d ee 29 d1 3c
       0.011403809 0.08402299 0.034589473 0.025532689
000280 29 b4 37 3d d6 10 9c 3d 36 b8 4c 3d 2d f3 2a 3d
       0.04484955 0.07620399 0.049980365 0.041735817
000290 0a 52 83 3c 61 be 22 3d 35 4b 1b 3d 93 db 98 3d
       0.01603033 0.03973234 0.03791352 0.074637555
0002a0 7e 03 9b 3d 6a 47 f6 bc 6e f2 86 3d a6 4d 37 3d
       0.075690255 -0.03006335 0.065892085 0.044751786
0002b0 1b 22 76 3d 22 2d 8c 3d 28 c9 c5 3c 8b fd 63 3d
       0.06009112 0.06844546 0.02414377 0.05566172
0002c0 30 2f 75 3d fd e2 60 3d c3 87 0c 3d 17 38 c1 3d
       0.059859455 0.054903973 0.03430916 0.094345264
0002d0 a3 51 21 3d 02 b3 4f 3d b4 73 2f 3d 58 8a f8 3c
       0.039384495 0.050707825 0.042834952 0.030339405
0002e0 3b 9d b7 3d 75 93 8e 3d 0b 6a a2 3d d1 40 09 3d
       0.08965536 0.06961719 0.07930382 0.03350908
0002f0 fa 7c d4 3d 8f b9 85 3d 0f 27 e3 3c d9 a7 ed 3c
       0.103754 0.06529533 0.027728586 0.0290107
000300 12 03 a2 3c 8b 25 1b 3e aa 15 47 3d b6 9d c4 3d
       0.019776855 0.1515104 0.048604645 0.096003935
000310 d3 71 a0 3d 64 37 24 3d 51 43 2d bd b8 ac 5e 3d
       0.0783421 0.040091887 -0.042300526 0.054363936
000320 4c ff 96 3d a7 cd a5 3d b3 85 1b 3d c5 27 97 3d
       0.07372913 0.08095866 0.037969302 0.07380632
000330 0c bc 09 3d 23 de 46 bd 08 97 fa 3d a0 14 41 3d
       0.0336266 -0.04855169 0.12235838 0.04713881
000340 1e 9e f8 3d e0 ba 7d 3d 9f 73 9c 3d d2 d7 3b 3e
       0.121395335 0.061945796 0.076392405 0.18344048
000350 0b ff 6d 3c 7f c5 f8 3c 88 12 d0 3d 20 56 cc 3c
       0.014526139 0.030367611 0.101597846 0.024943411
000360 33 1e 31 3d db 85 ce 3c d6 c0 8d 3d 39 af 9b 3d
       0.04324169 0.025210312 0.06921546 0.076017804
000370 47 6a 2f 3d 57 66 98 3d 04 82 a4 3d 53 04 be 3c
       0.042825963 0.07441395 0.08032611 0.023195421
000380 c8 f8 4d 3c 53 01 8e 3d 9d 22 e6 3c fa 1a c3 3d
       0.012571521 0.06933846 0.028092677 0.0952663
000390 ea 95 89 3d c3 cd 21 3d bb e4 da bb 99 78 dd 3c
       0.06718047 0.03950287 -0.006680099 0.027035045
0003a0 e2 dd fd 3c 77 13 a9 3d 24 36 4b 3d 9a 15 63 3c
       0.030989591 0.08255666 0.04961218 0.013860131
0003b0 8c 39 e4 3d fb 19 52 3d 04 e0 ef 3d 96 f4 03 3e
       0.11143789 0.05129431 0.117126495 0.12886271
0003c0 c2 73 4e 3c a9 44 21 3d c3 ae cb 3d 99 71 07 3d
       0.012600841 0.03937212 0.099454425 0.03306732
0003d0 63 58 d8 bc f6 ff f9 3c 5b b1 07 bc cf 47 d0 3d
       -0.026409334 0.03051756 -0.008282031 0.101699464
0003e0 05 92 03 3d d1 80 b3 3d b7 75 f6 bb fd 8c c1 3c
       0.032121677 0.08764804 -0.007521357 0.023626799
0003f0 15 2d 0d bd 20 70 f2 bb 5a 29 0b 3d b6 53 86 3b
       -0.03446682 -0.0073986202 0.033974983 0.0040993346

fc2.weight f4 [128, 256]
000000 fe 1b db 3c 65 40 de 3d f8 97 ba 3d 36 31 93 3d
       0.026746746 0.10852126 0.09111017 0.071871206
000010 44 cf b0 3d e9 bc ee 3d 22 84 66 3d 3b a6 6e 3e
       0.08633283 0.116571255 0.056278355 0.233056
000020 28 ef a2 3d f0 9f 30 3d f2 3d 22 3e f9 2b 36 3d
       0.07955772 0.04312128 0.15843943 0.04447553
000030 54 c4 08 3d 3b 3a 58 3c 4e fb c5 3d 61 f2 70 3d
       0.033390358 0.013197477 0.09667073 0.0588249
000040 77 91 3d 3d ac 02 00 3f ab 4e 9c 3d e2 d9 d4 bc
       0.046281304 0.50004077 0.07632192 -0.0259828
000050 24 74 60 bd 58 5d 6d bd 8a e4 ba 3d 04 0e 88 3d
       -0.05479826 -0.057950348 0.091256216 0.06643298
000060 40 36 ef 3d a9 6e ba 3d 2a 95 c6 3d d0 05 d3 3d
       0.11680269 0.09103138 0.096964195 0.10303843
000070 17 ac c1 3d 1b 62 87 3d 12 9e 26 3e 99 04 a5 3d
       0.09456652 0.06610509 0.16271237 0.080575176
000080 c4 b1 0e 3e b3 dc ef 3d 06 43 39 3d c7 e1 2c 3e
       0.13935 0.11712017 0.045229934 0.16883002
000090 5f 23 95 bc 4b 33 bb bd fe f2 60 3d 2f dd 10 3e
       -0.018205343 -0.09140643 0.054919235 0.14146875
0000a0 ea 2f 23 3d 39 e8 d1 3d 16 1b f3 3d 14 d1 00 bd
       0.039840616 0.10249371 0.118704006 -0.031449392
0000b0 9f 45 5b 3c 5f 10 45 3e 35 72 91 3d d6 9b 4e bd
       0.013383298 0.19244526 0.071018614 -0.050441585
0000c0 d0 e3 91 bd c6 09 55 3e 63 ce 36 3d 99 a1 d5 bc
       -0.0712353 0.2080451 0.04463042 -0.026078032
0000d0 28 4b 0e 3e 88 a7 77 3d f1 02 c1 3d 52 85 00 3e
       0.13895857 0.060462505 0.09424389 0.12550858
0000e0 93 81 41 3e 8f bb 8c 3d 8f 10 0a 3e b4 25 0a 3e
       0.18897085 0.068717115 0.13482879 0.13490945
0000f0 29 0d fc 3c 8f 0a 1d 3e d1 18 05 3e 31 b3 1e 3d
       0.030767994 0.15336059 0.12997748 0.03874511
000100 1a c0 c2 3d 42 1c 27 3e 6d 67 53 bd 79 9e 5a 3d
       0.09509297 0.16319373 -0.051612306 0.053373788
000110 8d 04 26 3d c8 5c 1c 3d 0c d3 5c bb 8b 81 23 bd
       0.040531684 0.03817442 -0.003369513 -0.039918464
000120 e5 9b 98 3d f1 b4 16 bd 03 f4 27 3e 44 0e a6 bc
       0.074516095 -0.036793653 0.16401677 -0.020270474
000130 8d da 80 bd c8 55 21 3d fb bb 84 3c 71 96 b1 3d
       -0.06291685 0.039388448 0.016202917 0.086712725
000140 f7 66 05 be 55 f3 92 3d 91 2f 24 3e b4 47 a7 3d
       -0.13027559 0.07175318 0.1603377 0.08167973
000150 f0 dc 16 3d e1 85 9f 3d 4d 64 37 3c 0c 84 5c 3d
       0.036831796 0.07789207 0.011193347 0.053836867
000160 cb 86 a9 3d 71 02 c2 bd 0a 59 2f 3e 2e c4 01 3e
       0.08277663 -0.09473122 0.1712381 0.12672493
000170 5d dc 98 bc d2 9b 26 3d 7d d7 c8 bd d3 78 fb 3d
       -0.018659765 0.040675946 -0.09806726 0.12278905
000180 5f d5 b3 bd e8 3a 9a bc 40 5c 34 bd 98 fe 55 3d
       -0.08780932 -0.018826917 -0.04403329 0.052244753
000190 db b5 b9 3d b6 43 ae 3d 8b f6 21 3e a7 55 4b 3d
       0.09067889 0.085090086 0.15816705 0.04964223
0001a0 c1 32 08 3f 67 df 72 3e 74 9c dd 3d 01 e2 b9 3d
       0.53202444 0.23718034 0.10820857 0.0907631
0001b0 28 33 c3 3d 8d 50 9c 3d f7 cb 2c 3a dd 52 a0 3d
       0.09531242 0.07632551 0.00065916724 0.07828305
0001c0 07 51 82 bd a8 79 1f 3d 5c be 15 3e 9c ae 3d 3e
       -0.06363111 0.03893438 0.14623398 0.1852364
0001d0 d0 d2 b7 bd 32 26 d9 3d a8 33 7c bd fa 63 e5 3c
       -0.08975756 0.10602988 -0.0615727 0.028001774
0001e0 3f df c7 3d 92 80 1e 3e 39 0a 62 bc 11 91 f3 3d
       0.09759378 0.15478733 -0.013796383 0.118929036
0001f0 1a 81 56 3e 61 2f 7c 3d 2e bd f1 3d 51 71 1a 3d
       0.20947686 0.06156862 0.11803661 0.037705723
000200 f5 58 c6 3d ac 7e e9 3b 7e 34 b1 3d 94 03 c7 3d
       0.09684936 0.007125696 0.0865259 0.09717479
000210 55 62 d4 bb 8b 75 eb bd 09 77 90 3d 35 83 2f 3e
       -0.0064814487 -0.11497029 0.07053954 0.17139895
000220 83 65 a1 bd 43 61 9f 3d 79 4e 34 bd d3 e3 59 3e
       -0.0788069 0.07782223 -0.04402015 0.21278314
000230 33 3e f0 3d 5f 54 38 bd 39 de f2 3c f4 5c 1d 3e
       0.117306136 -0.045002338 0.02964698 0.1536749
000240 fe 0f 4d bc 9e 20 2f 3d 64 60 0c 3d 34 15 7b 3d
       -0.01251602 0.042755716 0.034271613 0.061299518
000250 64 cc 51 3e 84 fd 9b 3d 5d 60 f0 bc 96 1c a3 3d
       0.20488125 0.07616714 -0.029342825 0.07964437
000260 01 23 b9 bd 36 e5 87 3e 85 ec 0a 3e 60 36 9f 3d
       -0.090398796 0.26542062 0.13566788 0.07774043
000270 50 5d 4b 3e c1 8c 11 3e 3c b0 88 3d 54 58 ad bd
       0.19859815 0.1421385 0.06674239 -0.08464113
000280 a9 47 81 3d 83 27 ba 3d 29 2e bc 3d 63 72 fb bc
       0.06312496 0.090895675 0.09188492 -0.030694192
000290 39 65 16 bc b6 94 71 bd 0e 8c 5c bd b2 bf 91 3b
       -0.009179407 -0.058979712 -0.053844504 0.0044479007
0002a0 89 77 75 bd ef af 1f 3e e6 c2 8f 3c 82 9a b2 3d
       -0.05992845 0.15594457 0.01754899 0.08720876
0002b0 d7 42 a5 3c 62 2f 09 bd 33 f1 55 bd ed d7 34 3d
       0.020173473 -0.033492453 -0.05223198 0.044151235
0002c0 c0 7e e7 3d 2b 20 d7 bc 99 0f 81 bc 59 03 bb 3d
       0.113034725 -0.026260456 -0.015754508 0.09131498
0002d0 f4 24 8c 3d 93 c2 54 bd e9 33 f2 3c 95 0d d0 bd
       0.06842986 -0.051943373 0.029565768 -0.101588406
0002e0 b7 f7 b2 3c c2 e6 5b 3b 0b 57 28 bd a8 ab a4 3d
       0.021846635 0.003355429 -0.041098636 0.08040553
0002f0 e1 f5 a6 3d 24 59 19 3d 70 62 eb 3c c1 d4 e0 bc
       0.081523664 0.037438527 0.028733462 -0.027445199
000300 90 e5 32 3e 92 7f 17 3e 54 61 85 bc 29 fd 72 bc
       0.17470384 0.14794758 -0.016281761 -0.014830866
000310 69 ea 0b 3d 36 99 87 3d 9b 0b 02 3d 32 b3 90 bc
       0.034159098 0.066210195 0.03174935 -0.017663572
000320 41 7e d4 3d d3 81 4a bd 35 d5 75 3c 7d d1 d6 3d
       0.103756435 -0.049440216 0.015004446 0.104891755
000330 37 0c 4b 3e 4c db b2 3d 86 2d 2f bd 7e d2 99 3d
       0.19828878 0.08733234 -0.042768024 0.07510851
000340 2f f8 d6 bd e9 6f 32 3d d8 01 e1 3d d8 d2 7f 3e
       -0.10496556 0.043563757 0.1098668 0.24982774
000350 5f c8 e7 3c f7 b9 21 3d fe c6 21 3e bd 48 38 3e
       0.028293787 0.03948399 0.15798566 0.17996497
000360 d2 51 a7 bd ce 8c af bd 3f 61 fb bd 0a f0 ae bc
       -0.08169903 -0.08571778 -0.122744076 -0.021354694
000370 c9 cb 96 bb a2 36 46 bd e4 41 c8 3c e3 fc a8 bb
       -0.00460193 -0.048391946 0.024445482 -0.0051570996
000380 5a 65 ea 3d 13 b3 e5 3c 0d d4 a3 bd 1e 9c 79 3d
       0.114451125 0.02803949 -0.0799943 0.0609399
000390 59 ba 73 3d c1 06 20 bb 75 54 fb 3c 62 5e f7 bb
       0.059503887 -0.0024418088 0.03067992 -0.007549093
0003a0 a6 ec 2a 3d b2 74 a8 3e b6 61 80 3b 59 b3 57 3e
       0.04172959 0.3290153 0.003917898 0.2106451
0003b0 03 b7 76 bd fb 44 7d bd 57 33 56 3d 5a 84 52 3d
       -0.060233127 -0.061833363 0.052295055 0.05139575
0003c0 6f 19 42 bd 06 70 59 3d 13 c8 87 bd 9d c9 5b 3d
       -0.047387537 0.05308535 -0.06629958 0.05365907
0003d0 04 14 66 3e af 8d 44 3d 10 e8 54 3d 14 c7 91 bb
       0.22468573 0.047986683 0.051979125 -0.004448781
0003e0 22 4d 2d 3d 3a 5f 07 3d 3c 27 96 3d 08 4d 74 3e
       0.042309888 0.0330498 0.07331702 0.2385751
0003f0 33 63 29 3d c3 29 71 3e cb e4 80 3e a2 68 ae 3d
       0.04135437 0.23551087 0.25174555 0.08516051

fc2.bias f4 [128]
000000 77 4d e7 3d ef 9a 02 3c c6 c4 91 bc e6 7b 0d 3d
       0.11294072 0.007971509 -0.017794024 0.034541987
000010 3c e8 22 3d 7d 19 bf 3c d2 8f 35 bc c6 84 52 bd
       0.039772257 0.023327583 -0.011081653 -0.051396154
000020 61 c7 bb 3c 34 da b4 3d 08 db 85 3d 64 aa 3d 3d
       0.02292222 0.088306814 0.065359175 0.046305075
000030 b0 1e e0 ba 2b 49 56 bd 71 0b 47 bd 47 9c a4 3c
       -0.0017098989 -0.052315872 -0.048594896 0.02009405
000040 79 d8 40 bd 13 2c 41 3d b5 8b a3 bc b0 d8 88 3c
       -0.047081444 0.047161173 -0.019964078 0.016704887
000050 e6 02 c8 bc 1c 5b 1a bc 82 50 08 3d 3c 9f c3 ba
       -0.024415445 -0.009421136 0.033279903 -0.0014924775
000060 67 bd 6c 3d 64 3a dd bc d5 5c 38 bd 4c 25 3f 3c
       0.057797816 -0.027005382 -0.045010407 0.011666607
000070 3a c3 1e 3d 82 41 53 bc 1a ac 02 3d 54 f2 ef 3b
       0.0387604 -0.012894036 0.03190241 0.007322589
000080 a4 c4 f4 bc 5b ba f2 bc 0e 7a af bc d1 83 9d bc
       -0.029878922 -0.029629877 -0.021420505 -0.019227894
000090 71 4c 89 3d 4a f3 55 3d 2e 8c 78 3c 88 03 8f bd
       0.06704033 0.05223397 0.01517014 -0.069830954
0000a0 a2 cf 4b 3c 2a 53 a4 3d 21 d8 c6 38 64 37 71 3d
       0.01243964 0.08023675 9.481633e-05 0.058890715
0000b0 53 ae e4 3d f3 0e 29 bd cf 86 0a bd fd 51 07 3d
       0.11166062 -0.041274022 -0.03381997 0.033037174
0000c0 6e ee 31 bc 57 24 16 bd c2 c3 d4 bc d9 2f 35 3a
       -0.010860069 -0.03665575 -0.02597225 0.0006911732
0000d0 0d 4b 8d 3b a0 2d a7 3c 04 5d dd 3a 13 f2 cf 3d
       0.0043119253 0.020407498 0.0016888683 0.10153594
0000e0 90 ee 42 bc 27 a0 c4 3d 89 3c 8c bc b6 0a b3 3d
       -0.011897698 0.09600859 -0.01711871 0.08742277
0000f0 7e da 8e bc 1d ec 5c bd 7d c4 c4 bc 1c 1f 69 3d
       -0.01743817 -0.053936113 -0.024019474 0.056914434
000100 8a f7 67 bb 62 83 95 3d 96 6f 79 3c 35 1c d1 bc
       -0.0035395348 0.0730045 0.015224358 -0.025526145
000110 5f 4f db bc 1c 76 6e 3d 86 b5 ba 3c 27 74 4d bd
       -0.026771246 0.058218107 0.022791635 -0.0501596
000120 37 f3 f5 3c 7e bf c4 bc cb 71 04 3d d7 7a 78 3d
       0.0300232 -0.024017092 0.032335084 0.060664024
000130 6a e2 59 bd 94 4d 84 3d 64 02 be bb d8 33 33 bd
       -0.05319444 0.06460109 -0.005798625 -0.043750614
000140 d6 3e 2d bb 4c da bc bb 0a 87 a4 3c ef 4f c2 bc
       -0.0026435158 -0.0057633277 0.020083923 -0.023719756
000150 72 b1 c7 3c a9 34 cb bb 21 12 3f 3b 5b 64 b4 bc
       0.024376605 -0.006201346 0.0029155093 -0.02202051
000160 7d 5f c6 3d ee 29 39 bd 6c d3 95 3d 17 6f 9e 3d
       0.09686182 -0.045206003 0.07315716 0.077360325
000170 ce 78 46 3d 85 7d 16 bd e8 99 1d 3c 0f 51 e0 3c
       0.048455052 -0.0367408 0.009619214 0.027382402
000180 c1 1c c0 3d 31 2d 9c 3c e3 a8 c2 3d 55 32 20 3c
       0.09380484 0.019064518 0.09504869 0.009777625
000190 50 67 e2 3a b3 fc 54 3d d1 59 2d bc dd e7 4f 3d
       0.0017273221 0.051998805 -0.010580496 0.05075823
0001a0 2e b1 ae bc fc 77 1f bc d7 10 bb 3c 4d 80 c0 3c
       -0.02132472 -0.009733196 0.022835178 0.023498679
0001b0 68 d4 7b 3d 36 82 f5 3d 46 d0 4d bd 6b e9 64 bd
       0.061481863 0.119877264 -0.050247453 -0.055886667
0001c0 0c 23 35 bd aa 0d 68 3d f5 03 40 3d cd 46 6b 3d
       -0.044222876 0.056653656 0.046878774 0.057440568
0001d0 e1 a8 f3 3c 79 ca 8e 3c 52 ba a2 3c 03 41 d4 bb
       0.029743614 0.01743053 0.019864235 -0.0064774766
0001e0 3e e6 dd 3c 42 af 04 3d 32 69 4b 3d 00 36 42 39
       0.027087327 0.0323937 0.04966087 0.00018521398
0001f0 65 0a fb 3b 65 ac 85 3d 93 41 c0 3d cc 03 22 bc
       0.0076611512 0.06527022 0.09387507 -0.009888601

fc3.weight f4 [2, 128]
000000 eb b4 04 bc 45 24 0a 3d c2 a3 66 bd d2 dc bb 3d
       -0.008099775 0.033725996 -0.056308515 0.091729775
000010 2a 3f fe 3d 4a 83 b0 3d ee 26 0f 3d 8c f0 ae be
       0.12414391 0.086187914 0.034949236 -0.34167898
000020 40 17 93 bd eb 68 42 be 28 61 96 3d bc e9 87 3d
       -0.07182169 -0.18985336 0.0734275 0.06636378
000030 ba c9 f7 3d 34 b2 0d be 45 f7 4e be 07 67 bf 3d
       0.12099023 -0.1383751 -0.20211513 0.09345823
000040 ca 1a e3 3d 6f 3b 82 bd 38 da e6 3d 5c a3 2f be
       0.11089094 -0.06358992 0.11272091 -0.1715216
000050 70 4d b8 3d e3 bb 32 3e 92 e3 d4 3d 92 89 db bd
       0.08999145 0.17454486 0.10394968 -0.10719599
000060 ca b0 4b bd a9 7f bc bd dd d8 c4 3d d6 d5 84 be
       -0.049729146 -0.09204037 0.09611676 -0.25944394
000070 f2 df bd be 1b b3 1a bd 98 88 b0 3d 47 6e 1b bc
       -0.3708492 -0.037768465 0.08619803 -0.009486741
000080 b5 87 33 3e 38 56 8d bd 7e 46 65 bd a4 35 24 be
       0.17532237 -0.069012105 -0.05597543 -0.16036087
000090 1f 5c 86 bd 8f 3b 51 bd fd 75 b9 3d 63 56 8e be
       -0.065605395 -0.05108219 0.090557076 -0.27800283
0000a0 f0 e5 6b be f9 74 4d bd 31 d4 3a bc 0b b8 a2 bd
       -0.23036933 -0.050160382 -0.011403129 -0.0794526
0000b0 76 e5 00 bd 7b f2 60 be 57 1a 01 3e 29 40 64 be
       -0.03146883 -0.21967499 0.12607704 -0.222901
0000c0 de 7a a6 3d fb 6f cf bd 52 8a 1e be af c0 66 3d
       0.08128904 -0.101287805 -0.15482453 0.0563361
0000d0 2a f6 a9 3d c8 7d dc 3d a0 8b 46 be 83 51 e4 3d
       0.08298905 0.10766178 -0.193892 0.111483596
0000e0 dc 80 13 3e 97 0d b7 bd 9b 8c b7 3d 65 94 ed 3d
       0.14404625 -0.08938139 0.08962365 0.1160057
0000f0 eb 99 68 be 00 56 cb 3d 3c 45 1c 3e ec 30 01 3e
       -0.22714965 0.099285126 0.15260786 0.12616318
000100 f2 76 6d 3e 41 4f 79 3d f9 a3 f2 bd 88 39 86 bd
       0.23189905 0.060866598 -0.118476816 -0.06553942
000110 46 76 91 3d c2 4f fa bd f5 e1 1c 3e 09 d3 8a bd
       0.07102637 -0.12222244 0.15320571 -0.06778533
000120 46 77 95 bd 1b da d6 3d 2f d7 52 bd 52 b1 d9 3d
       -0.0729814 0.10490819 -0.051474746 0.10629524
000130 62 18 10 be 58 02 82 bd 67 58 9f bc 08 58 20 bd
       -0.14071801 -0.06348103 -0.019451333 -0.039146453
000140 89 8f 9d bd aa c1 86 3d 0a e4 04 3e c4 e7 f2 3d
       -0.07693393 0.06579907 0.12977615 0.11860612
000150 03 47 c2 3d 42 fd f7 3d 97 4a 0c 3e 87 c4 9e 3d
       0.09486201 0.12108852 0.13700329 0.07752328
000160 9c a3 4f bd 37 48 d9 3d b2 d8 40 bd 30 c2 c2 3d
       -0.05069314 0.10609477 -0.047081657 0.095096946
000170 00 0d d4 3d 06 f6 ad 3d a1 e6 95 be 92 d4 7d bd
       0.10354042 0.08494191 -0.29277518 -0.0619703
000180 74 b0 2d be 87 e9 e7 3d 6d 49 e3 bc 87 a5 84 be
       -0.16961843 0.11323839 -0.027744973 -0.25907537
000190 65 14 86 3c 9a 15 9d 3d 6b fd b0 3d 65 2b f0 bd
       0.016367147 0.07670136 0.08642086 -0.11727027
0001a0 30 e2 44 bd 75 7f e2 3d f1 a9 f6 3c a1 44 4f bd
       -0.04806727 0.11059467 0.030110331 -0.05060256
0001b0 e0 27 35 bb cc 53 4c bb c9 b6 f3 3c b4 92 61 be
       -0.0027642176 -0.0031177877 0.029750245 -0.22028619
0001c0 79 74 94 bd c1 e3 91 bd 7a 0c 8a bd 33 f8 ef 3d
       -0.07248778 -0.07123519 -0.06740661 0.11717262
0001d0 6f 79 6a bd 84 d6 77 bd 7a cd 5f be 95 d3 86 bd
       -0.057244714 -0.060507312 -0.21855727 -0.06583325
0001e0 c8 9c ec bd 3f a8 10 be 4f a0 6a bd 76 ea df bd
       -0.11553341 -0.14126681 -0.05728179 -0.10933392
0001f0 b0 93 99 bd e4 48 11 3e 53 a6 7b bc f0 72 03 3e
       -0.07498872 0.14187962 -0.015359479 0.12836814
000200 f8 df 53 be f6 15 c0 3d 4f d2 18 3d fb 96 d8 3d
       -0.20690906 0.09379189 0.03730994 0.10575672
000210 1e ab 13 3e 56 6e 13 3c 59 3d 8d bd 4c 9b 57 3d
       0.14420745 0.008998474 -0.06896467 0.052638337
000220 96 d0 de bc 0d e3 90 bd f0 a7 cc 3d 7d 81 85 bd
       -0.02719907 -0.070745565 0.09992969 -0.065188386
000230 58 67 fa 3d 47 1c ac 3d 9b 46 da 3c f9 4f 9e 3d
       0.122267425 0.08403831 0.026644995 0.07730097
000240 39 cb f6 bd bc cb 1c 3d 67 8f 97 3d fa 6e 2b 3d
       -0.120504804 0.038280234 0.07400399 0.041853882
000250 c7 93 1d 3c 6d c0 0c 3e d4 7a 0f 3d dd b1 8d bc
       0.009617752 0.1374528 0.035029247 -0.017296726
000260 ad 29 72 3e 98 62 46 3e 91 7b 32 3d c8 a7 82 bb
       0.2364871 0.19373548 0.043574873 -0.0039872862
000270 35 31 83 be 43 41 b6 3d 08 1f cc 3c 29 9c a8 3c
       -0.2562348 0.088991664 0.02491714 0.020582275
000280 76 59 11 3e ef 4f 06 3d d3 91 c4 3d 03 76 5c 3d
       0.14194283 0.032791074 0.09598126 0.053823482
000290 c8 40 8a 3a 28 3b 99 3e 68 76 db bd e4 40 d8 bb
       0.0010547871 0.29927945 -0.107159436 -0.0065995324
0002a0 a8 9b 6b bc ac ac 92 3e 09 73 d9 3a f2 86 8c 3d
       -0.014380373 0.28647363 0.0016590069 0.06861676
0002b0 f5 52 1d be d2 d5 1f bd ec 2d af bc 6e a2 ee 3c
       -0.15363677 -0.039022274 -0.021384202 0.029130187
0002c0 18 3e 24 3c f8 0c 75 3d 6b 6e 1b be d0 60 b4 3d
       0.01002457 0.05982682 -0.1517884 0.08807528
0002d0 d5 f8 01 3e 76 1d cd bd 17 2c 11 3d 83 70 19 3e
       0.12692578 -0.10015385 0.035442438 0.14984326
0002e0 4d 77 eb 3d 5f aa 28 be 2c 5e ea 3c 16 b4 05 3e
       0.11497364 -0.16471241 0.028609358 0.13056979
0002f0 69 22 39 bd 1c e8 24 be 6c 66 02 bd c1 d4 c6 3d
       -0.04519883 -0.16104168 -0.03183596 0.09708548
000300 d9 9e cf ba 04 28 bc 3d 06 38 86 bd 8c 19 9f 3d
       -0.0015840187 0.0918732 -0.065536544 0.077685446
000310 64 d1 ca 3d 77 bd fb bd 2e 52 a7 bd a6 ce 81 3e
       0.09903219 -0.12291997 -0.081699714 0.25352973
000320 83 28 5c 3d 24 7e fe bd f2 2d 89 bd e6 9e 13 3e
       0.053749572 -0.12426403 -0.066982165 0.14416084
000330 76 e3 9d bd 33 63 3b 3d 45 a0 73 3e 13 4d 98 3e
       -0.077094 0.0457489 0.23791607 0.29746303
000340 1d c7 bf bd b8 14 b6 3d 28 46 c4 b9 6c 02 7b 3d
       -0.0936415 0.088906705 -0.00037436304 0.061281607
000350 7b be a6 3d c6 fe 01 be 05 34 56 be 05 4c f7 bc
       0.081418 -0.12694845 -0.20918281 -0.030187616
000360 da 3a cb 3d b1 c1 14 be c5 3a aa 3d f3 22 87 3d
       0.099233344 -0.14527012 0.08311991 0.06598463
000370 d1 e6 fe 3d 62 7f ea 3d c0 b2 a9 3c ea 07 86 3d
       0.124463685 0.114500776 0.020715117 0.06544478
000380 e0 1b a4 bd 07 0e bf bd 8f 9b 39 be be c6 17 bd
       -0.08013129 -0.093288474 -0.18125747 -0.03705477
000390 4b e5 3e 3d 3b d1 58 3d 1d 3a a5 3d d8 94 5e 3c
       0.04660539 0.052933913 0.08067725 0.013585292
0003a0 68 e3 ab 3d b8 a9 a9 3d e6 5e 3a be 49 c3 07 3e
       0.08392984 0.082843244 -0.18200263 0.13258089
0003b0 9c ff 42 be 32 7d 4b be 63 ea d7 3d 6c 4b 68 3c
       -0.1904282 -0.19871977 0.105427526 0.014178138
0003c0 06 59 91 be ff 7d 50 3b b7 a6 03 3e 2d 9d a7 3d
       -0.28388232 0.003181338 0.12856565 0.08184276
0003d0 8e 95 0f 3e 4f af 89 3d 2b 08 52 bd 55 0a 5f 3d
       0.14021894 0.067228906 -0.05127732 0.054453213
0003e0 71 21 5f 3e 63 b9 7b 3d 09 b2 ab bd aa c4 c6 3c
       0.217901 0.061456095 -0.08383567 0.024263699
0003f0 71 1f 9f 3e 72 27 be 3d 44 28 48 be c0 b2 d9 3d
       0.31078675 0.09284867 -0.1954661 0.10629797

fc3.bias f4 [2]
000000 48 c4 05 bc 39 31 7e bd
       -0.008164473 -0.06205866
