checkpoint/agent0_checkpoint_critic.pth (torch_old, 971602 bytes, 27 tensors)

fc1.weight f4 [256, 48]
0	0x3dfad454	0.122475296
1	0x3ed87c63	0.422824
2	0xbd3faa77	-0.046793427
3	0xbee69fa9	-0.45043686
4	0xbe03241b	-0.12806742
5	0xbb507d6c	-0.0031813039
6	0x3d8d9ad8	0.069143
7	0xbe6b4905	-0.22977073
8	0x3e24635d	0.16053529
9	0x3ece5b11	0.40303853
10	0x3df81ad7	0.12114494
11	0x3d5ce0fd	0.053925503
12	0xbe058bfd	-0.13041683
13	0xbe97d4bb	-0.29654488
14	0x3dd7964d	0.105267145
15	0x3db37ec3	0.08764412
16	0x3ea77ce9	0.32712486
17	0x3f0205ef	0.50790304
18	0x3cd15c4b	0.025556704
19	0x3f66ef5e	0.90208995
20	0x3eb39acf	0.35079047
21	0x3ceb3da3	0.028715914
22	0x3dbfe889	0.093705244
23	0x3f8956b4	1.0729585
24	0x3f4782ab	0.7793376
25	0x3fb98816	1.4494655
26	0x3e1d749b	0.15376513
27	0xbe07a67f	-0.13247107
28	0xbc96a71a	-0.018390227
29	0xbda09e86	-0.07842736
30	0xbd07f44c	-0.033191964
31	0x3e01295f	0.12613438
32	0x3f0067e1	0.50158507
33	0x3fbc260c	1.4699111
34	0xbc8c2470	-0.017107219
35	0x3e7c9844	0.2466746
36	0xbdbbdd19	-0.091730304
37	0xbd9d74c4	-0.07688287
38	0x3e17b1b6	0.14813885
39	0x3ee75447	0.45181486
40	0x3f387bb7	0.72063774
41	0x3fc0c24b	1.5059294
42	0x3d9551fe	0.072910294
43	0xbe759eef	-0.2398641
44	0xbece2919	-0.4026573
45	0xbe298614	-0.16555053
46	0x3e0ee827	0.13955747
47	0xbca7b592	-0.020472322
48	0xbeb8263e	-0.35966676
49	0xbdfdd133	-0.12393417
50	0x3cd57bb4	0.026059963
51	0xbe1ebb5b	-0.15501158
52	0x3cd6a4e0	0.026201665
53	0xbeccba59	-0.39985922
54	0x3cfa0d90	0.030524045
55	0xbec45882	-0.38348776
56	0xbe47199d	-0.19443364
57	0xbe076509	-0.13222136
58	0xbd45e5b1	-0.048314754
59	0x3db3dc5e	0.08782266
60	0x3e2a4629	0.16628326
61	0xbeb87038	-0.36023116
62	0xbd0a57b7	-0.033775058
63	0x3e52eed5	0.2059892
64	0x3dcca704	0.09992793
65	0x3e1a6980	0.15079308
66	0x3de39a1e	0.1111338
67	0xbe3fd152	-0.18732193
68	0x3e974f7a	0.29552823
69	0x3e43684d	0.19082756
70	0xbbb7c7a0	-0.005608514
71	0xbe8c1d6d	-0.273662
72	0xbe1da979	-0.1539668
73	0xbc7d895f	-0.015474646
74	0xbd601d5b	-0.054715496
75	0x3e5f1f7c	0.21789354
76	0x3d74f974	0.05980821
77	0xbf0b7c91	-0.5448695
78	0xbe2b0cf5	-0.16704161
79	0x39790364	0.00023747754
80	0xbe96826b	-0.29396376
81	0x3c774f77	0.0150946295
82	0x3dec53dd	0.11539433
83	0xbe66ffc4	-0.22558504
84	0xbd9777b7	-0.07395881
85	0xbee29b3d	-0.44259062
86	0xbc9457ae	-0.018108215
87	0xbe173873	-0.14767627
88	0xbc667bd3	-0.014067608
89	0xbd8653fe	-0.06558989
90	0xbe3fe8ea	-0.18741193
91	0xbecf037d	-0.4043235
92	0xbdd23e14	-0.10265747
93	0x3dd981da	0.1062047
94	0xbec43033	-0.38318023
95	0xbf1229ae	-0.5709485
96	0x3c3003d4	0.0107431
97	0x3f935f36	1.1513431
98	0xbcb514bd	-0.022104615
99	0xbd2d3152	-0.042283364
100	0x3ef5af4d	0.47985306
101	0xbec745e2	-0.38920504
102	0x3ce1bcc9	0.02755584
103	0x3b937c06	0.0045008687
104	0xbdaaec95	-0.08345906
105	0x3f99fe99	1.2030822
106	0xbca83b42	-0.020536069
107	0x3d375101	0.044754986
108	0x3e112a81	0.1417637
109	0xb96e2fd6	-0.00022715269
110	0x3cedf813	0.029048955
111	0x3e778a5c	0.24173874
112	0xbcae7b59	-0.021299051
113	0x3fa41786	1.2819679
114	0x3c877fd4	0.016540445
115	0xbedbd0bb	-0.42932686
116	0xbeb7bd1d	-0.3588647
117	0x3f97fde4	1.1874356
118	0xbd7b2518	-0.061314672
119	0xbe8bf7f1	-0.27337602
120	0x3ce8d138	0.028420076
121	0xbd99670e	-0.07490359
122	0xbbebd9fd	-0.007197617
123	0x3e177390	0.14790177
124	0xbef70d48	-0.4825232
125	0xbf126f32	-0.5720092
126	0x3cddf983	0.027096516
127	0x3c1841be	0.009293018
128	0xbd250031	-0.040283386
129	0xbd40245a	-0.046909668
130	0xbda63904	-0.081163436
131	0x3e30d645	0.17269237
132	0xbe799938	-0.24374855
133	0xbcf012c9	-0.029305832
134	0x3d5886c6	0.052862905
135	0x3e020c9c	0.12700123
136	0xbde9a0eb	-0.11407646
137	0x3c940c2d	0.018072212
138	0xbc8a2592	-0.016863618
139	0xbd856daf	-0.06515061
140	0x3eeb58c1	0.4596615
141	0x3fa2e406	1.2725837
142	0x3dba495a	0.09096022
143	0xbe2b620a	-0.16736618
144	0xbefe0106	-0.49610156
145	0xbd0d0cc3	-0.034436
146	0x3dee7494	0.11643329
147	0x3e1749cb	0.14774244
148	0xbe8c914f	-0.27454612
149	0xbf10eaf9	-0.5660854
150	0xbdef7664	-0.11692503
151	0x3cdc0051	0.02685562
152	0xbef7ffec	-0.4843744
153	0x3e0cbdab	0.13744228
154	0xbba9b552	-0.005179086
155	0x3e31529d	0.1731667
156	0x3db38c2d	0.08766971
157	0xbf93c467	-1.1544312
158	0xbde8ea2b	-0.11372789
159	0x3e81f7e2	0.25384432
160	0xbf03a4bf	-0.5142326
161	0x3cf3a93b	0.029743781
162	0x3d6a04ce	0.05713349
163	0xbef8cf2d	-0.48595563
164	0x3eea0423	0.4570628
165	0xbe984d16	-0.29746312
166	0x3df7fc65	0.12108687
167	0xbe9d290d	-0.30695382
168	0x3da1e229	0.07904465
169	0xbe408d5b	-0.18803923
170	0x3e144786	0.14480409
171	0xbe546ea5	-0.20745333
172	0x3eaa9198	0.33314204
173	0xbece70e4	-0.40320504
174	0xbde62c10	-0.11238873
175	0xbd6a84eb	-0.057255667
176	0x3e0a19c9	0.13486399
177	0xbdfd420d	-0.12366114
178	0xbb1513da	-0.0022747428
179	0xbe100a7c	-0.140665
180	0x3c923fe2	0.017852727
181	0xbf892d8d	-1.0717026
182	0xbc6f8df1	-0.014621244
183	0x3c853bc7	0.016263856
184	0x3e37a6f1	0.17934777
185	0xbd489164	-0.04896678
186	0xbe0476bd	-0.1293592
187	0x3d7a4421	0.06110013
188	0xbf193d28	-0.5985894
189	0xbe626dba	-0.2211217
190	0x3ca36fc0	0.019950747
191	0x3e42c78e	0.19021437
192	0x3dcc434c	0.09973773
193	0xbf088d55	-0.53340656
194	0xbd056d73	-0.032575082
195	0xbe102b2c	-0.14078969
196	0xbe1b5b22	-0.15171483
197	0x3ec4ace6	0.3841316
198	0xbc89f2e7	-0.016839458
199	0xbd840f5a	-0.064482406
200	0x3ea1d08e	0.31604427
201	0xbef49bc8	-0.47775102
202	0xbd057eda	-0.03259168
203	0x3d98fe0d	0.07470331
204	0xbde8c601	-0.11365891
205	0x3f09ef4a	0.5388075
206	0x3cc9c945	0.024632106
207	0x3e9750da	0.29553872
208	0x3eedfec9	0.46483448
209	0xbf1907c4	-0.59777474
210	0x3dfde469	0.123970814
211	0x3eb39c59	0.3508022
212	0x3d06896a	0.032845892
213	0x3e714970	0.2356317
214	0x3dfe0408	0.12403113
215	0x3ecba653	0.39775333
216	0x3ec600b1	0.38672403
217	0xbef3a936	-0.47590035
218	0xbc911db5	-0.01771436
219	0x3c86753f	0.01641333
220	0x3d6a7a0c	0.0572453
221	0x3ef4867a	0.47758847
222	0xbda831a3	-0.082125925
223	0x3e0cf0b6	0.13763699
224	0x3ee21c27	0.44162104
225	0xbf169413	-0.58819693
226	0xbdd40704	-0.103529006
227	0xbd241cb2	-0.04006643
228	0xbc9833cb	-0.018579384
229	0x3ed5330b	0.41640505
230	0x3a612f24	0.00085900933
231	0x3df5ac40	0.11995745
232	0x3f24888b	0.6427085
233	0xbee6b999	-0.45063475
234	0x3d211851	0.03932983
235	0x3f10d391	0.56572825
236	0x3d4ccbf6	0.0499992
237	0x3e2a8e58	0.16655862
238	0xbde18e71	-0.11013497
239	0x3f330e38	0.6994357
240	0x3eab6a08	0.33479333
241	0xbe476744	-0.19472986
242	0xbdb20319	-0.08691997
243	0x3e1bb1cc	0.15204543
244	0x3f1de637	0.61679405
245	0xbf5c43a5	-0.8604072
246	0x3d82dd1f	0.06389832
247	0x3d04f4fa	0.03246019
248	0x3e87d396	0.26528615
249	0xbf01e22e	-0.5073575
250	0x3d27773c	0.040885195
251	0x3ce032bd	0.027367944
252	0x3ea0eb91	0.31429723
253	0xbe96023a	-0.29298574
254	0x3cffaff1	0.031211825
255	0xbd38b2e9	-0.045092497

fc1.bias f4 [256]
0	0xbe216da8	-0.15764487
1	0xbeb580d7	-0.3544986
2	0xbe700363	-0.23438792
3	0x3d693b99	0.056941602
4	0xbed6ae2b	-0.41929755
5	0x3eaf10ca	0.34192497
6	0xbf0788ff	-0.52943414
7	0xbd12c1e5	-0.035829443
8	0xbef1c329	-0.47219208
9	0x3d13bf57	0.036071148
10	0xbed5d3b3	-0.41763076
11	0x3e75c054	0.23999149
12	0x3e3a25b4	0.18178445
13	0xbe48f355	-0.19624074
14	0x3d844199	0.06457824
15	0xbeefac08	-0.46810937
16	0xbefdf857	-0.4960353
17	0xbf5589c4	-0.8341334
18	0xbf2c45b2	-0.67293847
19	0x3e47f84d	0.19528313
20	0xbf072a61	-0.5279904
21	0xbe6a9cd8	-0.22911394
22	0xbea6daa7	-0.32588693
23	0xbbddd72e	-0.006770036
24	0x3e37b420	0.17939806
25	0x3e984128	0.2973721
26	0x3e9b22fd	0.3030013
27	0x3d6043c2	0.05475212
28	0xbe650e35	-0.22368701
29	0xbe2548a2	-0.16140988
30	0x3da727a3	0.08161857
31	0x3e135f44	0.1439181
32	0xbd6d6a6b	-0.057962816
33	0x3c7772f5	0.0151030915
34	0xbe22e769	-0.15908588
35	0xbdddcae4	-0.10829714
36	0xbf057743	-0.52135104
37	0xbea59a1f	-0.32344148
38	0xbf106d70	-0.5641699
39	0xbf2522fe	-0.6450652
40	0xbe744989	-0.23856176
41	0xbf529d0d	-0.8227089
42	0xbea37896	-0.31927937
43	0xbf1eee98	-0.62082815
44	0xbee6462d	-0.44975415
45	0xbe4ef8a9	-0.20212044
46	0xbf1d8e1b	-0.6154496
47	0xbdf03dd9	-0.117305465
48	0xbe640554	-0.22267658
49	0xbd189cb7	-0.03725883
50	0xbf5f91b9	-0.8733173
51	0x3d3a82bc	0.045534834
52	0xbf148a21	-0.5802327
53	0x3cc83623	0.024439877
54	0xbeb3eabe	-0.35140032
55	0x3c1f9c83	0.009741905
56	0xbd858e51	-0.06521285
57	0xbee9bf16	-0.456536
58	0xbe9e0202	-0.30860907
59	0xbec8134e	-0.39077228
60	0xbe010bd7	-0.12602173
61	0x3d3b91c0	0.045793295
62	0xbe0c3f57	-0.13696037
63	0xbe653ae6	-0.22385749
64	0xbe1601ee	-0.14649174
65	0xbf3f243f	-0.7466468
66	0xbeb7fc01	-0.3593445
67	0x3ddb16cf	0.1069771
68	0xbefdd48e	-0.4957623
69	0x3def3710	0.11680424
70	0xbcd9e975	-0.026600579
71	0xbed8d166	-0.42347258
72	0xbdcd2bd3	-0.100181244
73	0xbe4ea3b3	-0.20179634
74	0xbed414fe	-0.41422266
75	0x3b1e8eed	0.0024194077
76	0xbf33cde3	-0.70236033
77	0xbf21c676	-0.6319345
78	0xbe54d56d	-0.2078454
79	0x3e424299	0.18970717
80	0x3d979f4a	0.07403429
81	0x3f267203	0.6501772
82	0xbdfb62d9	-0.12274713
83	0xbf40d235	-0.7532075
84	0x3e89da55	0.26924387
85	0xbf374299	-0.71585995
86	0xbe893b9d	-0.26803294
87	0xbdca76cc	-0.0988594
88	0xbef9990d	-0.4874958
89	0x3c9fb433	0.019495105
90	0xbe9b5b4c	-0.3034309
91	0x3dffee3c	0.124966115
92	0xbe88fcf1	-0.2675548
93	0x3da17a79	0.07884688
94	0xbb2780b3	-0.0025558888
95	0xbf5c1897	-0.8597502
96	0xbecfcb03	-0.40584573
97	0x3eab467f	0.33452222
98	0xbe00df64	-0.12585217
99	0x3f035a09	0.5130926
100	0xbec961d7	-0.39332458
101	0x3d591ae7	0.05300417
102	0x3f13c297	0.57718796
103	0x3cdae2cd	0.026719475
104	0x3cb7ac7a	0.02242111
105	0x3d05dd90	0.032682
106	0x3d89e0c9	0.067323275
107	0xbf0b77e1	-0.54479796
108	0x3e5cea4c	0.21573752
109	0xbf0df51f	-0.5545215
110	0xbed53528	-0.41642118
111	0xbe940eae	-0.2891745
112	0xbe92cf4a	-0.28673774
113	0xbdd329ec	-0.1031073
114	0x3e4a77c1	0.19772245
115	0xbf14ba04	-0.5809634
116	0xbf0d648f	-0.55231565
117	0xbf396c92	-0.7243129
118	0xbe6d57bf	-0.23178004
119	0xbe80ede7	-0.25181505
120	0xbecd6c39	-0.4012163
121	0xbf1290ef	-0.572524
122	0xbecc3b90	-0.39889193
123	0xbe7278f0	-0.23678946
124	0xbc04e055	-0.008110126
125	0xbddb6b73	-0.10713854
126	0xbf34c9a8	-0.70620203
127	0xbe0a7ed4	-0.13524944
128	0x3edbb290	0.4290967
129	0xbe93d387	-0.2887232
130	0x3e848c0d	0.258881
131	0xbdae934d	-0.08524189
132	0x3e8d5adf	0.27608392
133	0x3d163ff5	0.036682088
134	0x3da764b4	0.081735045
135	0x3dcf8d78	0.10134405
136	0xbd16e0a8	-0.036835343
137	0xbea83830	-0.32855368
138	0x3ea8c2f7	0.32961246
139	0x3d8fca5b	0.07021018
140	0xbef0b67e	-0.4701423
141	0xbebc3648	-0.36760163
142	0xbed95091	-0.4244428
143	0xbf393c96	-0.7235807
144	0xbf29e002	-0.66357434
145	0xbed00311	-0.4062734
146	0xbda84e74	-0.08218089
147	0x3ee9a3e2	0.45632845
148	0xbd94ec5d	-0.07271645
149	0xbd591080	-0.05299425
150	0xbeb56522	-0.3542872
151	0xbe240d37	-0.16020666
152	0xbd06697f	-0.032815453
153	0xbd620f8b	-0.055190604
154	0x3d6b1f06	0.057402633
155	0xbf5b6772	-0.8570472
156	0xbf02155e	-0.50813854
157	0xbe20336c	-0.15644616
158	0xbe4b8b62	-0.19877389
159	0x3db69300	0.08914757
160	0xbe15495e	-0.14578769
161	0xbdeee146	-0.11664061
162	0x3d34b4cd	0.044117738
163	0xbf2a810f	-0.6660318
164	0xbc8077ab	-0.015682062
165	0xbe85826e	-0.26076072
166	0xbefbfb87	-0.49215338
167	0xbe581bc1	-0.21104337
168	0x3e35d066	0.17755279
169	0x3e0d6ca8	0.1381098
170	0x3e725be9	0.23667873
171	0xbefc77af	-0.4931006
172	0x3ec2cc9e	0.38046736
173	0xbeb0925b	-0.3448666
174	0xbe917f56	-0.28417462
175	0xbed3bebb	-0.41356453
176	0x3cb9d7a0	0.022685826
177	0xbf404aa0	-0.7511387
178	0x3ed4bd32	0.41550595
179	0xbf1c9c71	-0.6117621
180	0x3e2c5b50	0.16831708
181	0xbe2fb9df	-0.17160748
182	0xbe0c274d	-0.13686867
183	0xbf9152d6	-1.1353405
184	0xbe146e7d	-0.14495273
185	0x3ed23900	0.41059113
186	0x3ea8c96d	0.32966176
187	0x3ed4a06c	0.41528642
188	0xbcb949ee	-0.02261826
189	0x3f072fd3	0.5280735
190	0x3c6e264c	0.014535498
191	0x3dd245e7	0.10267239
192	0xbedeb8c7	-0.4350035
193	0x3dc10e4d	0.09426556
194	0xbf18c8a1	-0.59681135
195	0xbe7b766b	-0.24556892
196	0xbf22ec48	-0.63641787
197	0xbf00f393	-0.50371665
198	0xbee6860e	-0.4502415
199	0xbe8fa7b9	-0.2805765
200	0xbdbeea96	-0.093220875
201	0xbdee5a8e	-0.11638366
202	0xbec78f15	-0.3897635
203	0xbea809b0	-0.3281989
204	0xbf2c6d44	-0.67354226
205	0xbed7c845	-0.4214498
206	0xbe8b91ae	-0.27259582
207	0x3b7dbd2f	0.0038717499
208	0xbedb4f71	-0.42834046
209	0xbe1d0a5a	-0.1533598
210	0xbef53f3c	-0.47899806
211	0xbf1f3f75	-0.622062
212	0x3e444b46	0.1916934
213	0xbe39bad3	-0.18137674
214	0x3e7aba1b	0.24485056
215	0xbe491d54	-0.19640094
216	0xbe338274	-0.17530233
217	0xbe858163	-0.26075277
218	0xbda18232	-0.07886161
219	0xbd8243de	-0.06360601
220	0xbe082d92	-0.13298634
221	0x3dc2224f	0.094792
222	0xbf23a3ff	-0.63922113
223	0x3dde0dbe	0.10842465
224	0x3e255e15	0.1614917
225	0x3d7e6a4d	0.062113095
226	0xbea8d646	-0.32975978
227	0xbf17d353	-0.5930683
228	0x3ed3725f	0.41298196
229	0x3e11b311	0.14228465
230	0xbefde6c4	-0.49590123
231	0xbe4b23e7	-0.19837914
232	0x3db53861	0.08848644
233	0xbf16d114	-0.5891278
234	0xbf26f9a8	-0.65224695
235	0xbef80e11	-0.48448232
236	0xbf376428	-0.716372
237	0xbd883268	-0.06650239
238	0x3f0bc8e8	0.54603434
239	0x3e1e550d	0.15462132
240	0x3dc1a77a	0.09455772
241	0x3ea3aa7d	0.3196601
242	0xbe45f100	-0.19330215
243	0xbda73884	-0.081650764
244	0xbeaadf64	-0.3337356
245	0xbd835a45	-0.06413702
246	0xbe001371	-0.12507416
247	0xbe8a8a12	-0.27058464
248	0xbd20d5ef	-0.039266523
249	0x3db58f82	0.088652626
250	0xbe8cdf66	-0.2751419
251	0xbeb590f0	-0.3546214
252	0xbf30bf33	-0.69041747
253	0x3e62cabe	0.22147653
254	0xbe483519	-0.19551505
255	0x3e25719d	0.16156621

bn1.weight f4 [256]
0	0x3f0b9764	0.5452788
1	0x3ea43516	0.3207175
2	0x3f68ea0a	0.90982115
3	0x3f6c88d6	0.92396295
4	0x3f22d19d	0.63601094
5	0x3f00eadd	0.5035837
6	0x3ee7492d	0.45173016
7	0x3f2641ad	0.64943963
8	0x3f8e6a00	1.1126099
9	0x3f4ef1e2	0.80837834
10	0x3f4ce1db	0.8003213
11	0x3f75f9c6	0.9608425
12	0x3eb90124	0.36133683
13	0x3f29f925	0.6639579
14	0x3f53b0aa	0.8269144
15	0x3f31c3fd	0.6943968
16	0x3f20b550	0.6277666
17	0x3f764971	0.9620581
18	0x3f5b59d9	0.8568397
19	0x3ef5ff22	0.48046213
20	0x3f184214	0.5947583
21	0x3f00e6d8	0.5035224
22	0x3ee91445	0.45523277
23	0x3f96f66b	1.1793951
24	0x3f2ea19c	0.68215346
25	0x3f19906d	0.59986
26	0x3f2c623c	0.67337394
27	0x3f34a75f	0.7056789
28	0x3f16ad65	0.5885833
29	0x3f8c0735	1.09397
30	0x3f882037	1.0634831
31	0x3f2ffec3	0.6874811
32	0x3f30ba6d	0.69034463
33	0x3ee7c193	0.45264873
34	0x3f63ba8b	0.88956517
35	0x3f123a1a	0.57119906
36	0x3fa2bb95	1.2713495
37	0x3f85794c	1.0427642
38	0x3f2f8841	0.6856728
39	0x3f25a029	0.6469751
40	0x3f0ab583	0.54183215
41	0x3f285c7c	0.6576612
42	0x3f36a9e7	0.71353
43	0x3f92c835	1.1467348
44	0x3f0e772c	0.5565059
45	0x3fe73aee	1.8064859
46	0x3f1ffd13	0.62495536
47	0x3fb1da91	1.3894826
48	0x3f3f3085	0.7468341
49	0x3f73413b	0.9502141
50	0x3f54703b	0.8298375
51	0x3f5dc173	0.86623305
52	0x3f5a28a2	0.8521825
53	0x3f30c584	0.69051385
54	0x3f2332f2	0.6374961
55	0x3f40133c	0.7502935
56	0x3eeaa8ad	0.45831814
57	0x3f71d316	0.94462717
58	0x3f2358e0	0.6380749
59	0x3f933056	1.1499126
60	0x3fd13418	1.6344023
61	0x3f2758e0	0.6536999
62	0x3fce6342	1.6124041
63	0x3f115221	0.56765944
64	0x3f52f7fc	0.82409644
65	0x3fa75c8d	1.3075119
66	0x3f8f626f	1.1201915
67	0x3f02d3f0	0.5110464
68	0x3f1809f8	0.5939021
69	0x3fb24fb7	1.3930577
70	0x3f023895	0.5086759
71	0x3f70705f	0.93921465
72	0x3f2b0435	0.66803294
73	0x3ef8d6c5	0.48601356
74	0x3f29b1a1	0.66286665
75	0x3f4bcf93	0.7961361
76	0x3f57a7bd	0.84240323
77	0x3f0632d7	0.52421325
78	0x3f932856	1.1496685
79	0x3f17dcf1	0.59321505
80	0x3f96a804	1.1770024
81	0x3f898de6	1.0746429
82	0x3f04ed71	0.51924807
83	0x3fa5cff2	1.2954085
84	0x3f73915c	0.95143676
85	0x3f4421ff	0.76614374
86	0x3ef246eb	0.4731973
87	0x3f0fb540	0.5613594
88	0x3f4284cf	0.759839
89	0x3f035b80	0.5131149
90	0x3f1f67df	0.6226787
91	0x3f1b9274	0.60770345
92	0x3fb35171	1.4009229
93	0x3f08586f	0.5325994
94	0x3f08c485	0.53424865
95	0x3f34c9bc	0.7062032
96	0x3ecb8b47	0.39754698
97	0x3f26bf52	0.6513568
98	0x3f3c1c1c	0.7348039
99	0x3f7f352a	0.99690497
100	0x3f9d7d24	1.2303815
101	0x3fa86b70	1.3157787
102	0x3f7bb785	0.98326904
103	0x3eec605b	0.46167263
104	0x4017f51f	2.374336
105	0x3f236fcb	0.6384246
106	0x3f876398	1.0577269
107	0x3f5610f7	0.83619636
108	0x3ffac5f6	1.9591663
109	0x3ed586c0	0.4170437
110	0x3f95d66b	1.170606
111	0x3eec6862	0.46173388
112	0x3f12b552	0.5730792
113	0x3f5d1eed	0.86375314
114	0x3f69d451	0.91339594
115	0x3f8dfa6e	1.109205
116	0x3f1a72c4	0.6033137
117	0x3f37bf49	0.71776253
118	0x3f0fe81a	0.56213534
119	0x3f602115	0.8755048
120	0x3f3a7999	0.72841793
121	0x3fac3c17	1.3455838
122	0x3ee5215c	0.44752014
123	0x3f48fa4d	0.7850693
124	0x3f87ee86	1.0619667
125	0x3f8b263d	1.0871044
126	0x3f815b2b	1.0105947
127	0x3f95d2da	1.1704972
128	0x3f733c90	0.95014286
129	0x3f1e6053	0.6186573
130	0x3f14ff23	0.5820181
131	0x3f7241b8	0.9463153
132	0x3f117a47	0.56827205
133	0x3f88edc7	1.0697564
134	0x3ec93e14	0.39305174
135	0x3f69afc8	0.91283846
136	0x3ee27c1a	0.44235307
137	0x3ec02c8b	0.37533984
138	0x3f99b6ca	1.2008908
139	0x3f25efe6	0.6481918
140	0x3f024c7a	0.50897944
141	0x3f17bbf4	0.5927117
142	0x3f146b94	0.5797665
143	0x3f3daa30	0.7408781
144	0x3f9bf42b	1.2183889
145	0x3f17af28	0.5925164
146	0x3eeba032	0.46020657
147	0x3f1cb47d	0.61212903
148	0x3f4cf789	0.8006521
149	0x3ee83e9f	0.45360276
150	0x3f379254	0.71707654
151	0x3ed8bea9	0.42332962
152	0x3f7edb57	0.99553436
153	0x3eb9785c	0.3622464
154	0x3f6ce68c	0.92539287
155	0x3f740548	0.9532056
156	0x3f7846a7	0.96982807
157	0x3f1dae6b	0.61594266
158	0x3f0aee55	0.54269916
159	0x3f27c380	0.65532684
160	0x3f50bdb1	0.81539446
161	0x3f10ecc0	0.5661125
162	0x3f1526f8	0.58262587
163	0x3f29a1ca	0.66262496
164	0x3f9bfbc1	1.2186204
165	0x3edcaf48	0.4310248
166	0x3f5150e9	0.81764084
167	0x3f30b030	0.6901884
168	0x3f1dab5b	0.6158959
169	0x3fb06d9f	1.3783454
170	0x3f641ce6	0.89106596
171	0x3f52554a	0.8216139
172	0x3ee56606	0.448044
173	0x3f4155d1	0.7552157
174	0x3f5669a1	0.83754927
175	0x3f04543a	0.5169102
176	0x3f205912	0.6263591
177	0x3ee88824	0.45416367
178	0x3f684209	0.9072576
179	0x3fa4bc28	1.2869921
180	0x3f15153a	0.58235514
181	0x3f170af3	0.5900108
182	0x3f11f4b5	0.5701402
183	0x3f77d6e5	0.9681228
184	0x3f287c9e	0.6581515
185	0x3f8dcb84	1.1077733
186	0x3fe8c335	1.8184572
187	0x3f0df66c	0.55454135
188	0x3f273d7b	0.65328187
189	0x3fcb8c46	1.5902183
190	0x3f314035	0.692386
191	0x3f0b20c7	0.5434689
192	0x3f386277	0.72025245
193	0x3f2dcb67	0.6788849
194	0x3fb38a12	1.4026511
195	0x3f404735	0.75108653
196	0x3f6fa60a	0.9361273
197	0x3f0ca214	0.5493481
198	0x3f4136d2	0.75474274
199	0x3f912755	1.1340128
200	0x3f377530	0.7166319
201	0x3ff20ebb	1.8910745
202	0x3f3319e2	0.6996137
203	0x3ed6ecf5	0.4197766
204	0x3fb397a1	1.4030648
205	0x3f32e5e3	0.6988203
206	0x3f86a83e	1.0520093
207	0x3f22e852	0.6363574
208	0x3ec048cf	0.3755555
209	0x3e826b04	0.2547227
210	0x3f4d7d08	0.8026891
211	0x3f10d458	0.5657401
212	0x3f50357d	0.81331617
213	0x3f1891a5	0.59597236
214	0x3f1ec0f7	0.6201319
215	0x3f29616b	0.66164273
216	0x3f3da94e	0.74086463
217	0x3f15f7df	0.58581346
218	0x3eeb1a40	0.45918465
219	0x3ebb7d74	0.3661915
220	0x3f2fc3a9	0.6865793
221	0x401a30e7	2.4092348
222	0x3f1c675c	0.61095214
223	0x3eb9ed2b	0.36313757
224	0x3ee7b366	0.45254058
225	0x3fb725c4	1.43084
226	0x3fa02a54	1.2512918
227	0x3f891d02	1.0711977
228	0x3f3563b2	0.7085525
229	0x3f1a09a2	0.6017095
230	0x3f74d7ef	0.9564199
231	0x3f3904d0	0.7227297
232	0x3f15371b	0.5828721
233	0x3f13ea06	0.57778966
234	0x3f8c1cf4	1.0946336
235	0x3f2ede34	0.68307805
236	0x3f8ed5a7	1.1158952
237	0x3f162556	0.5865072
238	0x3f8abe57	1.0839337
239	0x3fd9acf2	1.7005904
240	0x3f2f9fd2	0.6860324
241	0x3f81ad14	1.0130944
242	0x3f50f3c4	0.81621957
243	0x3f5562f0	0.8335409
244	0x3f04113a	0.51588786
245	0x3f38b507	0.72151226
246	0x3f09024a	0.5351912
247	0x3f359920	0.70936775
248	0x3eebd799	0.46062925
249	0x3f1d7508	0.615067
250	0x3eeac21b	0.45851216
251	0x3f262d97	0.64913315
252	0x3faaa7e1	1.3332483
253	0x3f302479	0.6880565
254	0x3ef8dfd9	0.48608282
255	0x3f55bfdf	0.834959

bn1.bias f4 [256]
0	0xbe341bf7	-0.17588793
1	0xbdcfb617	-0.10142153
2	0x3e6c8680	0.23098183
3	0x3e6ef02d	0.23333807
4	0x3e5d724e	0.21625635
5	0x3ebb358a	0.36564285
6	0x3e0b3733	0.13595276
7	0x3e65631c	0.22401088
8	0xbe09a1b3	-0.1344059
9	0xbd54a6ad	-0.051916767
10	0x3e42d3bf	0.19026087
11	0x3e98ad78	0.29819846
12	0xbdc6f5b6	-0.097148344
13	0x3e6ec5ba	0.23317614
14	0x3e17d674	0.14827901
15	0x3e11c817	0.14236484
16	0x3e0ead78	0.1393336
17	0x3d1b4195	0.03790434
18	0x3ed926cb	0.4241241
19	0x3e6e3b86	0.23264894
20	0x3e270568	0.16310656
21	0x3e50ba9d	0.20383687
22	0x3e594116	0.21216235
23	0x3ed151e9	0.40882805
24	0x3dc6a554	0.096995026
25	0x3e74e046	0.23913679
26	0x3e2fcd22	0.17168096
27	0x3e9739aa	0.29536182
28	0xbd9516e4	-0.07279757
29	0x3ea9b317	0.33144447
30	0x3e30f6ae	0.17281601
31	0x3e4de0e6	0.20105323
32	0x3e250b86	0.16117677
33	0x3dbe6c05	0.09297947
34	0xbe8a1bdc	-0.2697438
35	0x3e780db2	0.24223974
36	0xbe90ca8d	-0.28279534
37	0x3dd3bfdc	0.10339329
38	0x3e801799	0.25018004
39	0x3db2db35	0.08733217
40	0xbdafcb07	-0.08583646
41	0x3c91d4ef	0.01780173
42	0x3e1caa0a	0.1529924
43	0xbe7939a1	-0.2433839
44	0x3e15c303	0.14625172
45	0x3ea738d6	0.3266055
46	0xbbbb9b2f	-0.0057252864
47	0x3e829169	0.25501564
48	0xbb847b70	-0.004043035
49	0x3e3c547a	0.183916
50	0xbe390255	-0.18067296
51	0x3e781d2b	0.24229877
52	0x3e21602c	0.15759343
53	0x3e2cdee9	0.16881908
54	0x3e94f43e	0.29092592
55	0x3e6d0658	0.23146951
56	0x3e68c027	0.2272955
57	0x3d8b16aa	0.06791432
58	0x3e44aa64	0.19205624
59	0xbe68e65a	-0.22744122
60	0x3e38dd12	0.18053082
61	0x3e62d4ee	0.22151539
62	0x3e186fc8	0.14886391
63	0x3e1f5dbf	0.15563105
64	0x3e708358	0.23487604
65	0xbe9a4ce8	-0.301368
66	0x3d6b4805	0.05744173
67	0x3e28d626	0.16487941
68	0x3e41dcc7	0.18931876
69	0xbcc5bbae	-0.024137344
70	0x3e3c879f	0.1841111
71	0xbd9856c0	-0.07438421
72	0x3e8b5af2	0.27217823
73	0x3e6823f5	0.22669967
74	0x3e21277d	0.1573772
75	0x3d588fc3	0.052871477
76	0x3e2cb351	0.16865279
77	0x3e590f9e	0.21197364
78	0x3e9d633b	0.3073977
79	0x3ebbbdbb	0.3666819
80	0x3d2780c3	0.04089428
81	0x3e83d030	0.25744772
82	0x3e659d94	0.22423393
83	0xbe830a04	-0.2559358
84	0x3eb29e4d	0.348864
85	0x3e310fff	0.17291258
86	0x3d475cb8	0.048672408
87	0x3dc5ed15	0.096643604
88	0xbe108612	-0.14113644
89	0x3d8601ad	0.065432884
90	0x3e4cf4cf	0.20015262
91	0x3e01977b	0.12655441
92	0x3e3e158c	0.18562907
93	0x3e28976e	0.16464016
94	0x3e6f7af6	0.2338675
95	0x3d57e3c4	0.05270745
96	0xbdf2b4f9	-0.11850924
97	0x3d6160ae	0.05502384
98	0xbc375a27	-0.011190928
99	0x3d7334d1	0.05937654
100	0x3da085c5	0.078380145
101	0x3e1f7f35	0.1557587
102	0xbd09b80f	-0.033622798
103	0x3d6e5491	0.058186118
104	0x3eb65917	0.35614845
105	0x3e646ebf	0.22307871
106	0x3d6ccf45	0.057814855
107	0xbe0f11be	-0.13971612
108	0x3cd8b310	0.026452571
109	0x3dcf666a	0.10126956
110	0x3e3b3a81	0.18284036
111	0x3e60c100	0.21948624
112	0x3cdd12c6	0.026986491
113	0x3c72c04d	0.014816356
114	0x3e1122e5	0.14173467
115	0x3dc4188d	0.09574995
116	0xbd5540d5	-0.05206378
117	0x3dd69ba5	0.104789056
118	0xbd8e3364	-0.06943396
119	0x3e33394e	0.17502329
120	0x3e41e286	0.18934068
121	0x3e88f345	0.267481
122	0xbc2c3aa7	-0.010512031
123	0xbba43e70	-0.005012326
124	0x3e827807	0.254822
125	0x3e84f8ed	0.25971165
126	0xbdee227a	-0.1162767
127	0x3efdd097	0.49573204
128	0x3bf4e0e5	0.0074730986
129	0x3e534df1	0.20635201
130	0x3da74424	0.08167294
131	0x3e90c9b1	0.28278878
132	0x3e181731	0.14852597
133	0x3e577cce	0.21043703
134	0x3e066616	0.1312488
135	0x3e2737c0	0.1632986
136	0x3e27cd4c	0.16386908
137	0x3e02da4f	0.1277859
138	0x3e95a09e	0.29224104
139	0x3d36e6fb	0.044653874
140	0x3e3f399e	0.18674323
141	0x3e561bb8	0.20909011
142	0x3e00cfe6	0.12579307
143	0x3dc7844b	0.0974203
144	0x3e33cdf0	0.17559028
145	0x3db57cc3	0.08861687
146	0x3e530c84	0.20610243
147	0x3e87e4f7	0.26541874
148	0x3d9a2b94	0.07527843
149	0x3e854c00	0.26034546
150	0x3e93801d	0.2880868
151	0x3e9581a5	0.29200473
152	0x3df0018e	0.117190465
153	0x3e1fea89	0.15616812
154	0x3e9598fd	0.29218283
155	0xbddefa0a	-0.10887535
156	0x3d906e82	0.07052328
157	0x3dbdc4e0	0.092660666
158	0x3e3cec3d	0.18449493
159	0x3e778f95	0.24175866
160	0x3d475e04	0.048673645
161	0x3cbc2f45	0.022971759
162	0x3d9fedbd	0.07809017
163	0x3d50dee7	0.050993826
164	0x3e14ec7f	0.14543341
165	0x3e0a1cb7	0.13487516
166	0x3d73d50a	0.05952934
167	0x3d8d88c8	0.069108546
168	0x3e5bbceb	0.21458785
169	0xbb110806	-0.0022130026
170	0x3e13a08a	0.1441671
171	0x3e50e9b4	0.2040165
172	0xbe81d733	-0.25359496
173	0x3e23441a	0.15943947
174	0x3e9bb0af	0.30408236
175	0x3d6641a4	0.056214944
176	0x3d0f276d	0.03494971
177	0x3e4ef233	0.20209579
178	0x3e830c42	0.2559529
179	0xbe39f7d7	-0.1816095
180	0x3e77d40e	0.24201986
181	0x3e497bc7	0.19676124
182	0x3e282464	0.16420132
183	0xbe928770	-0.28618956
184	0x3ddd1455	0.10794894
185	0x3e001103	0.1250649
186	0x3c94944d	0.018137122
187	0x3ea60d65	0.32432094
188	0x3df6a04e	0.120422944
189	0xbe0e2d20	-0.13884401
190	0x3e7c32bc	0.24628729
191	0x3e435ee8	0.19079173
192	0x3e48943e	0.195878
193	0x3e456465	0.19276579
194	0xbea93789	-0.33050182
195	0x3e09374e	0.13400003
196	0xbec59f1e	-0.3859796
197	0x3d903042	0.070404544
198	0x3e33a6f1	0.17544152
199	0x3e866378	0.26247764
200	0x3d67dc9f	0.056606885
201	0x3df3c79e	0.11903308
202	0x3da2c6d7	0.07948082
203	0x3d0fb3e0	0.03508365
204	0xbe21e5f4	-0.15810376
205	0xbdce86b9	-0.1008429
206	0x3e4f84d9	0.20265521
207	0x3e2d9507	0.1695138
208	0x3da1a520	0.07892823
209	0x3dac89d0	0.08424723
210	0x3e889a52	0.26680237
211	0xbda1232e	-0.07868038
212	0x3e7b6fe4	0.24554402
213	0x3e206993	0.15665273
214	0x3e7929a4	0.24332291
215	0x3c9a8657	0.018862886
216	0x3e97e9ef	0.29670665
217	0x3e487bbc	0.19578451
218	0xbd536be7	-0.051616576
219	0x3e44c1d8	0.1921457
220	0x3e89e0ec	0.26929414
221	0x3e037b5d	0.12840028
222	0x3dace5ce	0.08442269
223	0x3db7d6e5	0.08976535
224	0x3e2bc514	0.16774398
225	0x3e9e8a02	0.30964667
226	0xbe50037d	-0.2031383
227	0x3e347afc	0.1762504
228	0x3cc4b9e8	0.024014428
229	0x3de0a70e	0.10969363
230	0x3e4fb536	0.2028397
231	0x3d9419f4	0.07231513
232	0x3e261d1a	0.16222039
233	0x3e110d40	0.1416521
234	0xbe910892	-0.2832685
235	0x3ddf570f	0.10905277
236	0x3dbe9e96	0.093075916
237	0x3e51c269	0.20484318
238	0x3e981e7e	0.29710764
239	0x3e4215bc	0.18953604
240	0x3d9f7fec	0.07788071
241	0x3e388885	0.18020828
242	0x3dc62d8e	0.096766576
243	0x3e6d2871	0.23159958
244	0x3de2cb4e	0.110739335
245	0x3dcd236c	0.10016522
246	0x3e89cda5	0.26914707
247	0x3e32a65d	0.17446275
248	0x3df114a7	0.11771517
249	0x3e87a108	0.26490045
250	0x3e4e750c	0.20161837
251	0x3cc5e0a8	0.024154976
252	0xbeac9ebd	-0.33714858
253	0x3e886185	0.26636901
254	0x3de5b0d7	0.1121537
255	0x3e5af046	0.2138072

fc2.weight f4 [256, 260]
0	0x3d6ffb9b	0.05858956
1	0x3b3ad667	0.0028509141
2	0xbcd7b44e	-0.026331093
3	0xbdc42789	-0.09577853
4	0xbd0a16fb	-0.033713322
5	0xbb107616	-0.002204304
6	0x3cab8974	0.020939566
7	0x3b50b1d7	0.0031844282
8	0x3dda30ff	0.106538765
9	0xb95eef60	-0.00021260744
10	0xbb3198cc	-0.002709913
11	0x3d66995b	0.056298595
12	0xbd9a9a85	-0.075490035
13	0xbd202ade	-0.03910338
14	0x3db64dd5	0.08901564
15	0x3d2107ae	0.039313965
16	0x3d7dfe21	0.062009934
17	0x3dbc2b73	0.09187975
18	0x3cf87681	0.030329945
19	0xbca96083	-0.020675903
20	0x38cfa126	9.9005454e-05
21	0xbab7dd39	-0.0014027721
22	0x3c2d578b	0.010579954
23	0xbc244b91	-0.010027782
24	0xbdcf449f	-0.1012051
25	0xba98624e	-0.0011625977
26	0xbd5ee5bf	-0.05441832
27	0xbdb07e11	-0.08617795
28	0x3dd652ab	0.104649864
29	0x3d16ba23	0.036798608
30	0xbc47757b	-0.012174006
31	0xbcffcf78	-0.031226858
32	0x3cbc9e76	0.023024779
33	0x3d313613	0.04326446
34	0x3d2607c0	0.040534735
35	0xbcc71a55	-0.024304548
36	0x3dd82a43	0.10554936
37	0x3d8a9983	0.06767561
38	0xbd87bcb7	-0.066277914
39	0x3d7507da	0.05982194
40	0x3d09a0f1	0.03360075
41	0x3da4a8d0	0.08040011
42	0x3d874072	0.06604089
43	0x3e118eb7	0.14214598
44	0x3d21bbb1	0.039485637
45	0x3c1e9a00	0.009680271
46	0x3d9645c5	0.07337526
47	0x3cd36321	0.025804104
48	0xbda6c825	-0.08143643
49	0x3c2b4dcd	0.010455561
50	0xbb811ef1	-0.003940456
51	0x3d2a5360	0.04158342
52	0x3ce99028	0.028511122
53	0x3d18a087	0.037262466
54	0xbd3df568	-0.046376616
55	0xbd063be9	-0.03277198
56	0xbd0be253	-0.034151386
57	0x3da43a5c	0.08018944
58	0x3d205953	0.039147686
59	0x3d96b766	0.07359199
60	0x3ce58e16	0.028021853
61	0x3db8bc16	0.090202495
62	0xbcb8c752	-0.02255598
63	0xbd410cd7	-0.047131386
64	0x3d88336e	0.066504344
65	0x3dd7ea8c	0.10542783
66	0x3da4af24	0.08041218
67	0x3d447d48	0.04797104
68	0x3b5d1da6	0.0033739596
69	0xbce19ef2	-0.027541611
70	0x3d0f61ee	0.035005502
71	0x3ddfbb46	0.109243914
72	0xbd1f5ab2	-0.038904853
73	0x3d322734	0.04349442
74	0xbd56c8be	-0.052437536
75	0xbd98636e	-0.0744084
76	0x3d83ebe7	0.06441479
77	0x3d1c80ea	0.03820888
78	0xbccec3f8	-0.02523993
79	0xbd386f75	-0.04502817
80	0x3d7adcb7	0.061245646
81	0xbcd749e4	-0.026280351
82	0x3da8048f	0.082039945
83	0x3d968625	0.07349805
84	0xbd9b596a	-0.07585414
85	0xbc98fdae	-0.018675651
86	0xbd8d1364	-0.06888464
87	0x3dbf87e7	0.09352093
88	0x3dcbcd80	0.099513054
89	0x3d7d3a21	0.061823014
90	0x3c82a078	0.015945658
91	0x3d891998	0.06694335
92	0xbc130a8b	-0.008974682
93	0xbd8a0c4c	-0.06740627
94	0xbd8ec856	-0.06971805
95	0x3d8916e1	0.06693817
96	0x3e0f4a0b	0.13993089
97	0x3c08e0b2	0.008354353
98	0x3e0d683a	0.1380929
99	0xbd2ac59d	-0.041692365
100	0xbd3ffa73	-0.046869706
101	0xbd2808e4	-0.041024104
102	0xbd10ab4d	-0.035319615
103	0xbcb5ec36	-0.02220736
104	0x3bbc915d	0.0057546333
105	0xbdf4cca7	-0.11953097
106	0xbd52c4fa	-0.051457383
107	0x3df5b1a4	0.11996773
108	0x3c754a1a	0.0149712805
109	0x3d618818	0.05506143
110	0x3d7a1149	0.06105164
111	0xbd53e8c1	-0.051735643
112	0x3d9c3bc4	0.07628587
113	0xbd16b27a	-0.036791302
114	0xbda1e6d4	-0.07905355
115	0xbd0e5b69	-0.034755144
116	0x3d85622a	0.06512864
117	0x3da5984f	0.08085691
118	0x3da072f4	0.078344256
119	0x3d2cb5eb	0.042165678
120	0x3d162a0d	0.036661197
121	0x3d011efe	0.031523697
122	0x3cb332fb	0.021874895
123	0xbc9a3f7e	-0.018829104
124	0x3d83da18	0.064380825
125	0xbb96f353	-0.004606643
126	0x3da4e301	0.0805111
127	0xbcc82a65	-0.024434278
128	0x3d84511b	0.06460782
129	0xbda36ff9	-0.079803415
130	0x3da55b8f	0.08074104
131	0x3a1bac6c	0.00059384736
132	0x3d56e855	0.052467663
133	0x3cc413a5	0.023935148
134	0x3d1fbe4a	0.038999833
135	0xbd97b9d2	-0.07408489
136	0x3d7ba205	0.06143381
137	0xbd522764	-0.051307097
138	0xbba27f8f	-0.004959054
139	0x3d9d13f4	0.076698214
140	0x3cac0ffa	0.021003712
141	0x3c8200b4	0.015869476
142	0x3bb205d4	0.0054328237
143	0x3d2464e4	0.04013528
144	0x3da98f98	0.082793415
145	0x3d913f65	0.0709217
146	0xbbdc5fdb	-0.006725294
147	0xbd342439	-0.043979857
148	0x3c4e35c0	0.012586057
149	0xbca473e7	-0.020074798
150	0x3c6525af	0.013986035
151	0xbd97e768	-0.07417184
152	0x3d320a51	0.04346687
153	0xbd815d1d	-0.06316588
154	0x3cc802d2	0.024415407
155	0x3e0677fe	0.13131711
156	0x3d88bbea	0.06676467
157	0x3d3ea9f3	0.046548795
158	0x3dda42f2	0.106573
159	0xbdab8cc8	-0.08376461
160	0xbdaf0ae9	-0.08547003
161	0x3d8ced4a	0.06881197
162	0x3de373dd	0.111060835
163	0x3e0443e2	0.1291652
164	0xbd432f1b	-0.047652345
165	0xbb81bda5	-0.003959375
166	0x3d6c5843	0.05770136
167	0x3dc1455b	0.09437057
168	0xbdaa26a5	-0.08308152
169	0x3c214c86	0.009844905
170	0x3c17475b	0.009233321
171	0x3d19eba8	0.037578255
172	0xbd8ac638	-0.067760885
173	0xbd68f891	-0.056877676
174	0xbd34e4b3	-0.044163417
175	0x3d8e13fc	0.069374055
176	0x3dbb1ae4	0.09135988
177	0x3cb3db1c	0.021955065
178	0xbdb1d381	-0.08682919
179	0x3e2848dd	0.16434045
180	0x3c4897a4	0.012243185
181	0x3c08a903	0.008341077
182	0x3c3bef0b	0.0114705665
183	0x3dbc6951	0.09199775
184	0x3ce4119c	0.027840428
185	0xbd6eae64	-0.05827178
186	0x3ac21708	0.0014807889
187	0xbdb34049	-0.08752496
188	0x3d2c7ba2	0.042110093
189	0x3bbfd6eb	0.0058544776
190	0xbd28b92d	-0.041192222
191	0x3d3001c4	0.042970434
192	0xbd68dac6	-0.056849264
193	0x3d45adfc	0.048261628
194	0x3ddcdcf2	0.107843295
195	0x3be7f746	0.007079038
196	0x3e254055	0.16137822
197	0xbc9f5f3c	-0.019454591
198	0x3d2f392c	0.042779133
199	0x3dd6d680	0.104901314
200	0xbd412d5a	-0.04716239
201	0x3db74de1	0.08950401
202	0x3e017738	0.12643135
203	0x3cf984d8	0.030458853
204	0x3b1b7170	0.0023718737
205	0x3dd4394f	0.10362493
206	0xbd01c13b	-0.03167842
207	0x3d2e0b41	0.0424912
208	0x3d0cc2a4	0.03436531
209	0xbcde0eaf	-0.027106611
210	0xbd85ca2e	-0.06532703
211	0x3d049fd4	0.032378986
212	0x3c88680f	0.016651182
213	0xbc5e9fdb	-0.013587917
214	0xbdded255	-0.108799614
215	0x3da50c7f	0.08059024
216	0xbbd5032b	-0.006500622
217	0xbcb9af5d	-0.022666628
218	0x3dd7d73a	0.10539098
219	0xbcb489db	-0.02203839
220	0x3d59439c	0.053042993
221	0xbc50d165	-0.012745236
222	0x3d808293	0.06274905
223	0x3cce8a68	0.025212482
224	0x39171e0f	0.0001441168
225	0xbc9af5ab	-0.018915972
226	0x3e25354d	0.16133614
227	0x3d8a6369	0.06757242
228	0xbab7f9a2	-0.0014036188
229	0x3d733425	0.0593759
230	0xbcb1784c	-0.021663807
231	0x3d72ee6b	0.059309404
232	0x3d4dbbba	0.050227858
233	0xbc446143	-0.01198608
234	0x3dbb006a	0.09130938
235	0xbcfae646	-0.030627381
236	0x3dabf66c	0.083966106
237	0x3d0b251b	0.033970933
238	0xbc4a64f4	-0.012353171
239	0xbd30b741	-0.043143515
240	0x3d15c78f	0.036567267
241	0x3be516c7	0.0069912407
242	0x3dc8c9bd	0.098041035
243	0xbd1e1b3a	-0.038600184
244	0x3c85fae9	0.016354995
245	0xbd069ba6	-0.03286328
246	0xbb180e4f	-0.0023201888
247	0xbcde93aa	-0.027170021
248	0xbc9b7572	-0.0189769
249	0xbd3e054d	-0.046391774
250	0xbccc3705	-0.02492858
251	0xbcafb26d	-0.021447385
252	0x3e288c0f	0.16459678
253	0x3bc6de0c	0.0060689505
254	0x3a9b4f32	0.0011849164
255	0x3d477e8f	0.04870468

fc2.bias f4 [256]
0	0xbdbc38ee	-0.09190546
1	0xbe0b2e5c	-0.13591903
2	0xbe186bdf	-0.148849
3	0xbd960718	-0.07325572
4	0x3f15269d	0.58262044
5	0xbe9069c8	-0.28205705
6	0xbd4ffc04	-0.05077745
7	0xbe12f551	-0.14351393
8	0xbdeb6b83	-0.114951156
9	0xbe283c0e	-0.16429159
10	0xbe9d3480	-0.30704117
11	0xbe1b555f	-0.15169285
12	0xbe56b3e7	-0.20967065
13	0xbe731f16	-0.23742327
14	0xbe3d4b0d	-0.18485661
15	0xbd677587	-0.056508567
16	0xbdb556f3	-0.08854475
17	0xbe15e6ad	-0.14638777
18	0xbe496435	-0.19667132
19	0xbe47c157	-0.19507347
20	0xbe8171c5	-0.25282112
21	0xbe0e3318	-0.13886678
22	0xbe12b8a6	-0.1432825
23	0xbdcb6bac	-0.09932646
24	0xbe00c95f	-0.12576817
25	0xbec47108	-0.38367486
26	0xbe4ec527	-0.20192395
27	0xbdafe528	-0.0858863
28	0xbe9987a4	-0.29986298
29	0xbe0e18c5	-0.13876636
30	0xbe8bca88	-0.27302957
31	0xbe0ddc5f	-0.13853596
32	0xbe147a19	-0.14499702
33	0xbe3158fe	-0.17319104
34	0xbe197b7f	-0.14988516
35	0xbdad8838	-0.08473247
36	0xbe4affd2	-0.1982415
37	0xbe50c62c	-0.20388097
38	0xbe07e1fa	-0.13269797
39	0xbe04513b	-0.12921612
40	0xbe1a6a8a	-0.15079704
41	0xbe4c9d6a	-0.19981924
42	0xbe6604d8	-0.22462785
43	0xbdebab9b	-0.115073405
44	0xbe1aed6b	-0.1512963
45	0xbe61b593	-0.22041921
46	0xbdfe7545	-0.12424711
47	0xbc532f4e	-0.012889696
48	0xbe08f930	-0.13376307
49	0xbe76b082	-0.2409077
50	0xbe36e870	-0.17862105
51	0xbdb1955f	-0.086710684
52	0xbe067b45	-0.13132961
53	0xbe6ac176	-0.22925362
54	0xbdfc5047	-0.12319999
55	0xbe80b69b	-0.25139317
56	0xbe7791df	-0.24176739
57	0xbde1734a	-0.11008318
58	0xbe1588e8	-0.14603007
59	0xbe8759e5	-0.26435772
60	0xbe5a2f6b	-0.21307151
61	0xbe8c6b0b	-0.27425417
62	0xbdde2741	-0.10847331
63	0xbe60f250	-0.21967435
64	0xbe21fa42	-0.15818122
65	0xbe0de0c1	-0.13855268
66	0xbe2fd238	-0.17170036
67	0xbdaf4b40	-0.08559275
68	0xbd730108	-0.059327155
69	0xbe8a99ea	-0.27070552
70	0xbe19d287	-0.15021716
71	0xbe48e7a8	-0.1961962
72	0xbe874bd7	-0.2642505
73	0xbe2d83a6	-0.16944751
74	0xbe110806	-0.14163217
75	0xbdac8e20	-0.08425546
76	0xbe8d476e	-0.2759356
77	0xbe9cb05d	-0.30603305
78	0xbe7f66e0	-0.24941587
79	0xbdcf159f	-0.10111546
80	0xbd84a146	-0.06476073
81	0xbe0ba4ad	-0.13637038
82	0xbe2427f4	-0.16030866
83	0xbddc7c3d	-0.10765884
84	0xbd95f42a	-0.07321961
85	0xbe53ba35	-0.20676501
86	0xbd80cf8f	-0.06289589
87	0xbe3a478f	-0.1819136
88	0xbdfd8880	-0.12379551
89	0xbd948c48	-0.07253319
90	0xbce90ff5	-0.028449992
91	0xbe254531	-0.16139676
92	0xbe105f04	-0.14098746
93	0xbe0a87c8	-0.13528359
94	0xbe0c17a5	-0.13680895
95	0xbe41be53	-0.18920259
96	0xbe5b92c2	-0.21442702
97	0xbe2e9aed	-0.17051287
98	0xbea34175	-0.31885877
99	0xbe983531	-0.29728082
100	0xbdb50aaf	-0.08839928
101	0xbe07486c	-0.1321122
102	0xbe0d8a2a	-0.13822237
103	0xbe045796	-0.12924036
104	0xbe8fab44	-0.28060353
105	0xbe4d95cd	-0.20076676
106	0xbe24ee8a	-0.1610662
107	0xbe122fb9	-0.14276017
108	0xbdfbed31	-0.123011
109	0xbe60a93f	-0.21939562
110	0xbe2c2024	-0.16809136
111	0xbe4e80ff	-0.20166396
112	0xbe40a343	-0.1881228
113	0xbe0a508e	-0.13507292
114	0xbe2b647f	-0.16737555
115	0xbdfc9126	-0.12332372
116	0xbe6c4312	-0.2307246
117	0xbeaaadc5	-0.333357
118	0xbdacb0ff	-0.08432197
119	0xbe749a6c	-0.23887032
120	0xbe631e61	-0.22179557
121	0xbe12bd4c	-0.14330024
122	0xbe81d61b	-0.25358662
123	0xbdf77db0	-0.1208452
124	0xbca26c2c	-0.019826971
125	0xbe3a6f5e	-0.18206546
126	0xbdbe0acf	-0.09279405
127	0xbe266cc1	-0.16252424
128	0xbe10695e	-0.14102694
129	0xbdbd2db8	-0.09237236
130	0xbe4b0081	-0.19824411
131	0xbe0e3226	-0.13886318
132	0x3f476d16	0.77900827
133	0xbe71642c	-0.23573369
134	0xbce86af4	-0.028371312
135	0xbe79ba28	-0.24387419
136	0xbe9f350e	-0.31095165
137	0xbe4c278c	-0.19936961
138	0xbe294522	-0.16530278
139	0xbd88003d	-0.066406704
140	0xbe5d640f	-0.216202
141	0xbe15789b	-0.14596789
142	0xbd7fb927	-0.062432434
143	0xbe63a19f	-0.22229622
144	0xbe6017c5	-0.21884067
145	0x3bb17919	0.0054160473
146	0xbe203978	-0.15646923
147	0xbe1a8884	-0.15091139
148	0xbe8ff8e8	-0.28119588
149	0xbe34e353	-0.17664842
150	0xbe3e366a	-0.18575445
151	0xbe28ebbe	-0.16496179
152	0xbe852315	-0.26003328
153	0xbe56fa8a	-0.2099401
154	0xbe7a3982	-0.24436
155	0xbe112015	-0.14172395
156	0xbd932646	-0.071850345
157	0xbdaed36e	-0.08536421
158	0xbe42e99c	-0.19034427
159	0xbd7797b3	-0.060447406
160	0xbeb66f70	-0.35631895
161	0xbdebee44	-0.11520055
162	0xbdd79f04	-0.10528377
163	0xbe84a3fd	-0.25906363
164	0xbe3309f0	-0.1748426
165	0xbdbd8869	-0.09254534
166	0xbe403123	-0.18768744
167	0xbdbfcb0e	-0.093649015
168	0xbea782b1	-0.32716897
169	0xbe171899	-0.14755477
170	0xbe2d1779	-0.16903485
171	0xbd6676e9	-0.056265745
172	0xbe58db54	-0.21177417
173	0xbe0d2f5c	-0.13787597
174	0xbde4501d	-0.11148093
175	0xbe450bae	-0.19242737
176	0xbe5df437	-0.21675192
177	0xbe52513b	-0.205388
178	0xbe833c29	-0.25631836
179	0xbe0d5752	-0.13802841
180	0xbdb7ccc7	-0.08974605
181	0xbd461fbc	-0.048370108
182	0xbe6efb2e	-0.23338005
183	0xbd839ba7	-0.06426173
184	0xbe7854ef	-0.2425115
185	0xbe0016f0	-0.1250875
186	0x3f15d739	0.5853153
187	0xbe8c3244	-0.273821
188	0xbe16893f	-0.14700793
189	0xbd4cb254	-0.049974754
190	0xbe446ac9	-0.1918136
191	0xbeb5a780	-0.35479355
192	0xbde72e84	-0.11288169
193	0xbe7475a5	-0.23873003
194	0xbe3a43a4	-0.18189865
195	0xbe8a235e	-0.26980108
196	0xbe81734e	-0.25283283
197	0xbe7a667c	-0.24453157
198	0xbe4af020	-0.19818163
199	0xbea9808c	-0.33105886
200	0xbdda15a8	-0.10648662
201	0xbe612eb1	-0.21990468
202	0xbd255dbe	-0.040372603
203	0xbe4091f7	-0.18805681
204	0xbe3bd99b	-0.18344729
205	0xbda87f13	-0.082273625
206	0xbe96bbb1	-0.29440072
207	0xbd8ec580	-0.06971264
208	0xbe79e3c6	-0.24403295
209	0xbe0ebc6e	-0.13939068
210	0xbdfdfba3	-0.124015115
211	0xbe355209	-0.17707075
212	0xbe210e90	-0.15728211
213	0xbde0765c	-0.10960075
214	0xbe84578e	-0.2584805
215	0xbe11a24c	-0.14222068
216	0xbdd18647	-0.102306895
217	0xbe50c5a9	-0.20387901
218	0xbe0834d4	-0.13301402
219	0xbe2d63cc	-0.169326
220	0xbd952866	-0.07283096
221	0xbe54582f	-0.20736764
222	0xbe6a0fd5	-0.22857602
223	0xbe5663c8	-0.20936501
224	0xbe53f415	-0.20698579
225	0xbe2767df	-0.16348217
226	0xbe11b446	-0.14228925
227	0xbe46f057	-0.1942762
228	0xbe0e0b9e	-0.13871619
229	0xbdf190a0	-0.11795163
230	0xbe30e511	-0.17274882
231	0xbe320442	-0.17384437
232	0xbda840c9	-0.08215482
233	0xbe5ac5d1	-0.21364523
234	0xbe63963f	-0.22225283
235	0xbe8e113e	-0.2774753
236	0xbe283411	-0.16426112
237	0xbeb8d996	-0.36103505
238	0xbe5557f8	-0.20834339
239	0xbe447f45	-0.19189174
240	0x3bbf4e0e	0.0058381623
241	0xbd203ddb	-0.03912149
242	0xbe4cbfcb	-0.19995038
243	0xbe99da98	-0.30049586
244	0xbdf97d70	-0.121821284
245	0xbdbe6658	-0.09296864
246	0xbea31256	-0.31849927
247	0xbdd8872c	-0.10572657
248	0xbe3e4b4a	-0.18583408
249	0xbdfebeb7	-0.1243872
250	0xbe3a419c	-0.1818909
251	0xbe254dc3	-0.16142945
252	0xbdbcc833	-0.092178725
253	0xbd2b375f	-0.041800853
254	0xbe34d4d8	-0.17659318
255	0xbdd5c475	-0.10437862

bn2.weight f4 [256]
0	0xbb018824	-0.0019764984
1	0xba870bb1	-0.0010303167
2	0x3e33e55f	0.17567967
3	0x3efaf0e2	0.49011904
4	0xb7e62f54	-2.7440175e-05
5	0x3f1b34bc	0.6062734
6	0x3e58b82e	0.21164009
7	0x3989a48b	0.0002625327
8	0x3e8727d1	0.26397565
9	0x3e969e18	0.2941749
10	0x3e86e5cb	0.26347193
11	0xba21552b	-0.00061543536
12	0xbe48be1f	-0.19603775
13	0x3e881d76	0.26584977
14	0x3e6c0786	0.23049745
15	0x3e886c08	0.2664492
16	0x3f3a5ee0	0.7280102
17	0x3efd3d8d	0.49461022
18	0x3f1962c1	0.5991631
19	0x3f239e6d	0.63913614
20	0x3f30647e	0.6890334
21	0x3e1c166a	0.15242925
22	0x3c2592da	0.010105813
23	0xbad012ca	-0.001587474
24	0x3c9f9a21	0.019482674
25	0x3f53a929	0.8267999
26	0x3e3c5a8e	0.18393919
27	0x3f0dba59	0.5536247
28	0x3f2426e4	0.6412184
29	0x3dd42516	0.10358636
30	0x3f544318	0.82914877
31	0xbb11b2c0	-0.0022231787
32	0x3f571191	0.8401118
33	0x3f4179d4	0.7557652
34	0x3f5e79fe	0.86904895
35	0x3f1b86b8	0.6075244
36	0x3e85438f	0.26028106
37	0x3f6836ea	0.9070879
38	0x3f0082b8	0.5019946
39	0xbb0e9cec	-0.0021761013
40	0xbb16189c	-0.0022902852
41	0x3f647c18	0.8925185
42	0x3f1719a7	0.5902352
43	0x3ba85158	0.00513665
44	0x3ddc84ae	0.10767494
45	0x3ec938bf	0.39301106
46	0x3f0b8378	0.5449748
47	0x3f16c9c0	0.58901596
48	0xba6e6936	-0.0009094657
49	0x3c455f23	0.012046608
50	0xbad326c8	-0.001610958
51	0x3f46bffb	0.7763669
52	0x3e1373ab	0.14399593
53	0x3b4043d2	0.00293373
54	0x3e75f9fa	0.2402114
55	0x3f3107c3	0.6915247
56	0x3f21fa92	0.63272965
57	0x3d94e4a6	0.07270174
58	0x3f0ed3e4	0.5579207
59	0x3f27f970	0.65614986
60	0x3f791d30	0.9731016
61	0x3e130d9f	0.14360665
62	0x3b7bd726	0.00384278
63	0x3eb2bcc8	0.34909654
64	0x3c47ed00	0.012202501
65	0x3d0a07b2	0.033698745
66	0x3e26c7b7	0.16287123
67	0xba49214f	-0.0007672505
68	0x36b287c2	5.3206177e-06
69	0x3f35b713	0.70982474
70	0x3c126885	0.008936052
71	0x3f57d8eb	0.84315366
72	0x3f26909e	0.6506442
73	0x3f1244e1	0.5713635
74	0x3e3537e3	0.176971
75	0x3d823d24	0.06359318
76	0x3f6cfe14	0.9257519
77	0x3e9c245d	0.30496493
78	0x3f427d3e	0.75972354
79	0x3cf020f9	0.029312598
80	0x3f1a74c8	0.60334444
81	0x3e3e47fb	0.18582146
82	0xbae32422	-0.0017329494
83	0xbb585402	-0.0033009057
84	0x3af3a921	0.0018589833
85	0x3f56ddf1	0.83932406
86	0x384ccd6b	4.88287e-05
87	0x3f36aa4c	0.713536
88	0xbb0a2635	-0.0021079902
89	0x3f19995a	0.5999962
90	0xbb2f5c49	-0.0026757887
91	0x3ee67de1	0.45017913
92	0x3a08ea79	0.00052229274
93	0x3a997be7	0.0011709899
94	0x3e914e92	0.28380257
95	0x3f0b440c	0.54400706
96	0x3d9e6eed	0.07736001
97	0x3db51abd	0.088429905
98	0x3f42e7b8	0.76134825
99	0x3f4e9ff1	0.807128
100	0x3ab36380	0.001368627
101	0xbb0e3c19	-0.0021703301
102	0x3eb2621f	0.34840485
103	0xb9a35105	-0.00031150147
104	0x3f0aa8a3	0.5416357
105	0x3f3c9252	0.7366077
106	0x3f6057e8	0.87634134
107	0x3f39c258	0.7256217
108	0xb997587c	-0.0002886689
109	0x3f552c92	0.83271134
110	0x3f28f9ee	0.6600636
111	0x3f3ccd07	0.73750347
112	0x3f4c9ff4	0.7993157
113	0x3b021268	0.0019847397
114	0x3ae2b2b0	0.0017295685
115	0xbb61eb48	-0.0034472514
116	0x3f54569b	0.8294465
117	0x3f3c3232	0.7351409
118	0x3c2918ce	0.010320855
119	0x3e44607c	0.19177431
120	0x3ebc7797	0.3680999
121	0x3d000470	0.031254232
122	0x3efb2168	0.49048924
123	0x3ed42ad4	0.41438925
124	0x3d5ebb83	0.054378044
125	0x3c7ace6d	0.015308005
126	0x3d193c1d	0.037410844
127	0x3972f577	0.00023170361
128	0x3ede70b4	0.4344536
129	0x3e93bab5	0.28853384
130	0x3d801458	0.0625388
131	0x3f5c1f0d	0.8598488
132	0x3daffb80	0.08592892
133	0x3f46cef0	0.7765951
134	0x3ee4ca81	0.44685748
135	0x3f1d1246	0.6135601
136	0x3df49877	0.11943143
137	0x3ece734c	0.4032234
138	0x3e2ceb74	0.16886693
139	0x3d0f9c8c	0.035061404
140	0x3eeca907	0.46222708
141	0x3ee92889	0.45538738
142	0x3eec9074	0.4620396
143	0x3f4b6c3d	0.79462034
144	0x3f0b7b53	0.5448505
145	0x3e06cf51	0.13165022
146	0x3be1a9c6	0.0068866936
147	0xbb08098a	-0.002075764
148	0x3f0d6f5c	0.55248046
149	0x39d7868e	0.00041108247
150	0x3ec821ba	0.3908823
151	0x3f3793f5	0.7171014
152	0x3f32cb26	0.6984123
153	0x3eca1a29	0.39473084
154	0x3f63c8df	0.8897838
155	0xb6368765	-2.7198923e-06
156	0x3f1a4590	0.60262394
157	0x3f36d91e	0.71425045
158	0x3ba83065	0.005132722
159	0x3da94219	0.0826456
160	0x3f3fd25f	0.74930376
161	0xb7d6142f	-2.5520187e-05
162	0xbb0c4862	-0.0021405448
163	0x3f28dcea	0.6596209
164	0x39b1162b	0.00033776587
165	0x3dac1768	0.08402902
166	0x3482cd1f	2.4363632e-07
167	0x3da99392	0.082801
168	0x3f4d7015	0.8024915
169	0x3ee7f311	0.45302632
170	0x3b200a76	0.0024420298
171	0x3f2f734a	0.6853529
172	0x3f137f51	0.57616144
173	0xbabab515	-0.001424464
174	0xbb1a285d	-0.0023522594
175	0x3ecce695	0.4001967
176	0x3e3a520f	0.18195365
177	0x3f53d063	0.8273985
178	0x3f0e94c0	0.55695724
179	0xbb05f5d0	-0.0020440705
180	0x3f006287	0.5015034
181	0x3f3f9241	0.7483254
182	0x3f2fed17	0.68721145
183	0x3b1969d0	0.0023409016
184	0x3bacc415	0.0052723982
185	0x3ed47eaf	0.41502902
186	0x391b3ed1	0.00014805353
187	0x3f000cfb	0.50019807
188	0x3f2a6668	0.6656251
189	0xbb14045f	-0.0022585613
190	0x3f567028	0.83764887
191	0x3e82ad83	0.25523004
192	0x3e73bdbf	0.23802851
193	0x3df3972f	0.1189407
194	0x3eca1521	0.39469245
195	0x3d96c1d4	0.073611885
196	0x3f2560d7	0.6460089
197	0x3f474fbb	0.77856034
198	0x3eb82c69	0.35971382
199	0x3f4ba8c5	0.79554397
200	0x3c39caf1	0.011339889
201	0x3effd95f	0.49970528
202	0x3f02e2f5	0.5112756
203	0x3f2643e0	0.6494732
204	0x37e33d64	2.7089096e-05
205	0x33a9885d	7.89448e-08
206	0x3f4a8179	0.7910381
207	0xbad0cc7e	-0.0015930084
208	0x3f25e2a5	0.6479896
209	0x3ef94233	0.48683318
210	0x3cbc8ebd	0.023017282
211	0x3d6e4fee	0.058181696
212	0x3edf113e	0.43567842
213	0xbacadf2b	-0.0015477886
214	0x3f0b5fbb	0.5444295
215	0xbb14d7aa	-0.0022711554
216	0x3d94e4b4	0.07270184
217	0x3ea66d34	0.3250519
218	0x3ad5358d	0.001626657
219	0x3e040991	0.12894274
220	0xbb13dc3b	-0.0022561688
221	0x3f379cf6	0.7172388
222	0x3f5f718e	0.87282646
223	0xbb1c85ed	-0.0023883537
224	0x3e5b2ce0	0.21403837
225	0x3f21cd3e	0.632038
226	0x3f114aa9	0.5675455
227	0x3eb038d3	0.34418353
228	0x3b2929f1	0.0025812353
229	0xbb069f60	-0.0020541772
230	0x3e5e5784	0.21713072
231	0x3837e8bc	4.384735e-05
232	0x3a1662cc	0.0005736768
233	0x3ea8220f	0.32838485
234	0x3f315021	0.6926289
235	0x3ed6d655	0.41960397
236	0x3ad75bd5	0.0016430566
237	0x3f240f39	0.6408573
238	0xbab81620	-0.001404468
239	0x3ed9c185	0.42530456
240	0xb6b63a0f	-5.4307816e-06
241	0x3ee0058b	0.4375423
242	0x3e4c140b	0.19929521
243	0x3f58e506	0.8472446
244	0xbb09789c	-0.002097643
245	0x3c8bc74a	0.017062802
246	0x3f21c9fa	0.63198817
247	0xba0397f7	-0.0005019898
248	0x3f11fa3f	0.5702247
249	0x3f0cf981	0.5506821
250	0xba3aac50	-0.00071210135
251	0x3e9b16c5	0.3029081
252	0x3b1f6e6f	0.0024327298
253	0x3f032ee3	0.5124342
254	0x3eab49e7	0.3345482
255	0x3d68481f	0.056709405
