checkpoint/agent0_checkpoint_actor.pth (torch_old, 483985 bytes, 24 tensors)

fc1.weight f4 [256, 24]
0.000779703 0.0419903 -0.0825383 -0.34469354 -0.10557546 0.20618957 0.08142039 -0.03262268
0.030668112 -0.013209906 0.016640952 -0.08642868 -0.14849956 -0.024852598 -0.0058147726 -0.038743604
0.07589515 0.03205619 -0.040467907 0.073451556 0.1492871 0.3210307 0.055907387 0.3150886
0.013350915 -0.1698888 0.18556309 -0.11482471 -0.13206705 0.08782853 -0.078830175 0.25089708
-0.09994797 -0.2430479 -0.064326555 -0.24153802 -0.12699804 0.13742732 0.16936575 0.048568677
0.027473873 -0.22361042 0.003343713 -0.068720125 -0.17909689 -0.40887004 0.09759974 0.24155222
-0.15965132 -0.0803346 0.11237763 0.28337985 0.05728368 -0.102697596 0.118690416 -0.0397389
0.0033048918 -0.22874996 -0.03064849 -0.0032605603 0.089463726 -0.006101569 -0.010086378 0.16385336
0.061463974 -0.13525309 0.10608661 0.057001628 0.16701818 0.20542271 -0.059010416 -0.065100245
0.02175408 0.296055 0.09577601 0.17891818 0.11026826 0.0934397 -0.06307525 -0.12889473
-0.19697662 0.35548696 0.13354194 -0.13426083 0.05322261 0.020783504 -0.055257477 -0.02408127
0.036183074 0.031657677 0.07170395 0.18156983 0.17869717 -0.036423035 -0.20515516 -0.054071896
0.16263624 0.039371956 -0.05577659 -0.14183939 0.2601147 0.14128657 0.014454039 -0.075675525
-0.12717557 -0.02537672 -0.035712063 -0.13728458 0.07145721 0.1556582 0.034410585 0.14129113
-0.024166105 0.1816088 0.10817721 -0.16229787 -0.0064003 0.16548854 -0.0019254087 0.0582494
0.073495515 -0.028579967 -0.04734955 0.09387742 -0.22482145 -0.24650754 0.0011500216 -0.10214321
-0.10235919 -0.20945577 -0.075171456 0.07529914 -0.1447346 -0.116648264 0.11437005 0.010682712
-0.02610224 -0.014707629 0.00043697646 0.18305005 0.15798436 -0.008159092 0.15292585 0.038496405
-0.26411375 0.07459719 0.16129355 0.062075283 -0.08338598 -0.081168026 -0.16872565 -0.10888299
-0.1198345 0.2867373 0.09277728 -0.21376552 0.12902547 -0.23379065 -0.060734503 -0.09966912
-0.10060961 0.12642844 -0.080262564 -0.24610424 -0.029704692 -0.23953786 0.010179971 0.0070369397
-0.04577069 -0.0025109726 0.1756091 -0.046354923 0.4164379 0.1076219 -0.18811573 0.16605544
0.10746989 -0.035310846 0.0339968 -0.09365707 0.1937059 0.026441833 0.016536273 0.12827466
0.20145714 0.13042904 -0.10473046 -0.102020614 -0.0858758 0.2526901 0.10642659 0.08057438
-0.028573489 -0.036546394 -0.02851936 -0.2687589 -0.053310618 0.170008 -0.0062653916 -0.16084613
0.107395485 0.03281535 -0.051738687 -0.40722948 -0.11704711 0.28170386 0.029187327 -0.094920106
0.178117 -0.07935975 -0.0065325145 -0.20818716 -0.009186632 0.104910135 -0.0064472905 -0.14179134
-0.20180586 -0.027751127 0.102126725 -0.1365971 -0.04824393 0.26268417 0.011035745 0.034837853
-0.2267664 0.19461295 -0.09259419 -0.032991476 -0.08558308 -0.10491054 0.055032607 0.1933146
-0.039584994 0.29143968 0.14995457 -0.018918587 0.10088121 -0.37260523 -0.061425123 0.17016962
-0.028916845 0.27038965 -0.09447912 0.022239337 0.057432625 -0.17902696 0.1188094 -0.14688182
-0.07592981 0.096375644 -0.025675787 0.05084234 0.10004688 -0.16173685 -0.03935591 -0.05162928
00000000: fc64 4c3a 05fe 2b3d d709 a9bd ac7b b0be
00000010: f237 d8bd 5c23 533e bcbf a63d 5c9f 05bd
00000020: b13b fb3c 5d6e 58bc 9b52 883c 8501 b1bd
00000030: 4510 18be ad97 cbbc d989 bebb 9db1 1ebd
00000040: eb6e 9b3d 5a4d 033d adc1 25bd c56d 963d
00000050: b8de 183e 235e a43e 25ff 643d 4b53 a13e
00000060: ccbd 5a3c 54f7 2dbe 4004 3e3e 3829 ebbd
00000070: 963c 07be 72df b33d b771 a1bd 9575 803e
00000080: 85b1 ccbd 8ce1 78be a4bd 83bd be55 77be
00000090: c60b 02be bfb9 0c3e 376e 2d3e f3ef 463d
000000a0: e310 e13c 21fa 64be 3222 5b3b 23bd 8cbd
000000b0: 2d65 37be 6a57 d1be 5fe2 c73d 7759 773e
000000c0: a37b 23be 7786 a4bd 3e26 e63d 2a17 913e
000000d0: 4ba2 6a3d 1e53 d2bd f613 f33d 42c5 22bd
000000e0: e296 583b 6e3d 6abe 8b12 fbbc 20af 55bb
000000f0: c238 b73d acef c7bb 5641 25bc 2dc9 273e
00000100: a6c1 7b3d c97f 0abe f043 d93d 8a7a 693d
00000110: d006 2b3e 555a 523e e8b4 71bd 4753 85bd
00000120: 9d35 b23c 8594 973e 3626 c43d 5436 373e
00000130: 53d4 e13d 505d bf3d 992d 81bd fbfc 03be
00000140: 3db4 49be 6302 b63e 38bf 083e ac7b 09be
00000150: f4ff 593d 2b42 aa3c aa55 62bd 1546 c5bc
00000160: b434 143d 7bab 013d 85d9 923d 71ed 393e
00000170: 64fc 363e 5230 15bd 3214 52be 7e7a 5dbd
00000180: 1d8a 263e 7d44 213d fe75 64bd 583e 11be
00000190: c12d 853e 6dad 103e a2d0 6c3c c5fb 9abd
000001a0: 503a 02be d7e2 cfbc d046 12bd 5494 0cbe
000001b0: 2858 923d dd64 1f3e 1df2 0c3d 9fae 103e
000001c0: fff7 c5bc a8f7 393e 038c dd3d 6a31 26be
000001d0: 9cb9 d1bb d475 293e ff5d fcba ec96 6e3d
000001e0: d184 963d 8920 eabc 9af1 41bd ce42 c03d
000001f0: 9837 66be 796c 7cbe 52bc 963a 7630 d1bd
00000200: b2a1 d1bd 937b 56be 7ef3 99bd 6f36 9a3d
00000210: 4f35 14be 49e5 eebd d83a ea3d 8b06 2f3c
00000220: 5dd4 d5bc 44f8 70bc fd19 e539 7971 3b3e
00000230: a7c6 213e b6ad 05bc 9898 1c3e 68ae 1d3d
00000240: eb39 87be 69c6 983d 232a 253e a742 7e3d
00000250: 45c6 aabd 6c3b a6bd 6bc6 2cbe 0cfe debd
00000260: ca6b f5bd 3bcf 923e 0402 be3d 59e5 5abe
00000270: 411f 043e d166 6fbe bec4 78bd 531f ccbd
00000280: 690c cebd 7576 013e b360 a4bd c002 7cbe
00000290: 4157 f3bc 6a49 75be e5c9 263c 2196 e63b
000002a0: 0c7a 3bbd 218f 24bb dfd2 333e a9de 3dbd
000002b0: 5937 d53e df68 dc3d 69a1 40be 700a 2a3e
000002c0: 2c19 dc3d 1ba2 10bd 3b40 0b3d 47cf bfbd
000002d0: d75a 463e 8b9c d83c 1477 873c 6f5a 033e
000002e0: c84a 4e3e 318f 053e ec7c d6bd 2ff0 d0bd
000002f0: a7df afbd 9960 813e 2ff6 d93d 2e04 a53d
00000300: f312 eabc acb1 15bd 6fa1 e9bc c49a 89be
00000310: 3c5c 5abd 9416 2e3e ea4d cdbb d9b4 24be
00000320: 2af2 db3d 6369 063d f2eb 53bd 6280 d0be
00000330: 65b6 efbd 7d3b 903e 431a ef3c 7965 c2bd
00000340: 4e64 363e 5d87 a2bd b40e d6bb 042f 55be
00000350: 8783 16bc 20db d63d cb43 d3bb c031 11be
00000360: 32a6 4ebe 5556 e3bc d127 d13d 1ce0 0bbe
00000370: 6d9b 45bd 8a7e 863e 45cf 343c 23b2 0e3d
00000380: 7335 68be 9e48 473e 06a2 bdbd 1222 07bd
00000390: 2f46 afbd 56db d6bd df69 613d 43f4 453e
000003a0: e023 22bd 9537 953e b18d 193e 27fb 9abc
000003b0: cf9a ce3d 1dc6 bebe e998 7bbd f240 2e3e
000003c0: 05e3 ecbc 8370 8a3e 457e c1bd 452f b63c
000003d0: 793e 6b3d d852 37be 5852 f33d 3068 16be
000003e0: 1781 9bbd 9860 c53d 0756 d2bc 0f40 503d
000003f0: 61e5 cc3d 589e 25be aa33 21bd 3979 53bd

fc1.bias f4 [256]
-0.12712006 0.10959955 0.11123693 0.090943955 -0.05181322 -0.13287117 -0.11886911 -0.026095003
-0.22753468 -0.11182305 0.15284337 0.06136116 0.04169811 -0.19694504 -0.08148393 0.14191192
0.15605858 0.20061825 -0.13591674 -0.16617724 0.029157571 -0.23569667 -0.03765551 -0.12698905
-0.030404514 -0.2041505 -0.050509408 0.040456243 -0.17780837 -0.16802031 -0.12997444 0.021932775
-0.08610948 -0.0414039 -0.06297812 0.025374908 -0.10477151 0.0838213 -0.16837797 0.25277805
-0.11827463 -0.16125543 -0.020992884 -0.12022794 -0.11000682 -0.1036233 -0.01578198 -0.029942056
0.2792542 0.18382254 -0.054120652 0.123860806 -0.027490726 -0.21065927 0.045729943 -0.09583409
0.17499189 0.0775529 -0.25280723 0.34147766 0.094610736 0.10783875 -0.021869667 -0.20970117
0.23987421 0.23944657 -0.12004005 0.1537575 -0.20280495 -0.1679035 -0.007526054 -0.14075845
-0.21314268 0.07561366 -0.18570168 0.15215638 0.05052113 0.17197078 0.0009016542 0.012289024
0.036312245 0.05377135 -0.21096322 -0.09638345 0.1107741 -0.20404088 -0.00010872095 0.18545853
-0.14537625 0.013741154 0.21226607 0.008049758 -0.051663503 0.17216146 0.034703474 -0.039130453
0.15343492 -0.045046706 0.24992476 -0.023103647 0.21377318 -0.0052456725 0.06888481 0.062917426
-0.04272026 0.27385336 0.059197444 -0.045770377 0.057723522 -0.16230205 -0.050724328 -0.25680822
-0.1344852 -0.18136331 -0.09144932 0.11275106 0.10867887 -0.13977188 -0.081776164 0.2213314
-0.19809698 -0.0317834 0.13427931 0.30172887 0.18559279 0.078499965 0.14939034 -0.09053843
0.122539625 -0.32699412 -0.12087262 0.18393669 -0.1751841 0.07377786 0.16445889 0.16170801
0.18106905 -0.098248996 0.20810047 0.13374874 0.006066302 -0.16214772 0.26796296 0.057028078
0.11300501 -0.044491824 -0.113767415 -0.17193174 -0.030149803 0.1639376 0.0034454654 0.20672597
0.1517223 -0.10858093 0.1546692 0.05626268 0.122943796 0.006864023 0.0002341303 0.14122581
-0.11510355 0.056904733 -0.10163259 -0.011645213 -0.11092732 0.12524413 -0.073533714 0.17776233
0.15752216 0.16242854 0.21545921 -0.23016968 -0.11227799 -0.22691184 -0.15952417 -0.15523334
-0.0075563984 0.13670318 -0.17354771 0.045282707 -0.12407178 0.168687 0.18818791 0.12890276
0.11486715 -0.18712167 -0.16829976 -0.06643738 -0.071255945 0.2309208 0.18683577 0.019883836
0.10891141 -0.11268444 0.23517977 -0.03907677 -0.17927693 0.18438843 0.11480124 -0.008668079
-0.06944195 0.007046287 0.054881416 -0.013599431 0.34873047 0.4035287 0.031222526 0.18241322
-0.0039758524 -0.011919231 -0.00360726 0.120410316 0.12843893 0.0141958315 -0.030779723 -0.20255983
0.044826895 0.002232616 -0.06534003 -0.055826843 -0.13299905 -0.030736513 0.16083221 -0.104972206
-0.10412329 -0.19210874 0.11141603 -0.037523247 0.030620128 -0.029854894 0.13603157 0.07439414
-0.068289645 -0.06637076 0.070924856 0.014176042 -0.12031158 0.036358353 -0.048369657 0.066871576
-0.04062967 -0.14603497 0.014164387 -0.012408757 -0.025749018 0.28364414 0.04616052 -0.10023645
-0.036030598 0.009462646 -0.20685929 -0.15595897 0.116659835 0.22253263 -0.1619044 0.31324172
00000000: c32b 02be bb75 e03d 30d0 e33d d340 ba3d
00000010: 193a 54bd 610f 08be a671 f3bd 30c5 d5bc
00000020: dafe 68be 7c03 e5bd f982 1c3e d755 7b3d
00000030: a3cb 2a3d f6ab 49be 0ce1 a6bd 5c51 113e
00000040: d2cd 1f3e df6e 4d3e c22d 0bbe 5e2a 2abe
00000050: dcdb ee3c 785a 71be aa3c 1abd 6b09 02be
00000060: e312 f9bc d40c 51be f4e2 4ebd 72b5 253d
00000070: 6613 36be 840d 2cbe 0518 05be 5dac b33c
00000080: 2b5a b0bd 2397 29bd acfa 80bd 0adf cf3c
00000090: 7292 d6bd 80aa ab3d 466b 2cbe 206c 813e
000000a0: f839 f2bd 2520 25be 45f9 abbc 113a f6bd
000000b0: 414b e1bd 7438 d4bd 3649 81bc 0b49 f5bc
000000c0: 68fa 8e3e fa3b 3c3e 9ead 5dbd bcaa fd3d
000000d0: 3b34 e1bc 10b7 57be 524f 3b3d aa44 c4bd
000000e0: 1331 333e 0ed4 9e3d f36f 81be 29d6 ae3e
000000f0: 46c3 c13d 90da dc3d 0428 b3bc e7bb 56be
00000100: 96a1 753e 7b31 753e 8fd7 f5bd 9b72 1d3e
00000110: 1aac 4fbe e5ee 2bbe 1e9d f6bb fc22 10be
00000120: 1342 5abe 56db 9a3d 9528 3ebe e2ce 1b3e
00000130: 3fef 4e3d 1c19 303e fd5c 6c3a e757 493c
00000140: 26bc 143d 593f 5c3d be06 58be b064 c5bd
00000150: 88dd e23d 18f0 50be 1e01 e4b8 d7e8 3d3e
00000160: 83dd 14be 9422 613c 475c 593e 22e3 033c
00000170: 1c9d 53bd 184b 303e 3b25 0e3d 4147 20bd
00000180: 0b1e 1d3e e582 38bd 47ec 7f3e dc43 bdbc
00000190: 5be7 5a3e e4e3 abbb 7b13 8d3d dada 803d
000001a0: 70fb 2ebd 8236 8c3e 0579 723d b879 3bbd
000001b0: 806f 6c3d 8232 26be 50c4 4fbd 5e7c 83be
000001c0: 7db6 09be 4eb7 39be c849 bbbd 07ea e63d
000001d0: 0793 de3d 5c20 0fbe 437a a7bd b3a4 623e
000001e0: efd9 4abe 4f2f 02bd 8480 093e 357c 9a3e
000001f0: 090c 3e3e 97c4 a03d c8f9 183e 366c b9bd
00000200: 0ef6 fa3d c66b a7be 108c f7bd e659 3c3e
00000210: 7663 33be d918 973d e967 283e c996 253e
00000220: 2a6a 393e c536 c9bd 4a18 553e 6ef5 083e
00000230: d4c7 c63b 0d0a 26be 7132 893e 4696 693d
00000240: 2c6f e73d 0f3d 36bd e4fe e8bd e00e 30be
00000250: b8fc f6bc 42df 273e 51cd 613b f9af 533e
00000260: 175d 1b3e ae5f debd 9a61 1e3e b273 663d
00000270: f5c9 fb3d 99eb e03b e080 7539 809d 103e
00000280: 69bb ebbd f014 693d bf24 d0bd 90cb 3ebc
00000290: dd2d e3bd ff3f 003e d898 96bd 5407 363e
000002a0: 7d4d 213e ab53 263e 57a1 5c3e 9ab1 6bbe
000002b0: 01f2 e5bd 945b 68be 4e5a 23be 7df5 1ebe
000002c0: aa9b f7bb ebfb 0b3e 7eb6 31be 5c7a 393d
000002d0: 5819 febd 49bc 2c3e 55b4 403e 16ff 033e
000002e0: 783f eb3d d39c 3fbe c656 2cbe 5210 88bd
000002f0: a3ee 91bd 8176 6c3e e051 3f3e 6de3 a23c
00000300: f20c df3d 1ac7 e6bd f7d2 703e f70e 20bd
00000310: 5f94 37be 52d0 3c3e ea1c eb3d 8f04 0ebc
00000320: 9537 8ebd 8ae4 e63b 56cb 603d 26d0 5ebc
00000330: cd8c b23e 509b ce3e 62c6 ff3c 88ca 3a3e
00000340: de47 82bb e148 43bc c867 6cbb af99 f63d
00000350: 7f85 033e a295 683c c225 fcbc d86b 4fbe
00000360: 689c 373d 1551 123b fed0 85bd b0aa 64bd
00000370: e730 08be 24cb fbbc 33b1 243e abfb d6bd
00000380: 973e d5bd 27b8 44be 162e e43d fab1 19bd
00000390: 10d7 fa3c 4092 f4bc dc4b 0b3e f45b 983d
000003a0: 71db 8bbd 65ed 87bd 0d41 913d a142 683c
000003b0: eb65 f6bd 7fec 143d 431f 46bd f7f3 883d
000003c0: 4c6b 26bd 318a 15be bf11 683c 194e 4bbc
000003d0: 9bef d2bc ce39 913e d012 3d3d c548 cdbd
000003e0: d294 13bd 3709 1b3c ecd2 53be b5b3 1fbe
000003f0: 5aeb ee3d 98df 633e 44ca 25be 3861 a03e

bn1.weight f4 [256]
1.2111304 1.1959028 1.0991904 1.1053509 1.0848265 1.0795128 1.1448042 1.2341759
1.2793233 1.0986015 1.0744069 1.3073354 1.304141 1.2328941 1.0710187 1.1453763
1.249083 1.2004462 1.1856685 1.1219684 1.0439577 1.2033355 1.073835 1.1137816
1.0993596 1.069864 1.0343179 1.067785 1.2609787 1.0354412 1.1045598 1.1823823
1.1413766 1.0533106 1.0663006 1.1194861 1.3573942 1.0501506 1.0601473 1.1997087
1.1408961 1.0826029 1.0828282 1.0787637 1.1492255 1.1359323 1.0931436 1.2166173
1.1445509 1.7352808 1.1113023 1.337714 1.1387385 1.352509 1.1836573 1.1551709
1.1985661 1.2541052 1.1044037 1.214769 1.1259851 1.1422223 1.4044025 1.0803263
1.153617 1.2511344 1.0620259 1.1530212 1.0971403 1.0609225 1.1556683 1.2419962
1.0862858 1.0815508 1.4504747 1.1227189 1.0910349 1.1879824 1.2082354 1.181589
1.1244524 1.1199083 1.1563331 1.227636 1.1316073 1.0900239 1.1286685 1.1703967
1.1080196 1.211314 1.2672153 1.1295546 1.2483777 1.1164792 1.2042288 1.4738964
1.0449557 1.1431776 1.1504205 1.0670599 1.0947322 1.0871042 1.2641203 1.0236037
1.1208009 1.0771476 1.0500504 1.1542184 1.183977 1.1073142 1.1678025 1.0737368
1.084697 1.1214961 1.1021938 1.0707285 1.2529442 1.1973484 1.139786 1.4690982
1.2769632 1.2217664 1.1001282 1.4409006 1.4708339 1.2288804 1.2189069 1.0920773
1.1094643 1.0614306 1.1920335 1.2208972 1.2513735 1.2110759 1.1431459 1.1139023
1.1201078 1.0629156 1.1482754 1.179684 1.0501233 1.0911753 1.144356 1.1353458
1.1372023 1.1650282 1.061948 1.1188595 1.1083678 1.3079473 1.1724551 1.1884228
1.1101824 1.1673648 1.0872756 1.267116 1.1151386 1.1776758 1.0878627 1.0521315
1.1576574 1.2699072 1.1957201 1.0790727 1.1072475 1.0765467 1.1610135 1.0936244
1.3103935 1.0891834 1.3167025 1.139498 1.0499483 1.3250182 1.0330698 1.0965453
1.1996864 1.1768662 1.0933738 1.3077344 1.0893112 1.1053224 1.3080039 1.1512642
1.1782329 1.1118492 1.080158 1.3224922 1.0801047 1.1432154 1.1256356 1.2945753
1.1066085 1.1446531 1.2608334 1.191728 1.3152999 1.1810917 1.0630429 1.1752292
1.1717986 1.141252 1.3178394 1.087384 1.1046324 1.1811255 1.1485232 1.0913372
1.2238089 1.1103835 1.1225255 1.2913301 1.3212014 1.1110244 1.192221 1.1292663
1.1496499 1.1807487 1.0832826 1.1237516 1.1226697 1.1373744 1.1846433 1.0782527
1.1218339 1.1112936 1.2471262 1.0935653 1.1155589 1.0776808 1.0995479 1.0687569
1.2581445 1.1784353 1.1583711 1.1270639 1.1023444 1.1607186 1.0768234 1.1077343
1.0989337 1.2224232 1.1368624 1.1352714 1.1038392 1.1396362 1.203158 1.1932164
1.1545684 1.1931287 1.1018351 1.1209956 1.1646318 1.1122776 1.088447 1.350385
00000000: 5206 9b3f 5813 993f 45b2 8c3f 237c 8d3f
00000010: 98db 8a3f 7a2d 8a3f f288 923f 7af9 9d3f
00000020: dec0 a33f f99e 8c3f 2a86 893f c456 a73f
00000030: 18ee a63f 79cf 9d3f 2417 893f b19b 923f
00000040: f4e1 9f3f 39a8 993f fcc3 973f a99c 8f3f
00000050: 68a0 853f e606 9a3f 6d73 893f 6590 8e3f
00000060: d1b7 8c3f 4ef1 883f 8764 843f 2ead 883f
00000070: c067 a13f 5689 843f 3762 8d3f 4e58 973f
00000080: a118 923f e2d2 863f 8a7c 883f 524b 8f3f
00000090: 18bf ad3f 566b 863f e8b2 873f 0e90 993f
000000a0: e208 923f bb92 8a3f 1d9a 8a3f ee14 8a3f
000000b0: d219 933f 3b66 913f 21ec 8b3f 1eba 9b3f
000000c0: a580 923f ae1d de3f 273f 8e3f 363a ab3f
000000d0: 2fc2 913f 041f ad3f 1582 973f a4dc 933f
000000e0: 9d6a 993f 8586 a03f 1a5d 8d3f 8d7d 9b3f
000000f0: 4820 903f 5734 923f 76c3 b33f 2248 8a3f
00000100: b9a9 933f 2c25 a03f 77f0 873f 3396 933f
00000110: 186f 8c3f 4fcc 873f f0ec 933f bbf9 9e3f
00000120: 6a0b 8b3f 4270 8a3f 28a9 b93f 41b5 8f3f
00000130: 08a7 8b3f cf0f 983f 75a7 9a3f 4f3e 973f
00000140: 0eee 8f3f 2859 8f3f b902 943f 2d23 9d3f
00000150: 82d8 903f e785 8b3f 3678 903f 8fcf 953f
00000160: 96d3 8d3f 560c 9b3f 1c34 a23f 3f95 903f
00000170: d7ca 9f3f cae8 8e3f 2b24 9a3f a3a8 bc3f
00000180: 1cc1 853f a553 923f fb40 933f 6b95 883f
00000190: 2f20 8c3f 3b26 8b3f b2ce a13f 7205 833f
000001a0: 6776 8f3f f9df 893f 0d68 863f 6ebd 933f
000001b0: 8f8c 973f 79bc 8d3f 8d7a 953f 3570 893f
000001c0: 5ad7 8a3f 2f8d 8f3f b014 8d3f a20d 893f
000001d0: 7a60 a03f b642 993f 82e4 913f 690b bc3f
000001e0: 8873 a33f d762 9c3f 00d1 8c3f 6e6f b83f
000001f0: 4944 bc3f f44b 9d3f 2405 9c3f 30c9 8b3f
00000200: ed02 8e3f f5dc 873f 8e94 983f 5c46 9c3f
00000210: 022d a03f 8904 9b3f 9b52 923f 5a94 8e3f
00000220: b15f 8f3f 9e0d 883f b0fa 923f e3ff 963f
00000230: 716a 863f a2ab 8b3f 427a 923f 0353 913f
00000240: d88f 913f a51f 953f e9ed 873f ca36 8f3f
00000250: ffde 8d3f d16a a73f 0213 963f 3d1e 983f
00000260: 751a 8e3f 366c 953f d92b 8b3f db30 a23f
00000270: ddbc 8e3f 15be 963f 163f 8b3f 3fac 863f
00000280: 1e2e 943f 528c a23f 5b0d 993f 0e1f 8a3f
00000290: 49ba 8d3f 48cc 893f 179c 943f e2fb 8b3f
000002a0: f9ba a73f 5d6a 8b3f b589 a83f 12db 913f
000002b0: b564 863f 329a a93f a23b 843f 995b 8c3f
000002c0: 538f 993f 8da3 963f acf3 8b3f d763 a73f
000002d0: 8d6e 8b3f 347b 8d3f ac6c a73f a05c 933f
000002e0: 56d0 963f 1351 8e3f 9e42 8a3f 6d47 a93f
000002f0: df40 8a3f e254 923f d414 903f a5b4 a53f
00000300: 59a5 8d3f fe83 923f fd62 a13f 8b8a 983f
00000310: bf5b a83f 032e 973f ca11 883f e96d 963f
00000320: 7ffd 953f 8c14 923f f6ae a83f 662f 8b3f
00000330: 9864 8d3f 1f2f 973f cf02 933f f0b0 8b3f
00000340: c5a5 9c3f 0c21 8e3f eaae 8f3f 4e4a a53f
00000350: 211d a93f 0c36 8e3f b39a 983f cc8b 903f
00000360: ba27 933f c622 973f 01a9 8a3f 18d7 8f3f
00000370: a4b3 8f3f 7c95 913f 64a2 973f 2f04 8a3f
00000380: 4198 8f3f de3e 8e3f d5a1 9f3f f3f9 8b3f
00000390: a2ca 8e3f 72f1 893f fcbd 8c3f 07cd 883f
000003a0: e10a a13f f8d6 963f 8145 943f a143 903f
000003b0: 9f19 8d3f 6d92 943f 59d5 893f 3dca 8d3f
000003c0: dca9 8c3f 5d78 9c3f b584 913f 9350 913f
000003d0: 9a4a 8d3f 99df 913f 1501 9a3f 51bb 983f
000003e0: e6c8 933f 71b8 983f ef08 8d3f c97c 8f3f
000003f0: a812 953f 1d5f 8e3f 3b52 8b3f 6ad9 ac3f

bn1.bias f4 [256]
0.03825966 0.049140222 0.075854786 0.0367334 0.07266526 0.021068184 0.06325608 -0.007556794
-0.05569059 0.08355444 0.08017731 0.04340503 0.062269684 0.00012714286 -0.035803217 0.02903319
0.08985582 0.13182959 0.052757412 0.067765824 0.033497203 0.0069455993 0.0015659686 0.03885584
0.048813034 0.07653844 -0.002633372 0.076069705 -0.073557116 0.045402765 0.018313576 0.08784609
0.039979443 0.015202201 0.05200126 0.07465396 0.049543343 -0.01579544 -8.474537e-05 0.11159035
0.07123864 0.024246758 0.008371495 0.04197886 -0.0022417153 0.03188161 0.02192273 0.10004687
0.07675958 0.039408043 -0.011416203 0.03966991 -0.015125644 -0.05728905 0.0817867 0.019270359
0.023910748 0.11141507 -0.046437357 0.048339322 0.05070641 0.029881962 0.094845876 -0.017349077
0.09896924 0.10342628 0.047059737 0.016809799 -0.005678302 0.032619342 0.07721296 0.056813464
0.07364856 0.11421296 -0.045577466 -0.009162655 0.043181404 0.009401474 -0.04385266 0.013233741
0.096992105 0.00029192463 0.005303373 -0.02362652 0.0039941706 -0.05963414 0.066582 0.110018164
0.035776086 0.040005796 0.18388394 0.041538246 -0.021406222 0.042787388 0.1484734 0.14307915
0.036898457 0.11634175 -0.029494634 -0.028246718 0.07495694 0.040800173 0.0055656047 0.03858999
0.014842514 0.092721544 0.010001338 0.020702707 0.012871302 0.0018057919 -0.012614927 -0.006493337
-0.02026295 0.07866917 0.02004348 0.023108544 -0.011349066 0.06582647 0.066882685 0.06431377
-0.050655734 0.053706065 0.062383167 0.09511921 0.08041592 0.05681949 0.09886589 -0.0006228901
0.056663558 -0.08438305 0.027731054 0.084796235 0.024460215 0.079942144 0.07806035 0.06643868
0.052113585 -0.04391243 0.08027611 0.047112584 0.05714273 0.04056812 0.12610807 0.12238516
0.017796168 0.10542338 -0.020463098 0.045353904 -0.009781226 0.043821756 0.011574171 0.008050145
0.0651129 0.049824215 0.008616126 0.056825634 0.006387689 0.074356444 0.06254278 0.019018082
0.051692136 0.037934832 -0.0065622884 0.020051962 0.032059256 0.081638634 0.03136614 0.094694994
0.050883804 0.020581191 0.1743674 0.03348667 0.08933134 -0.004774306 0.0726609 0.0943429
-0.038257673 0.04682147 0.005625681 0.10410991 0.061584033 0.051342763 0.10161054 -0.008595461
-0.01681493 0.0029429973 0.066611916 -0.017301891 0.05406628 0.109158315 0.079807416 0.07040199
0.1341143 0.050025165 -0.026944077 0.0996064 0.048094206 0.07717519 0.02955797 0.033482652
0.03474052 0.045545705 0.049558762 0.06348398 0.10101188 0.1500385 0.101653576 0.03265565
0.06690005 0.06618482 -0.0059327753 0.13101384 0.013535614 0.06661057 0.04219641 0.036964722
0.050226696 0.007114612 -0.009598495 0.037547935 0.004345807 0.031287882 0.050514244 0.013968007
0.013527652 0.03976121 0.0697188 0.025032803 0.07670985 0.072493516 0.03522992 -0.010869898
0.047727235 0.03297659 0.093676485 0.077320434 0.020182349 0.066054106 0.0011003606 0.037961915
0.05390935 -0.012862402 0.008044457 0.06173616 0.061800014 0.113657616 0.08356878 0.087924294
0.09968344 0.030710729 -0.005008522 0.039162975 0.045933887 0.032720976 0.00907743 0.18011086
00000000: 29b6 1c3d 4247 493d c159 9b3d c375 163d
00000010: 86d1 943d 2f97 ac3c 678c 813d fc9e f7bb
00000020: d11b 64bd 971e ab3d 0034 a43d 79c9 313d
00000030: 7f0e 7f3d a751 0539 65a6 12bd 03d7 ed3c
00000040: 5406 b83d 56fe 063e 2818 583d cfc8 8a3d
00000050: 5d34 093d e997 e33b 3041 cd3a 4d27 1f3d
00000060: 2df0 473d 30c0 9c3d a794 2cbb 6fca 9b3d
00000070: 1da5 96bd 40f8 393d 5a06 963c a7e8 b33d
00000080: 7cc1 233d a712 793c 46ff 543d 2de4 983d
00000090: f6ed 4a3d 7065 81bc 53b9 b1b8 7b89 e43d
000000a0: 90e5 913d 23a1 c63c 9828 093c 06f2 2b3d
000000b0: bee9 12bb 4b96 023d 4c97 b33c 60e5 cc3d
000000c0: 2034 9d3d 546a 213d 070b 3bbc ea7c 223d
000000d0: 8dd1 77bc eca7 6abd c97f a73d dfdc 9d3c
000000e0: 79e0 c33c 962d e43d 1935 3ebd 74ff 453d
000000f0: 86b1 4f3d 04cb f43c 8e3e c23d a71f 8ebc
00000100: 63b0 ca3d 28d1 d33d b6c1 403d b4b4 893c
00000110: 0d11 babb dc9b 053d d421 9e3d 3cb5 683d
00000120: 0ed5 963d 7ce8 e93d 70af 3abd f61e 16bc
00000130: fcde 303d a408 1a3c d99e 33bd 55d2 583c
00000140: cca3 c63d 760d 9939 ebc7 ad3b 678c c1bc
00000150: 88e1 823b ee42 74bd 255c 883d 3451 e13d
00000160: f289 123d 1edd 233d 124c 3c3e 0224 2a3d
00000170: 1a5c afbc d441 2f3d 6909 183e 5783 123e
00000180: d622 173d 9544 ee3d bb9e f1bc a965 e7bc
00000190: 0683 993d 151e 273d ad5f b63b 8a10 1e3d
000001a0: 042e 733c cbe4 bd3d a7dc 233c b998 a93c
000001b0: 27e2 523c 52b0 ec3a d7ae 4ebc 0fc6 d4bb
000001c0: 7cfe a5bc 4d1d a13d 3932 a43c 214e bd3c
000001d0: 6ff1 39bc 07d0 863d caf9 883d f0b6 833d
000001e0: 637c 4fbd e4fa 5b3d 7e85 7f3d dccd c23d
000001f0: 1ab1 a43d 8ebb 683d 337a ca3d 7249 23ba
00000200: 0c18 683d 05d1 acbd 3c2c e33c a6a9 ad3d
00000210: ca60 c83c b5b8 a33d 1bde 9f3d 0111 883d
00000220: 0e75 553d 85dd 33bd cd67 a43d 20f9 403d
00000230: 7f0e 6a3d c22a 263d 7922 013e 12a5 fa3d
00000240: 45c9 913c 37e8 d73d 3aa2 a7bc 04c5 393d
00000250: 6f41 20bc 717e 333d 97a1 3d3c c1e4 033c
00000260: ea59 853d 7a14 4c3d a72a 0d3c ffc1 683d
00000270: d24f d13b 3148 983d 6e16 803d cfcb 9b3c
00000280: 22bb 533d 8e61 1b3d 7708 d7bb 0344 a43c
00000290: 9150 033d 2832 a73d c879 003d 73ef c13d
000002a0: 896b 503d e399 a83c 5e8d 323e 5229 093d
000002b0: 59f3 b63d c871 9cbb 3dcf 943d da36 c13d
000002c0: 14b4 1cbd dfc7 3f3d a257 b83b 9437 d53d
000002d0: 8a3f 7c3d ca4c 523d 3019 d03d fad3 0cbc
000002e0: 77bf 89bc 4ddf 403b d46b 883d b2bc 8dbc
000002f0: 9b74 5d3d 658e df3d 1272 a33d eb2e 903d
00000300: 4255 093e 30e7 4c3d d3b9 dcbc 71fe cb3d
00000310: 6efe 443d 070e 9e3d 8e23 f23c 1b25 093d
00000320: 134c 0e3d 228e 3a3d 21fe 4a3d e403 823d
00000330: 51df ce3d b1a3 193e c02f d03d eec1 053d
00000340: e502 893d e88b 873d ba67 c2bb 7e28 063e
00000350: 7bc4 5d3c 1f6b 883d 25d6 2c3d 5268 173d
00000360: 82ba 4d3d b121 e93b 0243 1dbc ddcb 193d
00000370: 4567 8e3b b927 003d 06e8 4e3d 11da 643c
00000380: 16a3 5d3c a7dc 223d bbc8 8e3d 9811 cd3c
00000390: 0e1a 9d3d 7b77 943d 404d 103d a817 32bc
000003a0: a27d 433d 7612 073d 75d9 bf3d 2d5a 9e3d
000003b0: 7455 a53c 6047 873d fa39 903a f47d 1b3d
000003c0: 0dd0 5c3d d3bc 52bc e6cc 033c 0edf 7c3d
000003d0: 0322 7d3d 53c5 e83d 1c26 ab3d a711 b43d
000003e0: d526 cc3d 1195 fb3c 871e a4bb 5b69 203d
000003f0: 2c25 3c3d 6e06 063d 80b9 143c fb6e 383e

fc2.weight f4 [128, 256]
0.1523072 -0.03277083 -0.13283591 0.11774234 0.0019713158 0.06978321 0.1555591 0.0005602483
-0.041131176 0.043981176 0.044324487 -0.4411485 0.0044310307 -0.0940474 -0.029594822 -0.13614856
0.023976091 -0.035543233 -0.04486972 -0.13970155 -0.06532249 -0.038601834 -0.008818605 -0.0041742083
-0.0463657 0.03701751 -0.01913901 0.119315244 0.10326909 0.0033334992 0.027056783 -0.064729765
0.042502083 0.09935404 -0.106474385 0.1405337 -0.47245726 -0.019115265 -0.10506436 0.007181605
0.036085926 0.010509013 -0.03852771 0.056581162 -0.11666298 0.004937355 -0.055581994 -0.13118629
0.0499499 -0.008335612 0.05440612 0.15307398 -0.038949553 -0.10471194 -0.14318816 -0.2040585
0.12825061 0.049038332 0.07857488 0.05805993 0.0027269255 0.10424992 -0.015843092 -0.0642472
0.118478544 -0.045169566 -0.0142216245 -0.12811607 -0.027120575 0.0027417887 0.06377293 -0.08677994
0.0034035672 0.022400746 0.013934163 -0.049567074 -0.017231818 -0.016508646 -0.03815264 -0.12953325
-0.02691534 0.08014628 0.08321268 -0.092277735 0.055491913 -0.050531354 -0.036118623 0.035348017
-0.025051594 -0.06447335 -0.022834059 -0.010188713 -0.1917196 0.028112039 -0.047411684 -0.049197778
-0.03302601 0.07148698 -0.02635208 -0.050344694 0.0641294 -0.01822916 0.056026887 0.010049714
0.14702655 0.077111505 0.06673153 0.025300408 -0.014799831 -0.044469323 -0.047007993 0.034896087
0.06469843 0.15806343 0.07055532 -0.060484312 -0.0174208 0.059958145 -0.060660936 0.2539686
-0.08087849 -0.089406915 -0.07154837 -0.44649887 -0.34245682 0.12807308 0.04161379 0.09421119
0.074919425 -0.02691234 0.07180793 -0.15016939 0.13412865 -0.15831219 -0.14345607 0.040824853
-0.00017618683 0.06441467 -0.072685786 0.060405135 0.07762442 -0.105214804 -0.028684221 0.0941562
-0.042590488 0.08207332 -0.017118467 0.030640598 0.019935269 0.07181053 -0.06357529 0.116833776
-0.065506145 -0.048422653 0.069843635 0.07423404 0.042908177 0.035754345 0.03613266 -0.013223238
-0.08442384 0.053872194 0.05020998 0.01755687 0.010749038 -0.04063708 0.05582032 -0.07193134
-0.48345494 -0.00029031772 -0.21536554 -0.07180212 0.06357738 -0.13238004 0.0070195785 -0.106131926
0.09412855 -0.12525034 -0.008163036 0.28848764 -0.004823301 0.013499311 -0.023433276 -0.053416684
-0.13372554 -0.06906462 -0.010667833 0.05315439 0.06294606 0.044755913 0.12439399 -0.16155389
-0.08330012 0.08619906 0.008178404 0.07326422 -0.016583327 -0.0064573134 0.06437389 0.003140596
-0.08146508 -0.007087467 -0.2726253 -0.0020959848 0.03656618 -0.017011477 0.07195047 -0.018587738
-0.07633172 0.0031079168 0.039063085 -0.0863961 0.1578591 0.10554038 0.008241279 -0.07726925
-0.017151957 -0.02539468 -0.07541387 0.073818386 0.11521506 0.088747784 -0.17213853 0.010785022
0.01534245 0.12937576 0.11513774 0.014084618 0.098471366 0.0268147 0.027859678 -0.043809783
0.023729868 -0.1406334 -0.03655941 0.018517423 0.0023782474 -0.08585952 0.040683202 0.107301325
-0.005279482 0.08258349 -0.002242804 -0.08176362 0.0409235 -0.19355582 -0.051109012 -0.10438524
0.04498459 -0.07255265 0.05232333 0.028739102 -0.098872386 0.087226436 0.057046235 0.22053592
00000000: 6bf6 1b3e b53a 06bd 2306 08be e522 f13d
00000010: 3131 013b 80ea 8e3d e24a 1f3e a1dd 123a
00000020: 2a79 28bd 9b25 343d 988d 353d 37de e1be
00000030: 2e32 913b ec9b c0bd d770 f2bc 876a 0bbe
00000040: 8269 c43c c895 11bd 50c9 37bd ec0d 0fbe
00000050: ccc7 85bd f51c 1ebd e97b 10bc ccc7 88bb
00000060: f6e9 3dbd ac9f 173d 6ac9 9cbc 8d5b f43d
00000070: bf7e d33d d676 5a3b 30a6 dd3c 0a91 84bd
00000080: aa16 2e3d 227a cb3d 3e0f dabd 11e8 0f3e
00000090: ebe5 f1be 9e97 9cbc fc2b d7bd ab53 eb3b
000000a0: d6ce 133d ff2d 2c3c 3bcf 1dbd a6c1 673d
000000b0: 00ed eebd 89c9 a13b f2a9 63bd b355 06be
000000c0: 4498 4c3d 1792 08bc f4d8 5e3d 6dbf 1c3e
000000d0: 9189 1fbd 3773 d6bd eb9f 12be b6f4 50be
000000e0: 2154 033e 6bdc 483d deeb a03d 40d0 6d3d
000000f0: 38b6 323b fb80 d53d 5fc9 81bc 0994 83bd
00000100: e1a4 f23d b903 39bd d101 69bc dc30 03be
00000110: f82b debc 95af 333b 629b 823d aeb9 b1bd
00000120: 620e 5f3b c581 b73c 1e4c 643c d806 4bbd
00000130: be29 8dbc 243d 87bc f145 1cbd 5da4 04be
00000140: 8f7d dcbc bc23 a43d 696b aa3d 1cfc bcbd
00000150: 7d4b 633d f7f9 4ebd 1ff1 13bd 15c9 103d
00000160: 0039 cdbc 9b0a 84bd 7e0e bbbc 8fee 26bc
00000170: 2552 44be 384b e63c c132 42bd 9c83 49bd
00000180: 4846 07bd c467 923d 51e0 d7bc 3d36 4ebd
00000190: 4656 833d 5255 95bc 737c 653d 8ea7 243c
000001a0: 218e 163e a3ec 9d3d 8aaa 883d cd42 cf3c
000001b0: fe7a 72bc 7725 36bd 748b 40bd 33ef 0e3d
000001c0: 9c80 843d 61db 213e 4f7f 903d 66be 77bd
000001d0: 11b6 8ebc ac96 753d 9a77 78bd 2c08 823e
000001e0: 9fa3 a5bd f91a b7bd f487 92bd 809b e4be
000001f0: 8056 afbe 9725 033e 3973 2a3d ccf1 c03d
00000200: 5b6f 993d 4577 dcbc 0910 933d 01c6 19be
00000210: 0559 093e 971c 22be 26e6 12be f637 273d
00000220: cbbe 38b9 d7eb 833d 49dc 94bd 606b 773d
00000230: 8df9 9e3d dc7a d7bd 2cfb eabc f7d4 c03d
00000240: 5d73 2ebd 0f16 a83d 073c 8cbc fe01 fb3c
00000250: 4a4f a33c 6611 933d c333 82bd 8c46 ef3d
00000260: 1628 86bd d556 46bd 2e0a 8f3d 0408 983d
00000270: 7cc0 2f3d 2673 123d d7ff 133d 48a6 58bc
00000280: 68e6 acbd 17a9 5c3d fba8 4d3d 6dd3 8f3c
00000290: bc1c 303c 1173 26bd d9a3 643d bd50 93bd
000002a0: 6887 f7be c935 98b9 c988 5cbe fd0c 93bd
000002b0: db34 823d a28e 07be 7e04 e63b b25b d9bd
000002c0: 78c6 c03d a041 00be 41be 05bc a7b4 933e
000002d0: c80c 9ebb 372c 5d3c 24f7 bfbc 74cb 5abd
000002e0: 59ef 08be c071 8dbd 22c8 2ebc 6bb8 593d
000002f0: dde9 803d fa51 373d 47c2 fe3d 626e 25be
00000300: 4199 aabd 2289 b03d b6fe 053c 8d0b 963d
00000310: c2d9 87bc df97 d3bb 75d6 833d 75d2 4d3b
00000320: 2ad7 a6bd fb3d e8bb 8b95 8bbe ca5c 09bb
00000330: 6bc6 153d a75b 8bbc c55a 933d 5045 98bc
00000340: ce53 9cbd 31ae 4b3b 9d00 203d 70f0 b0bd
00000350: d1a5 213e 8e25 d83d 6e06 073c 573f 9ebd
00000360: 4382 8cbc 8108 d0bc 9672 9abd 182e 973d
00000370: e0f5 eb3d 66c1 b53d 1545 30be a9b3 303c
00000380: e65e 7b3c 147b 043e 56cd eb3d 2bc3 663c
00000390: 5bab c93d 80aa db3c fb39 e43c e371 33bd
000003a0: 2465 c23c 3402 10be 52bf 15bd dab1 973c
000003b0: 5fdc 1b3b 1ed7 afbd 6ea3 263d ccc0 db3d
000003c0: 81ff acbb 8821 a93d 02fc 12bb af73 a7bd
000003d0: 669f 273d 7f33 46be af57 51bd eec7 d5bd
000003e0: c341 383d 7c96 94bd fd50 563d 446e eb3c
000003f0: 9b7d cabd c6a3 b23d 50a9 693d 2bd4 613e

fc2.bias f4 [128]
0.069084145 0.026069883 -0.024929821 -0.0014821735 0.044496577 0.024722382 0.05750718 -0.025612222
0.012320914 0.062143803 0.083893925 0.088919535 -0.035285786 0.023089817 -0.016231129 -0.0045248806
-0.0222391 -0.010774642 -0.024733316 -0.00566099 0.015928324 0.008779283 0.031041382 0.04361562
0.10840377 0.015987277 -0.054232005 0.024984714 0.039851163 0.009208958 0.0059924647 0.050691895
-0.028732711 0.00043348127 -0.038243752 -0.016491707 0.04497249 0.015402807 0.055125754 -0.057540227
0.04534484 0.058335092 0.02774703 0.052174356 0.037494052 -0.011443402 -0.022046579 0.054050066
-0.013939591 -0.04520876 -0.07446411 0.017763501 -0.042564612 0.029632125 0.0034131915 0.09246208
0.018581746 0.060548905 0.0045429715 0.10115523 -0.00054839684 -0.049328115 0.02266928 0.05145306
0.048805524 0.08153874 0.009960957 -0.027585294 -0.04107876 0.09776737 0.080226116 -0.036354896
0.024227442 0.014202214 0.024323044 0.029583171 -0.012604486 0.0478249 -0.048261493 -0.006076271
-0.017028108 -0.021979012 -0.0428846 -0.01649527 0.04211879 0.03768854 -0.015194798 -0.01895572
0.08966629 -0.036805186 0.049492024 0.05573924 0.0338705 -0.00983419 0.010567518 0.0568243
0.068128385 0.04021699 0.018671487 0.049882986 0.069144696 0.08355997 0.010150478 0.018616032
-0.022151617 -0.00994983 0.0076783197 0.06378792 -0.006524274 0.09438337 0.01425961 -0.030808857
-0.01617363 0.074302204 0.020871589 0.07750502 0.023383671 0.015660003 0.03522836 0.014969703
0.049461145 0.061806936 0.05966511 -0.05190131 0.017762039 0.03530967 0.046584465 -0.017822525
00000000: fd7b 8d3d 8290 d53c a039 ccbc 7d45 c2ba
00000010: 0b42 363d 9886 ca3c a68c 6b3d b9d0 d1bc
00000020: a9dd 493c 808a 7e3d 94d0 ab3d 721b b63d
00000030: d487 10bd db26 bd3c 25f7 84bc 7345 94bb
00000040: c62e b6bc 2088 30bc 869d cabc d37f b9bb
00000050: 1e7c 823c fbd6 0f3c 7f4a fe3c 4ba6 323d
00000060: cc02 de3d c0f7 823c 6122 5ebd beac cc3c
00000070: f93a 233d 2be1 163c 705c c43b 4ea2 4f3d
00000080: dd60 ebbc df44 e339 7ba5 1cbd 9e19 87bc
00000090: 1335 383d 0e5c 7c3c 8bcb 613d 4daf 6bbd
000000a0: 83bb 393d c7f0 6e3d bd4d e33c c7b4 553d
000000b0: 5d93 193d 1b7d 3bbc 079b b4bc 9a63 5d3d
000000c0: e262 64bc d22c 39bd a480 98bd c384 913c
000000d0: 3b58 2ebd 12bf f23c daaf 5f3b c25c bd3d
000000e0: bf38 983c 2102 783d 35dd 943b 792a cf3d
000000f0: 4ac2 0fba 470c 4abd edb4 b93c 72c0 523d
00000100: 4de8 473d c8fd a63d 4833 233c 8efa e1bc
00000110: 3442 28bd 423a c83d 974d a43d dfe8 14bd
00000120: a178 c63c 67b0 683c 1f41 c73c 6858 f23c
00000130: 0c83 4ebc 0be4 433d d8ad 45bd 751b c7bb
00000140: 887e 8bbc 540d b4bc c3a7 2fbd 1721 87bc
00000150: c184 2c3d 4c5f 1a3d 9af3 78bc 0749 9bbc
00000160: f6a2 b73d 09c1 16bd 26b8 4a3d d44e 643d
00000170: cbbb 0a3d 951f 21bc 6223 2d3c 99c0 683d
00000180: e586 8b3d 92ba 243d f2f4 983c 1a52 4c3d
00000190: bc9b 8d3d 7d21 ab3d 314e 263c a680 983c
000001a0: 4f77 b5bc 9d04 23bc 6a9a fb3b 3ea3 823d
000001b0: 94c9 d5bb 114c c13d 24a1 693c db62 fcbc
000001c0: 8f7e 84bc c12b 983d e5fa aa3c f4ba 9e3d
000001d0: 1d8f bf3c 6849 803c 9d4b 103d 7c43 753c
000001e0: c597 4a3d 4529 7d3d 6763 743d 7896 54bd
000001f0: b281 913c dfa0 103d 5acf 3e3d 8b00 92bc

fc3.weight f4 [2, 128]
0.24374104 0.25321624 0.13921365 0.18865168 0.13786487 0.10081254 -0.0752977 0.10303469
0.16591588 0.18399712 -0.07917293 -0.09323691 0.098947994 -0.057646673 0.1640362 0.25016886
-0.08137371 0.16176264 0.051924612 0.1494969 -0.079885505 -0.053362936 -0.03183295 0.07174561
-0.07954499 0.1592395 0.017165685 0.4703556 0.10764231 -0.22575848 -0.0027920352 -0.06844628
0.06725723 0.048214637 0.084935054 0.20008455 0.003571386 0.2063889 -0.08741696 0.14117834
-0.008599076 0.6198277 0.3678418 0.14630456 0.3551533 0.26534635 0.17396495 0.29087266
0.26327422 0.1944939 0.19040208 -0.04494375 0.9139066 0.3627803 -0.078558914 -0.06534302
0.17032117 0.108473904 0.35157457 -0.17137997 0.35312864 -0.06841004 -0.12685826 0.1713015
0.18821903 0.22483365 -0.07508965 0.17603482 0.5592004 -0.07557079 -0.10797692 0.07684647
0.16287856 0.1653577 0.0363055 0.18714894 -0.011385156 0.12928967 0.23964694 -0.0686711
0.13134764 0.18262862 0.1091263 0.108860604 -0.053811897 0.18809098 0.17001545 0.60746235
0.12648661 0.1379834 0.35897085 0.38313213 0.09748875 0.2579335 0.15983298 -0.071057044
0.25187698 -0.17609443 0.4335268 0.26165554 0.10023994 -0.078826584 -0.08069082 -0.047606148
-0.06650843 0.43535933 0.31797224 -0.12981038 0.23585436 0.15764542 0.11872824 0.28702387
0.16695447 0.02610571 0.27307695 -0.07510954 -0.1392026 0.121567585 0.14563356 0.058039572
0.14990637 0.14758532 -0.0566534 0.26995677 0.3850774 0.11252651 0.060317088 0.15904896
-0.45415008 0.10905665 0.10566282 -0.053248703 -0.03416376 0.062463395 0.07062768 -0.2460965
0.021587562 -0.46525213 0.06675126 0.066677995 -0.40797296 0.10631863 0.10748279 -0.06592479
-0.21176726 0.03191583 0.21056193 1.1476301e-05 0.07155368 -0.4219446 -0.5430815 -0.07883154
0.08923315 -0.21749867 0.20947257 -0.39891165 -0.19376631 -0.0065157395 0.33247548 -0.2225341
-0.34114504 0.2243739 0.16196741 -0.006159266 0.4286316 0.014536562 0.07452876 0.028205443
0.14811538 0.03755725 0.14523129 0.3128084 0.14243877 -0.4077016 -0.40227324 -0.0964844
0.1991281 0.005023403 0.0031343205 -0.46260566 -0.026684914 -0.22237323 -0.296917 -0.28528434
-0.08855631 0.13425307 -0.56342405 -0.15949601 -0.50049525 -0.42131436 -0.06423168 0.059763044
-0.28779608 0.09337589 0.06565977 -0.05970278 0.03439683 0.07756738 -0.08127072 0.085966915
-0.15161441 0.11188774 0.112285845 -0.03388925 0.12953648 0.038097117 -0.3767025 0.09613995
-0.10272766 -0.08214327 0.038283546 0.07497567 0.077990204 0.08699593 0.013746223 0.050604437
0.112356655 -0.113124795 -0.08378179 -0.0045273737 -0.5679346 0.1717435 -0.16144674 0.09705583
-0.10821911 0.0376079 -0.12060484 -0.4197131 -0.10590182 0.080722615 0.079567604 -0.40489244
-0.25349537 -0.1592042 -0.06956767 -0.08799201 -0.0305004 -0.35168594 0.14207098 -0.36648008
-0.0055387164 0.17798032 -0.37192976 0.08108932 -0.086654216 0.10674725 -0.10264964 0.102378316
0.08841412 0.037944496 -0.19948229 -0.12202909 0.28255522 -0.25179887 -0.32329795 -0.09923556
00000000: 4097 793e 8fa5 813e 068e 0e3e e82d 413e
00000010: 732c 0d3e ce76 ce3d ae35 9abd da03 d33d
00000020: dae5 293e be69 3c3e 6b25 a2bd fef2 bebd
00000030: 3fa5 ca3d eb1e 6cbd 1bf9 273e 2216 803e
00000040: 42a7 a6bd 1ba5 253e e7ae 543d b715 193e
00000050: 039b a3bd 1893 5abd 4463 02bd 5def 923d
00000060: 7ce8 a2bd ae0f 233e 0d9f 8c3c 73d2 f03e
00000070: 9273 dc3d 3b2d 67be 94fa 36bb 902d 8cbd
00000080: 29be 893d b67c 453d 6ef2 ad3d f7e2 4c3e
00000090: ea0d 6a3b 9d57 533e aa07 b3bd 0e91 103e
000000a0: 24e3 0cbc 07ad 1e3f c355 bc3e ddd0 153e
000000b0: a7d6 b53e 7adb 873e de23 323e 43ed 943e
000000c0: e1cb 863e 6929 473e c3f8 423e f016 38bd
000000d0: c8f5 693f 57be b93e 7fe3 a0bd 90d2 85bd
000000e0: ac68 2e3e 9127 de3d 9501 b43e 3b7e 2fbe
000000f0: 47cd b43e 901a 8cbd 22e7 01be a969 2f3e
00000100: 7dbc 403e cb3a 663e 9ac8 99bd 7942 343e
00000110: c227 0f3f dcc4 9abd 0123 ddbd af61 9d3d
00000120: a3c9 263e 8753 293e 13b5 143d f9a3 3f3e
00000130: ce88 3abc 8364 043e 0266 753e 6fa3 8cbd
00000140: ff7f 063e ff02 3b3e 9c7d df3d 4ff2 de3d
00000150: dd69 5cbd ec9a 403e 8818 2e3e a782 1b3f
00000160: b585 013e 854b 0d3e 07cb b73e e529 c43e
00000170: 2fa8 c73d dc0f 843e 42ab 233e 5b86 91bd
00000180: 05f6 803e 1952 34be 3af7 dd3e b7f7 853e
00000190: 994a cd3d d56f a1bd 3b41 a5bd aafe 42bd
000001a0: 9235 88bd 6be7 de3e 42cd a23e 03ed 04be
000001b0: ce83 713e cd6d 213e cb27 f33d cbf4 923e
000001c0: 1df6 2a3e a4db d53c bed0 8b3e 08d3 99bd
000001d0: 208b 0ebe 6df8 f83d f720 153e e7ba 6d3d
000001e0: 0e81 193e 9b20 173e 650d 68bd c637 8a3e
000001f0: dd28 c53e 4d74 e63d 0d0f 773d bbdd 223e
00000200: 5c86 e8be 1859 df3d c065 d83d 501b 5abd
00000210: 4cef 0bbd 9ed9 7f3d 3fa5 903d b900 7cbe
00000220: 66d8 b03c 8735 eebe e2b4 883d 798e 883d
00000230: d5e1 d0be 95bd d93d f01f dc3d 9403 87bd
00000240: 84d9 58be 2cba 023d 8c9d 573e 568a 4037
00000250: bc8a 923d 1f09 d8be 6407 0bbf 6e72 a1bd
00000260: dfbf b63d f9b7 5ebe fa7f 563e 263e ccbe
00000270: ad6a 46be fc81 d5bb 3a3a aa3e fbdf 63be
00000280: 90aa aebe 46c2 653e c9da 253e abd3 c9bb
00000290: 9a75 db3e c32a 6e3c 89a2 983d 1a0f e73c
000002a0: 8fab 173e a2d5 193d 83b7 143e 6c28 a03e
000002b0: 78db 113e 44be d0be c2f6 cdbe 9d99 c5bd
000002c0: 3de8 4b3e 5c9b a43b 2c69 4d3b a6da ecbe
000002d0: 529a dabc cfb5 63be 8105 98be ca10 92be
000002e0: 035d b5bd a379 093e 8f3c 10bf ec52 23be
000002f0: 7520 00bf 84b6 d7be e68b 83bd 18ca 743d
00000300: 025a 93be dc3b bf3d a178 863d e78a 74bd
00000310: b1e3 0c3d a6db 9e3d 4371 a6bd 6c0f b03d
00000320: cf40 1bbe 6625 e53d 1ff6 e53d 74cf 0abd
00000330: 36a5 043e b90b 1c3d 26df c0be 06e5 c43d
00000340: e162 d2bd bb3a a8bd 35cf 1c3d d88c 993d
00000350: 54b9 9f3d ec2a b23d d737 613c 9946 4f3d
00000360: 3f1b e63d f9ad e7bd ca95 abbd 5d5a 94bb
00000370: 2964 11bf 87dd 2f3e 4b52 25be 35c5 c63d
00000380: fba1 ddbd be0a 1a3d acff f6bd a3e4 d6be
00000390: 0ee3 d8bd e651 a53d 57f4 a23d 104e cfbe
000003a0: 25ca 81be 6d06 23be 7f79 8ebd 2835 b4bd
000003b0: fadb f9bc 2e10 b4be 0e7b 113e 47a3 bbbe
000003c0: 1f7e b5bb 7940 363e 946d bebe 2812 a63d
000003d0: c477 b1bd 4d9e da3d f939 d2bd b9ab d13d
000003e0: 7612 b53d b06b 1b3d 1645 4cbe 63ea f9bd
000003f0: 14ab 903e c8eb 80be 4f87 a5be 033c cbbd

fc3.bias f4 [2]
-0.018045403 0.025980907
00000000: f4d3 93bc e9d5 d43c

exp_avg f4 [256, 24]
6.691496e-05 2.06313e-06 2.3297982e-08 2.0805968e-05 5.4979188e-05 -1.2658278e-05 2.3297982e-08 2.0805968e-05
6.991424e-05 4.6845082e-07 3.579752e-05 -3.8126364e-05 5.777026e-05 -8.511947e-06 3.579752e-05 -3.8126364e-05
6.364819e-05 -1.0239513e-06 -8.709746e-05 -8.647124e-06 5.6771565e-05 -8.589595e-06 -8.709746e-05 -8.647124e-06
1.4175363e-06 5.574866e-06 -7.318951e-05 2.268204e-06 -8.294899e-06 -3.1399013e-05 -7.318951e-05 2.268204e-06
-2.6441194e-06 5.958172e-06 -0.00010720095 4.8160555e-06 -1.27139865e-05 -2.345629e-05 -0.00010720095 4.8160555e-06
-2.38437e-06 6.202488e-06 -7.701874e-05 4.7170406e-06 -1.659091e-05 -1.5368914e-05 -7.701874e-05 4.7170406e-06
2.2445274e-05 1.364287e-06 -7.201338e-05 -1.019234e-05 1.5175866e-05 -1.0275058e-05 -7.201338e-05 -1.019234e-05
2.3688008e-05 7.206587e-07 -4.0287843e-05 -4.9694268e-06 2.0160784e-05 -1.0763732e-05 -4.0287843e-05 -4.9694268e-06
2.5099971e-05 6.300886e-07 -4.243484e-05 -6.623435e-07 2.4550545e-05 -1.1423009e-05 -4.243484e-05 -6.623435e-07
3.444081e-06 9.995434e-07 -1.8423192e-05 5.0961885e-06 -5.093481e-06 1.1922709e-06 -1.8423192e-05 5.0961885e-06
1.6548408e-06 8.879487e-07 -1.5087182e-05 -4.5909987e-06 -3.460928e-06 1.8943571e-07 -1.5087182e-05 -4.5909987e-06
-9.288427e-07 7.4341426e-07 -3.5689605e-05 -1.7255035e-06 -3.0023652e-06 -1.6478197e-06 -3.5689605e-05 -1.7255035e-06
5.1910347e-06 -1.1202344e-06 4.3091823e-05 -5.8757355e-06 -1.7347002e-06 4.373288e-06 4.3091823e-05 -5.8757355e-06
8.364419e-06 -1.8767395e-06 4.82471e-05 -7.9307765e-06 -6.2922106e-07 1.6883861e-06 4.82471e-05 -7.9307765e-06
7.846762e-06 -2.537482e-06 9.624481e-06 -6.7593605e-06 1.9905433e-07 -1.2913797e-06 9.624481e-06 -6.7593605e-06
-2.6122987e-06 -3.9522328e-07 5.4258644e-06 7.443636e-06 -4.829505e-06 -3.1695456e-07 5.4258644e-06 7.443636e-06
-3.2736705e-06 -2.7758883e-08 -5.190918e-06 7.733145e-07 -5.0535427e-06 -3.6459045e-07 -5.190918e-06 7.733145e-07
-5.308193e-06 3.6472008e-09 -1.17851905e-05 2.3384332e-06 -4.7638327e-06 -1.6976357e-07 -1.17851905e-05 2.3384332e-06
-1.4908315e-05 -1.2306579e-06 6.108671e-07 2.166992e-05 -1.5245518e-05 2.592742e-06 6.108671e-07 2.166992e-05
-1.6188098e-05 -9.956607e-07 -1.42736035e-05 -1.3172209e-05 -1.997482e-05 1.1515788e-06 -1.42736035e-05 -1.3172209e-05
-2.2641538e-05 -1.9868423e-06 -6.701895e-05 -6.2962135e-06 -2.5268586e-05 -1.0148685e-06 -6.701895e-05 -6.2962135e-06
5.7698126e-06 -7.710603e-06 2.7189424e-05 -1.005662e-05 -2.3812907e-05 2.5448137e-05 2.7189424e-05 -1.005662e-05
9.930144e-06 -9.023509e-06 3.5917237e-05 -1.2798514e-05 -6.3763296e-06 1.0376534e-05 3.5917237e-05 -1.2798514e-05
7.247684e-06 -9.862404e-06 -1.9349443e-05 -8.293461e-06 1.0684407e-05 -4.0196496e-06 -1.9349443e-05 -8.293461e-06
2.4772666e-05 -3.5321407e-06 -0.00028227054 2.2291435e-05 -2.0432723e-05 -4.2279968e-05 -0.00028227054 2.2291435e-05
1.6616325e-05 -1.7650674e-08 -0.00027506595 4.4540364e-05 -1.9681216e-05 -3.9905826e-05 -0.00027506595 4.4540364e-05
1.64087e-05 5.0718745e-06 -0.00021979438 4.9162907e-05 -1.8706827e-05 -3.6153317e-05 -0.00021979438 4.9162907e-05
-1.9461078e-05 9.3166796e-07 -2.6754844e-05 2.6172534e-05 -2.0433603e-05 -2.7487658e-06 -2.6754844e-05 2.6172534e-05
-2.4197647e-05 2.2758566e-06 -7.59351e-05 4.0780415e-06 -2.1379912e-05 -1.9131035e-06 -7.59351e-05 4.0780415e-06
-2.646261e-05 2.635475e-06 -5.3072243e-05 4.2573793e-06 -2.2214492e-05 -1.392649e-06 -5.3072243e-05 4.2573793e-06
-9.385628e-06 -7.070701e-07 -1.7513054e-05 1.1406537e-05 -2.2719965e-05 -1.6549822e-06 -1.7513054e-05 1.1406537e-05
-1.125522e-05 -8.816446e-07 -3.7425776e-05 -1.11035815e-05 -2.2329536e-05 -3.7427849e-06 -3.7425776e-05 -1.11035815e-05
00000000: b254 8c38 4e74 0a36 ce20 c832 7a88 ae37
00000010: 7499 6638 e45e 54b7 ce20 c832 7a88 ae37
00000020: ec9e 9238 647f fb34 4b25 1638 dfe9 1fb8
00000030: 584e 7238 89ce 0eb7 4b25 1638 dfe9 1fb8
00000040: dd7a 8538 b36e 89b5 18a8 b6b8 1d13 11b7
00000050: 011e 6e38 081c 10b7 18a8 b6b8 1d13 11b7
00000060: 2d42 be35 bc0f bb36 527d 99b8 7337 1836
00000070: 522a 0bb7 6fb2 03b8 527d 99b8 7337 1836
00000080: a071 31b6 4fec c736 12d1 e0b8 9a99 a136
00000090: 284e 55b7 00c4 c4b7 12d1 e0b8 9a99 a136
000000a0: 2a03 20b6 f71e d036 1f85 a1b8 1247 9e36
000000b0: b52c 8bb7 7eec 80b7 1f85 a1b8 1247 9e36
000000c0: dc48 bc37 8b1c b735 e405 97b8 c4ff 2ab7
000000d0: d99b 7e37 0a63 2cb7 e405 97b8 c4ff 2ab7
000000e0: 9cb5 c637 4a73 4135 befa 28b8 0dbf a6b6
000000f0: f41e a937 e095 34b7 befa 28b8 0dbf a6b6
00000100: c78d d237 5c23 2935 10fc 31b8 e6cb 31b5
00000110: e5f1 cd37 73a5 3fb7 10fc 31b8 e6cb 31b5
00000120: dc20 6736 0d28 8635 818b 9ab7 edff aa36
00000130: abe8 aab6 1e06 a035 818b 9ab7 edff aa36
00000140: e61b de35 5f5b 6e35 f41e 7db7 610c 9ab6
00000150: 4a42 68b6 b167 4b34 f41e 7db7 610c 9ab6
00000160: 9655 79b5 0a8f 4735 6cb1 15b8 d997 e7b5
00000170: 3e7c 49b6 a72a ddb5 6cb1 15b8 d997 e7b5
00000180: a62e ae36 f65a 96b5 7ebd 3438 2f28 c5b6
00000190: d8d3 e8b5 42be 9236 7ebd 3438 2f28 c5b6
000001a0: e854 0c37 47e4 fbb5 ee5c 4a38 6d0e 05b7
000001b0: bee7 28b5 819c e235 ee5c 4a38 6d0e 05b7
000001c0: 96a5 0337 9c49 2ab6 d578 2137 77ce e2b6
000001d0: a3bb 5534 7853 adb5 d578 2137 77ce e2b6
000001e0: f34e 2fb6 132f d4b4 d20f b636 59c4 f936
000001f0: 220d a2b6 e729 aab4 d20f b636 59c4 f936
00000200: 3bb1 5bb6 6e72 eeb2 a52d aeb6 c595 4f35
00000210: 9a91 a9b6 eebc c3b4 a52d aeb6 c595 4f35
00000220: 081d b2b6 3ca2 7a31 02b9 45b7 faed 1c36
00000230: 03d9 9fb6 4148 36b4 02b9 45b7 faed 1c36
00000240: ba1e 7ab7 152d a5b5 78fa 2335 cdc7 b537
00000250: 00c7 7fb7 f8fe 2d36 78fa 2335 cdc7 b537
00000260: adcb 87b7 a4a2 85b5 a978 6fb7 35fe 5cb7
00000270: 998f a7b7 f28f 9a35 a978 6fb7 35fe 5cb7
00000280: 55ee bdb7 b155 05b6 868c 8cb8 1044 d3b6
00000290: e0f7 d3b7 9e36 88b5 868c 8cb8 1044 d3b6
000002a0: 509a c136 ca5c 01b7 d814 e437 dbb8 28b7
000002b0: d4c1 c7b7 7579 d537 d814 e437 dbb8 28b7
000002c0: a599 2637 ad63 17b7 d7a5 1638 33b9 56b7
000002d0: 41f4 d5b6 e016 2e37 d7a5 1638 33b9 56b7
000002e0: 2231 f336 b476 25b7 9d50 a2b7 2524 0bb7
000002f0: 2e41 3337 87e0 86b6 9d50 a2b7 2524 0bb7
00000300: e5ce cf37 b709 6db6 b6fd 93b9 7efe ba37
00000310: f066 abb7 c555 31b8 b6fd 93b9 7efe ba37
00000320: 4963 8b37 3e9e 97b2 ba36 90b9 dad0 3a38
00000330: 1719 a5b7 8e60 27b8 ba36 90b9 dad0 3a38
00000340: 6aa5 8937 122f aa36 9b78 66b9 4534 4e38
00000350: 9bec 9cb7 54a3 17b8 9b78 66b9 4534 4e38
00000360: 5940 a3b7 bc17 7a35 976f e0b7 178d db37
00000370: d468 abb7 7077 38b6 976f e0b7 178d db37
00000380: 0dfc cab7 ebba 1836 593f 9fb8 1cd6 8836
00000390: 0359 b3b7 de62 00b6 593f 9fb8 1cd6 8836
000003a0: 06fc ddb7 1edd 3036 e399 5eb8 9cda 8e36
000003b0: 4259 bab7 0eeb bab5 e399 5eb8 9cda 8e36
000003c0: f776 1db7 7dcd 3db5 ffe8 92b7 b45e 3f37
000003d0: c196 beb7 c120 deb5 ffe8 92b7 b45e 3f37
000003e0: cdd4 3cb7 28aa 6cb5 9ff9 1cb8 8549 3ab7
000003f0: 5050 bbb7 8e2c 7bb6 9ff9 1cb8 8549 3ab7
