checkpoint/agent1_checkpoint_critic.pth (torch_old, 971618 bytes, 27 tensors)

fc1.weight f4 [256, 48]
00000000: 257f b7bd 8bba 893e 2b71 49be 2887 3dbe
00000010: 9f93 4bbf 9315 383e 8e72 a5bd 38bb 113d
00000020: c95e a63c 258a dd3e 4a52 9b3d f334 203d
00000030: 1598 f8be 2811 9abc 619a 753d ed28 953d
00000040: d531 eb3e 6acc ef3e ca4d 993d d147 65bd
00000050: 3fb6 ac3d 37ff 713e 7d6f 123e 604a eb3d
00000060: 4fad 413e d793 e83d 7026 783d 0d6b 2fbf
00000070: 1115 263f 8410 d63d bc67 01be 846d dabe
00000080: f20f 1d3e 428b 84bd bcb1 d63c e63b 02bf
00000090: dbda 863e e2ad 4d3e 790c 443e 1a70 9bbe
000000a0: 8308 6e3e 077e 13be 91b6 f23c 4c62 04bf
000000b0: 1978 0bbe 7f44 2c3d 862c c53d 2d70 98be
000000c0: 1ac9 d3be 5d24 ffbe e797 d0ba 5ac8 5bbd
000000d0: 1690 133e 8f42 ebbe 483c 3c3b 1a74 90be
000000e0: 630f 5abe ed2f 3fbf 220f 3cbd 4053 83be
000000f0: ccd6 f23d 75a7 0fbf f280 00bd 4aa5 0dbe
00000100: f121 0ebe c33d 40bf afeb b73d 6360 383d
00000110: e6df 05bc 8f6f 18bc c6a9 dcbc 6846 29bd
00000120: f2cf d63b 81ba 7bbf 8bca a93d 49e7 51be
00000130: d4f4 6dbd 00c1 1abf c502 f1bc c063 d8be
00000140: abff 1abe d075 50bf c2ae 293e 9477 04bf
00000150: e608 d7bc 01bd 24bf ade9 033d 0e0b e1be
00000160: 4981 593d 870d a7bf 6311 843c f35e f6be
00000170: ebdd 4d3e 315c c0bd 81f5 37be bcd7 25bf
00000180: 461e 5fbd 63f0 433f 1683 dcbd 5d09 a9be
00000190: 0db6 413e 19c3 8cbe b89d 6dbd 7015 91be
000001a0: 4a31 90be e454 ff3e 07d2 c6bd 889d c5be
000001b0: 3d92 0ebd 6255 90be 9e8c 42bd a284 41be
000001c0: 1140 4ebe cf8b 973e 0746 e83b 4a50 57bf
000001d0: a139 b9be 0e5b 6d3d ceee 90bd 1664 2fbf
000001e0: b05b ab3e 7a84 1ebf ad38 9fbd 891b fdbc
000001f0: 0372 44be 445c eabe 34f8 31bd 8a92 2dbe
00000200: 4c4b 0e3e ff61 57bf 8eed aebd 11ed bfbc
00000210: 0194 89bd e238 9fbe 2a1e 473d cc8e 8dbd
00000220: c7c0 253e 42f1 46bf e374 48be f255 b6be
00000230: e6d5 ec3e 2a88 123e 7d16 b4bd 8eab eabe
00000240: bd57 19bf 402e e53e f167 a53d 2110 8fbd
00000250: 5076 3dbf 7aa8 6dbe 9741 1cbe 6b51 43be
00000260: f290 e8be d790 193f fd86 ffbc d149 00bf
00000270: 71c4 c1be 7b12 93be 8a18 0fbe 9944 d7be
00000280: 418e b5be 08e3 a03e 34a4 36be f569 46bf
00000290: 65de 90bd 0a15 bbbe 7a4f eabd 2d97 18bf
000002a0: 0d1e fd3d cc28 dcbe 0d9d ed3d ecc7 07be
000002b0: 7676 4c3f b8bd 8dbd 558e 10be 692b 903c
000002c0: 36f0 ea3d a102 10bf 278b 523c c420 0abe
000002d0: dacb f73e 766f 51be cf20 043a 558b b43c
000002e0: 9c0f 243e d929 dfbe 067d 0dbe 193f 853d
000002f0: 6cfc 90bd 8afe 93be 6c7b 363c 3bd5 463e
00000300: 6e5e b239 311c 113f 350e 46be f826 cebc
00000310: b1e7 39bf cd97 f5bd 4df1 35be 377a 513d
00000320: cf78 1a3e 61f9 4d3f 21e8 95bd fec6 a6be
00000330: c14e 03bf 268a 48be 02da 82bc 93d5 d6bd
00000340: 1a46 143e d079 1f3f 3103 c1bd 80b3 ab3c
00000350: f548 3f3d 1d39 38bf 93e3 c0bd 7d13 8b3d
00000360: d274 76bd f8c7 dcbe c957 853e def8 a5bd
00000370: 77b8 213f f2c2 d8bc 99ba 483e c096 243d
00000380: 227a cf3c 986b 893b 83cc 533d c937 0c3e
00000390: d7e8 c23e 0cf0 a2be 79d7 1f3e 5a0a 983e
000003a0: 5247 253e 66f9 463b 819d 54be 0b66 26bf
000003b0: 130d 143d 1ae8 49bf 52d6 b6be 5d2b 04bf
000003c0: 290b a63e 07a5 853e 3008 673c 39b9 953d
000003d0: aafd b63e d9d2 03bf 53e0 283e 7f61 3ebd
000003e0: e065 293b 98e0 bfbe 5dde 9bbe 3107 39be
000003f0: d992 cb3e 1a4d f63d 63d2 a0be e69c 81be
-0.08959798 0.26900133 -0.19672076 -0.1850859 -0.79522127 0.1797698 -0.0807849 0.035578936
0.020308869 0.43269458 0.07584055 0.039112996 -0.4855353 -0.018807009 0.05996168 0.072831966
0.45936456 0.46835643 0.0748554 -0.055976693 0.08433198 0.23632513 0.14300342 0.11488795
0.18913768 0.11356323 0.06058353 -0.6852272 0.64875895 0.10452369 -0.12637228 -0.4266168
0.15338114 -0.06471874 0.026207797 -0.5087265 0.26338848 0.20085862 0.19145383 -0.30358964
0.23245434 -0.14403544 0.02962807 -0.5171249 -0.13620032 0.04205751 0.09627633 -0.29773083
-0.41364366 -0.4983243 -0.0015914411 -0.053657867 0.14410433 -0.45949218 0.0028722454 -0.28213578
-0.21294932 -0.74682504 -0.04591287 -0.25649452 0.118573755 -0.56114894 -0.03137297 -0.13832584
-0.13880135 -0.7509424 0.089805 0.045013797 -0.008171057 -0.009303941 -0.026936423 -0.04132691
0.0065555507 -0.9833146 0.08290585 -0.20498385 -0.058094814 -0.60450745 -0.029420266 -0.42263603
-0.15136592 -0.8142977 0.16570571 -0.5174496 -0.02624936 -0.643509 0.032205272 -0.43953747
0.05310181 -1.3051003 0.016121572 -0.48119316 0.20104186 -0.09392584 -0.17964746 -0.6478231
-0.05447223 0.76538676 -0.1076719 -0.33014956 0.18917103 -0.27492598 -0.05801174 -0.28336668
-0.28162605 0.49869454 -0.09708028 -0.3859675 -0.034807432 -0.28190142 -0.047497384 -0.18898252
-0.20141627 0.29598853 0.007088426 -0.84106886 -0.3617678 0.057948165 -0.070767984 -0.68512094
0.3346839 -0.61920893 -0.07774482 -0.030896919 -0.19184117 -0.45773518 -0.043449596 -0.16950431
0.13895911 -0.84133905 -0.08541404 -0.023428472 -0.06717683 -0.31098086 0.04861275 -0.06912002
0.1618682 -0.7771188 -0.19575839 -0.35612446 0.46256942 0.14309755 -0.08793352 -0.4583401
-0.59899503 0.44761848 0.08076466 -0.06985498 -0.74008656 -0.232088 -0.15259396 -0.19074027
-0.45423084 0.59986633 -0.031192297 -0.50112635 -0.37845185 -0.28725037 -0.13974205 -0.42044523
-0.35460094 0.3142321 -0.17836076 -0.7750543 -0.070736684 -0.3653949 -0.1144094 -0.59605676
0.12359247 -0.42999876 0.11602221 -0.13259858 0.7986826 -0.069209516 -0.14116795 0.017598825
0.11471598 -0.5625401 0.012850559 -0.13489062 0.48397714 -0.20452675 0.0005040289 0.022039095
0.1602158 -0.43586615 -0.13817224 0.065061755 -0.07079396 -0.28905135 0.0111378245 0.19417278
0.0003402116 0.5668364 -0.19341357 -0.025165066 -0.7261916 -0.11991844 -0.1776783 0.051141944
0.15085147 0.80458647 -0.07319666 -0.32573694 -0.51292044 -0.1958395 -0.015973095 -0.10489955
0.14479867 0.62295246 -0.09424437 0.020959616 0.046700437 -0.7196215 -0.09418406 0.067908265
-0.060170002 -0.43121314 0.26043537 -0.08104108 0.63172096 -0.026460145 0.19602431 0.04018283
0.025326792 0.0041937344 0.05170871 0.13693155 0.38068268 -0.31823766 0.1560954 0.29695398
0.16140488 0.0030361055 -0.20763208 -0.64999455 0.03614528 -0.78869784 -0.35710388 -0.5162867
0.3243039 0.26102468 0.014101073 0.07310719 0.35740405 -0.51493603 0.16491823 -0.0464797
0.0025848076 -0.3747604 -0.30443087 -0.1806915 0.39760473 0.12026425 -0.31410512 -0.25315017

fc1.bias f4 [256]
00000000: fa82 5fbe f82a b33d 1ef5 563d 9095 eebd
00000010: fc79 dfbd dd6b 203d fcd1 6cbe 5206 a03e
00000020: 4159 dfbe 6cdc c1be 34f1 a0be 6009 b3bb
00000030: 496f a73d ad48 f03d 3b2c abbe 2178 06bf
00000040: 3866 68be d073 8bbe 181a 1cbe 1c99 86bd
00000050: b4d2 8abe 3e13 fdbd 3a48 e13d 1d9f 89be
00000060: a036 cdbe 6df6 7d3c db9d fc3d 9d81 99be
00000070: e764 91be 28ef 35be 069b ddbd c1e8 583e
00000080: 745f e1be 6f3d 8abe 5cc2 a1be 3fa7 0dbe
00000090: 27f9 c2be 651f 5fbe 08cc 94bd 6e61 1ebe
000000a0: a32e 193e 9f04 88be 710c 8ebe 2595 d3be
000000b0: 4004 e3be 7c39 94be d9f9 9bbe 045a 9c3d
000000c0: 007f eb3e 7cb8 24bf 554a bbbe c123 80bc
000000d0: d1f0 0c3e 0645 1fbd 1ce6 97bc 067f 2abe
000000e0: 6fd5 8cbd e617 cdbd f5a8 aabe b76f 10be
000000f0: eaaa a1be 25c0 7b3d 99d3 09be 0fa8 6dbe
00000100: 695a abbd 05f5 86be 8fd7 0fbf eecb 8f3e
00000110: c2dc 72be 595d 213e 738c c13b 10d0 31bf
00000120: eb37 9b3d da76 933e 22b6 4dbe cb62 7c3d
00000130: e05e 05bf b36b f5be c2f7 5dbe 5ad9 c3be
00000140: 2ee3 51be 3b43 003e 8df4 983e e553 233e
00000150: 1cbf 5dbe 7563 a4be 09fd e7be b32c 2e3d
00000160: bdda 59be 6613 073e 970f d73d ae7c f2bd
00000170: ec23 973e a8b8 a23e 32d9 e4bd 3a3d 3dbe
00000180: b284 09bf dba3 acbe dfeb 293e 193e 6a3e
00000190: 2d64 87be a247 a0be 61b4 85bd cb73 5bbe
000001a0: d146 4a3e 1887 65be 1182 993e f8fa 10be
000001b0: a261 debd 2fa2 69bd b64a 02bf d206 823e
000001c0: 4e16 1dbf 3251 85be a3e6 6e3d 2252 1bbe
000001d0: 3466 adbe f3df 93be b583 b0be 9799 84be
000001e0: ef24 7dbe 1cb1 0b3d d4f1 1cbf 2280 103e
000001f0: 08a9 04bf 50ba 10be 7e18 e4be 6976 d8be
00000200: ef06 1cbe 9ef3 b3be 02bb 15be d226 d1be
00000210: 7d83 6dbe 9ec9 89be 86b8 43bd 4fa4 1a3e
00000220: 77b0 d1be 9f64 a3bb 537c 01bf 9a38 38be
00000230: 9a1c 0f3e f06a 05bf 2012 62be 9fc9 fdbd
00000240: 1e86 573d ab5c 103c b939 d0be 72c4 ac3e
00000250: fcb5 79bd cdd4 93be 9f06 843e 6ba5 423e
00000260: f567 06be ff88 37be 084e faba bf2a b7be
00000270: 6e7f 46be e022 bfbe 388d fa3d aa6b ad3d
00000280: ec7e 5d3e f1fc 423d 7020 2dbe e036 06bf
00000290: 93bc 31be 95d3 173d 3cc4 fdbe 7e95 2d3e
000002a0: 940e d93e d2c0 a6be e56b b63d 81a5 133d
000002b0: 8720 f1bd 4db9 02bf e705 11bf fc87 adbe
000002c0: 0887 1e3e 8794 84bd 0bd0 743e 880e adbd
000002d0: a27e 00be 8c02 823c 66e1 05be 3e0a 8cbe
000002e0: ce9c 54be c065 6f3d 27e4 6e3e 5ede 8bbe
000002f0: 730e 67be 0295 02bb 02a9 243e 8fe6 f5bd
00000300: 5ad4 b83e 8b77 31bf 805e 96be ad28 e4be
00000310: d857 12bf 078f f1bd 7469 3cbe f480 8abe
00000320: 07bb a4bd 438e 4cbe d30c df3d e89c 2cbf
00000330: 7741 a7be 8e42 aebd 47df 7c3d 40cf d5be
00000340: 6bbc c23d 17aa 4d3d 272b a5bd a818 25be
00000350: 75be 223e 4aca 39be 0eaa 0f3c dced 433e
00000360: 945a 33bf 2a84 003e 9369 9e3e 20dd f8bd
00000370: b729 febc 06ac fdbe ad6d b3be 0ce1 32be
00000380: 1a4e 83be 51d5 04bf 95cc 0bbe ed0e 54be
00000390: d431 e83e 8e8e 31be 86bd 9fbe a99e 3fbe
000003a0: 0206 9ebe 9d5f 7ebf 0e64 03bf 76a2 453a
000003b0: eb6e 00bf 9344 1dbf 12c3 8e3d bf5a 2ebd
000003c0: 7651 1bbf 5e50 45be ca98 893d 378a e5be
000003d0: 427a b8be 1d6d 27bc 8959 8bbd bb14 febc
000003e0: 1108 babd 49a6 993e 740f aabe 6b82 9cbe
000003f0: 72ac 34bf f5cc 77be 6602 613c 82da c0be
-0.21827307 0.0874843 0.052479856 -0.116496205 -0.109119385 0.039165366 -0.23126978 0.31254822
-0.43622783 -0.3786348 -0.31434023 -0.005463764 0.08175523 0.11732612 -0.33432183 -0.5252705
-0.22695243 -0.27236795 -0.15244329 -0.06572172 -0.2711388 -0.12357186 0.11000104 -0.26879206
-0.40080738 0.015500647 0.12334796 -0.299817 -0.28397295 -0.17767012 -0.10820584 0.21182539
-0.44018137 -0.26999995 -0.31593597 -0.1383333 -0.38080713 -0.2178932 -0.072654784 -0.15466854
0.14959197 -0.26566026 -0.27743867 -0.41324726 -0.4433918 -0.28950107 -0.30464056 0.076343566
0.4599533 -0.64344 -0.36580148 -0.015642049 0.13763739 -0.038884185 -0.018542342 -0.16650018
-0.06876647 -0.10014324 -0.3333203 -0.14105116 -0.3157571 0.06146254 -0.13459624 -0.2320864
-0.08366854 -0.2635881 -0.5618829 0.28085274 -0.23717025 0.15758266 0.0059066354 -0.69458103
0.07579025 0.28801614 -0.2008901 0.061617654 -0.5209789 -0.4793373 -0.21676543 -0.38251764
-0.20496818 0.12525646 0.29874077 0.15949972 -0.21654934 -0.3210713 -0.45310238 0.042523097
-0.21274848 0.13190994 0.105010204 -0.11840187 0.29519594 0.31781507 -0.11174239 -0.18480387
-0.537181 -0.33718762 0.16593884 0.22875251 -0.26443616 -0.31304651 -0.06528545 -0.2143089
0.19753577 -0.22414815 0.29982045 -0.14158237 -0.10858466 -0.057039436 -0.5089525 0.25395828
-0.6136216 -0.2603851 0.05832542 -0.1516805 -0.33867037 -0.28881797 -0.34475484 -0.2589843
-0.2472112 0.03410445 -0.613065 0.14111379 -0.5182042 -0.14133573 -0.44549936 -0.4227784
-0.1523702 -0.35146803 -0.14622119 -0.4084993 -0.2319469 -0.26911634 -0.047783397 0.15101741
-0.40954944 -0.00498636 -0.5058033 -0.17990342 0.13975754 -0.521163 -0.22077227 -0.12391972
0.05261814 0.008811156 -0.4066904 0.33743626 -0.06096457 -0.28873292 0.25786301 0.19008414
-0.13125594 -0.17923354 -0.0019096741 -0.357748 -0.19384548 -0.37331295 0.122339666 0.08467801
0.21630448 0.047604505 -0.16906905 -0.5242748 -0.17357092 0.037067015 -0.49563777 0.16951558
0.42393935 -0.32568985 0.08907298 0.03604651 -0.11773782 -0.51063997 -0.5664963 -0.3389281
0.15481198 -0.06473642 0.23907487 -0.08450037 -0.12548307 0.015870355 -0.13074264 -0.27351564
-0.20762941 0.058446646 0.2332922 -0.2731809 -0.22564106 -0.0019925241 0.16080096 -0.12006866
0.3609951 -0.69323033 -0.29368973 -0.44562283 -0.5716529 -0.117948584 -0.18399602 -0.27051508
-0.08043485 -0.19976144 0.10891118 -0.6742692 -0.32667133 -0.08508788 0.06173637 -0.41759682
0.09508594 0.05021104 -0.08064871 -0.16122687 0.15892966 -0.18143573 0.008768572 0.19133705
-0.70060086 0.12550417 0.30939922 -0.12151551 -0.03102575 -0.49545306 -0.35044613 -0.17468661
-0.25645524 -0.51887995 -0.1365226 -0.20708819 0.45350516 -0.17339537 -0.31199282 -0.18712868
-0.3086396 -0.99364644 -0.51324546 0.0007539162 -0.5016925 -0.6143276 0.069708005 -0.04256701
-0.60671175 -0.19268939 0.06718595 -0.44832012 -0.36030775 -0.010218886 -0.06804187 -0.031015744
-0.0908357 0.30009678 -0.33214915 -0.3056825 -0.7057563 -0.24199279 0.013733482 -0.37666708

bn1.weight f4 [256]
00000000: fc6c c53e 33dd ee3e 7bf9 483f a5ed 553f
00000010: 66b0 013f 0b78 f73e 373e 0c3f 5aa8 433f
00000020: d282 383f 9e99 643f 42cf 013f 4559 893f
00000030: 3927 463f ce39 283f 2f65 243f 656a ac3f
00000040: 9d42 0a3f 47a0 073f 199c 9f3f 5609 da3f
00000050: 8b32 993f 40cf 3c3f b30e 4e3f f232 443f
00000060: 21d8 323f e3bb ff3f b225 483f 791d 8e3f
00000070: 8502 6f3f 5fe8 e33e d288 453f eb08 b23f
00000080: e1b4 703f 9409 173f 8174 9b3f 167e 6c3f
00000090: af0c b53f 5d0d 093f ab3d 603f b4ed 9a3f
000000a0: 458a f83e c42a 6b3f 85ae 653f 376a 813f
000000b0: 6bba 9d3f 6eb6 173f 62ab 113f 861b 2c3f
000000c0: 0c30 813f 9b46 5b3f a93a 1f3f 971e 5a3f
000000d0: e46a 813f 29a2 513f 09ac 253f 94d8 e33e
000000e0: 41f5 063f 1190 3c3f cf87 203f cb73 443f
000000f0: c2d2 323f 14cc 0c3f d9f7 583f ec70 833f
00000100: 2ae4 3c3f 3215 153f 06f3 323f 776f 633f
00000110: 738d 493f 843a 413f 4707 183f 6db2 8c3f
00000120: 65ee d93e 79f9 483f 4c35 c53e b7d2 5b3f
00000130: 558a 463f bfae 473f 7cc1 e53e 04a7 5c3f
00000140: 8e49 523f 524a af3f fffd 0040 6cd4 ba3f
00000150: ad05 073f f1c5 0e3f 2709 2e3f df89 223e
00000160: a11b bf3f 45ab 483f b3b1 883f 396b 963f
00000170: 0467 c83f 6866 2d3f ad8a 223f 89f3 813f
00000180: d6a9 a03f 1a68 213f 7c2e 3a3f 7cad 623f
00000190: 0a00 3e3f 5e2b 303f b82c 2d3f 8d88 443f
000001a0: f188 8c3f eda6 523f cff8 fb3f 0ec8 fe3e
000001b0: 7517 0e3f 59c2 183f da86 bd3e f876 863f
000001c0: 8ff4 943f 07db 2d3f 0238 c73e 0210 be3f
000001d0: c268 a83f 071d 743f 07ce 0640 83bf 123f
000001e0: a6d6 023f 6c0a 743f 16c0 8e3f 0152 dd3f
000001f0: 2509 f33f 19a2 413f 18af 923f 9060 8e3f
00000200: 1ebc 533f e484 a83f b70c e23e 1a7d 193f
00000210: b58b 9d3f 5f64 453f fbf7 8e3e f196 143f
00000220: 0408 9e3e 6e30 d73e f071 823f d72a 133f
00000230: 5080 363f 9d95 923f 7789 613e 03a8 5b3f
00000240: 0a13 3b3f 2892 2a3f 7b2e 693f e055 873f
00000250: f722 263f 0ba4 a73e b963 4b3f c40f 703f
00000260: ac2b cc3e b406 3d3f 3f86 bb3e 47fe b43e
00000270: 7c74 6c3f cd31 773f 7b93 cf3f ab6e 563f
00000280: c42d 173f 962a 973f 0e2e 6c3f 348b 5c3f
00000290: b834 1b3f f9ee 553f c1b0 0440 28ef 613f
000002a0: a239 563f f1e6 743f 6801 d83e f859 0d3f
000002b0: 2099 723f cbd4 563f 2085 873f 0057 063f
000002c0: f693 2c3f 46d7 033f 7635 403e 4c97 a53f
000002d0: 0b71 283f ef0c 493f 5bec 303f 7f95 203f
000002e0: 64cb c23f 2292 cd3f c48b 813f 20f1 293f
000002f0: d46a 753f b1c9 5e3f 3739 4c3f 9b57 3c3f
00000300: e1f0 713f 0153 9b3f 7b2a 803e 94cc 6c3f
00000310: bba4 9f3f 80e8 853f 6f41 4c3f 2cb8 c63e
00000320: c34d f53e 4f41 b73f d2b7 923f b686 483f
00000330: 4f91 543f f69b 283f 7abf d03e 6a7f 293f
00000340: 9539 1b40 1ab5 643f 01d1 1e3f 8273 053f
00000350: 2394 533f 0b17 f63e 56d2 873f e29d 013f
00000360: d49c c93f 6310 5b3f e853 863f 630c 423f
00000370: 02ad a83f 398a 943f 338d 263f 0f88 e13e
00000380: 022d 7b3f a10b a83f 26ff 233f 5548 003f
00000390: 2fc4 793f cb34 183f 1ac8 973f e1bd e53e
000003a0: 495f 653f 5632 883f 730c 8b3f 436f 6e3f
000003b0: 5a59 a13f d39d 483f 62ff ee3e e6e8 1e3f
000003c0: 6803 9b3f 1ff9 263f 199a 533f 11e8 b03e
000003d0: a44b e83f 67cc 403f 3bbb 8b3f af67 143f
000003e0: 1c81 253f 30af 7b3f 5293 533f 222d 183f
000003f0: d42f 4f3f 733b 303e e720 e33e d75e 493f
0.3855971 0.46653137 0.78505677 0.8356574 0.5065979 0.48333773 0.5478243 0.7642876
0.72074616 0.892969 0.50706875 1.0730368 0.774036 0.657132 0.64216894 1.3469969
0.54007894 0.5297894 1.2469512 1.7034099 1.196855 0.7375374 0.8049118 0.76640236
0.69861037 1.9979213 0.7818252 1.1102744 0.9336322 0.44513223 0.77161896 1.3908972
0.94026 0.5899899 1.2144929 0.9237989 1.4144496 0.53536016 0.875941 1.2103791
0.4854299 0.9186213 0.8971942 1.0110539 1.2322515 0.5926274 0.56902134 0.672295
1.0092788 0.8565461 0.62198883 0.85202926 1.0110745 0.8188806 0.6471563 0.44501173
0.5271798 0.7365733 0.6270723 0.76739186 0.6985284 0.549989 0.84753186 1.0268836
0.7378565 0.58235466 0.69902074 0.88841957 0.7873146 0.7547991 0.59386104 1.0991951
0.42564693 0.78505665 0.38517225 0.858684 0.7755483 0.78001016 0.4487418 0.86192346
0.82143486 1.3694556 2.0155027 1.4596076 0.52743036 0.55770785 0.67982715 0.15872906
1.4930307 0.78386337 1.067923 1.1751472 1.5656438 0.67734385 0.6349285 1.0152446
1.255183 0.6304947 0.7272718 0.88545966 0.7421881 0.68816173 0.6764636 0.7677086
1.0979291 0.8228596 1.9685305 0.49762005 0.5550454 0.5967155 0.37016946 1.0505056
1.1637133 0.67912334 0.38909918 1.4848635 1.315697 0.9535679 2.106325 0.57323474
0.5110878 0.953284 1.115237 1.7290651 1.8987166 0.75637966 1.1459684 1.1123219
0.8270892 1.3165555 0.44150326 0.59956515 1.230826 0.7710628 0.2792357 0.5804282
0.3086549 0.42029136 1.0191021 0.57487243 0.7128954 1.1451908 0.22025095 0.8580324
0.73075926 0.66629267 0.9108655 1.0573082 0.648971 0.32742342 0.7944904 0.93774056
0.3987707 0.73838353 0.3662586 0.35350248 0.9236524 0.96560365 1.6216882 0.83762616
0.5905421 1.1809871 0.92257774 0.8614991 0.6062732 0.8356777 2.0732882 0.8825555
0.8368169 0.9566489 0.42188573 0.55215406 0.947649 0.83918446 1.0587502 0.524765
0.6741327 0.51500356 0.18770394 1.2936797 0.6579749 0.7853536 0.6911065 0.6272811
1.521832 1.6060221 1.0120778 0.6638355 0.9586613 0.87026507 0.797748 0.73571175
0.9450818 1.2134706 0.2503241 0.9249966 1.2472147 1.0461578 0.79787344 0.38812387
0.4791089 1.4316806 1.1462348 0.7833055 0.83034223 0.6586298 0.40771085 0.66210043
2.4253895 0.8933884 0.62037665 0.52129376 0.82647914 0.48064455 1.0611064 0.50631535
1.5750985 0.8557188 1.0494356 0.7580015 1.3177798 1.1604682 0.650592 0.44049117
0.9811555 1.3128549 0.640612 0.5011037 0.9756498 0.59455556 1.1857941 0.4487143
0.8959852 1.0640361 1.0863174 0.9313852 1.2605393 0.7836582 0.46679217 0.62074125
1.2110415 0.6522388 0.8265701 0.34552053 1.8148084 0.75311893 1.0916513 0.5797071
0.6465013 0.9831419 0.8264667 0.5944387 0.80932355 0.17210178 0.4436104 0.7866034

bn1.bias f4 [256]
00000000: d441 27bd 0855 36bc 11bc 493e 9f6c 4a3e
00000010: 4123 143e bb87 4c3e 8866 0e3d f05e b13d
00000020: 2cc0 203e 571d 75bd b227 df3d b542 fe3d
00000030: ec60 533e 8e38 ed3d fb33 a63e 1704 86be
00000040: ed8c 3e3e 1be2 383e 1dce d73e 2018 d83e
00000050: 23b3 773e d71d 393e 5022 a23e feed 573e
00000060: f842 f53d 7c1a 203e 4b00 803e 8393 5a3e
00000070: 52ef 263d e4b4 5b3d 54e3 8b3e 76fb 473e
00000080: 3016 21bd 917b e23d 95c2 663e 21c4 453e
00000090: 09e0 0fbd 91f3 583c 8f56 b43e d258 37be
000000a0: a7c7 683b da08 89bd 0108 803d 2a10 62bd
000000b0: ec23 8ebb f93b 8abe c86f 1f3e 3522 2abe
000000c0: 0744 02bd a4e2 15be 14e4 35be 713b 863e
000000d0: d459 2e3e cb1d 7a3e 275d 963e 6d95 103e
000000e0: 5266 5b3e 4b57 443e 7fea a43d 874b b03d
000000f0: d751 a63e 17f5 333e 7552 0f3d b010 8c3e
00000100: 65fe 513e 5fc7 1d3d 89a2 3b3e ec48 cc3e
00000110: b70a be3c caf1 7b3d 140f ef3d 665d 74be
00000120: 1de6 2c3e 7d35 093e 55e8 533e 64ac d13d
00000130: 1738 b4bc 2ff8 aeba 2c13 003e 6e7d b83d
00000140: 6be2 8d3e cbab 663d 2f05 f43d 227f a33e
00000150: e4d4 0f3e 6417 4b3e e592 4c3d eab7 e93c
00000160: 2f83 c9be 47d2 6c3e 8bdf 9f3e 7c4d 0e3c
00000170: df1a c83e 4490 ae3e dafc 6a3e b1f9 253e
00000180: 7fe7 59be 5436 1c3e e241 f23d 9859 823e
00000190: fe7e e73d f391 1bbd 229d 473e d7b9 543e
000001a0: 5b75 053e 6a63 ac3d fbcc d63b ab2f 343e
000001b0: 49c4 5d3e 2261 1a3e 7ef2 ba3d b10e 943e
000001c0: 11eb 52be b864 a7bd f2e4 4c3d 48dc 453e
000001d0: a603 97be b38b 3d3c 2301 be3d 4441 c83b
000001e0: 0ea2 103e 1e0e 8c3e b59b 26be d625 a93e
000001f0: 9307 b13e 7fbb 813e dc69 0abe 0f5f ec3d
00000200: 76b0 443e ec0f 81bd 2c09 ff3d bc63 163e
00000210: 6632 773d cf91 443e 2785 563e 49d9 773d
00000220: a5de a73d b6c1 e83d 46ef 8e3e 719a 9f3d
00000230: 283a ad3e 7bb3 aabd 8096 8a3d 95ca c53d
00000240: 285d f13d eaa0 72be 2191 0f3e e0e2 553e
00000250: e006 3d3c b60c 613d 02cb 923e 764a 4d3e
00000260: 0467 5b3d 5924 693d 52a5 3ebc f978 11be
00000270: 46fe 5f3e 0869 cabc 6c91 ec3b c752 953e
00000280: 7e85 103e 398a 9339 6296 733e e58a 663c
00000290: 31ee 463e 5f54 603e dcd1 c23d 8af0 0ebe
000002a0: 2f7f 6c3e 332d 5e3d b1ee 9abc a15a f03d
000002b0: 42b5 943e cab6 173e 7569 e33d 033d 90bc
000002c0: d54d 9dbd 622a e13d 07e4 1c3d 1f13 7fbe
000002d0: 6e03 9e3d 2d40 4c3e b215 383e 57a9 bd3d
000002e0: e51e 19bd 103a 69bd ca58 3e3e 0215 ffbc
000002f0: 7df6 5dbe 406e 6b3a c395 373e c756 883d
00000300: b35b a93e b489 ecbd 67e5 e3bc 9d9a 51be
00000310: fdb5 88be 1e50 7d3e 19d9 913e 731b 0abd
00000320: 3327 f83d fd73 0b3e 7888 4f3e df82 a2bd
00000330: e000 b93d 7598 bb3d df60 643d e8e9 543e
00000340: 51d0 aebc e152 2c3e 61eb 7f3e 6507 59bc
00000350: d51b 6d3e ba83 7dbd 7ca6 363e d3e2 20bc
00000360: 7475 e0bc 3eb4 153e 2cdf 073e 8c41 7c3e
00000370: 440e 113e 2299 673e c611 b6bc d21d d13d
00000380: 48b2 8a3e f27b 223d 4969 a03e b480 113e
00000390: 90e6 de3d ac54 2f3e 7d3e ca3e bcfd ff3d
000003a0: ad7a 9c3d fe63 cb3d 5c33 79be 0dcd 173d
000003b0: 3249 903e 6190 293d 4c02 22bc f11b cd3d
000003c0: e43e 05be 631c f63d 86e6 d83d d32c a93d
000003d0: ad0b a03e 025a b8bd f74b 9a3e d3e3 2d3e
000003e0: c167 6c3e 8b10 613e 916e 583e f3e2 19be
000003f0: 9dc9 33be 7cc2 c13d 7def 4d3e ba92 583e
-0.040834263 -0.0111286715 0.19700648 0.19767998 0.14466573 0.19973652 0.03476575 0.08660686
0.15698308 -0.059842434 0.10896243 0.12415067 0.20642442 0.115830526 0.32461533 -0.26174995
0.18608446 0.18055002 0.4214944 0.42205906 0.24189429 0.18077789 0.31666803 0.2108688
0.11975664 0.15635103 0.25000224 0.21345334 0.040755577 0.053639308 0.27321875 0.19529518
-0.0393278 0.11058725 0.22535165 0.19313098 -0.035125766 0.0132416645 0.3522229 -0.17904976
0.0035519393 -0.066911414 0.062515266 -0.055191197 -0.0043377783 -0.2699888 0.15569985 -0.16614611
-0.031803157 -0.14637238 -0.17762786 0.26217225 0.17026454 0.24425428 0.29367945 0.14119501
0.21425751 0.19173925 0.08052539 0.08608156 0.32484314 0.17573963 0.034990747 0.27356482
0.205072 0.038520213 0.18323721 0.39899385 0.023198469 0.061509885 0.11672798 -0.23863754
0.16884656 0.1339931 0.20694096 0.10237959 -0.021999402 -0.0013349111 0.12507313 0.09008299
0.27711806 0.05631618 0.11915051 0.31932932 0.14046055 0.19833142 0.049944777 0.02853008
-0.39357898 0.2312709 0.31225237 0.008685466 0.39083 0.3409444 0.22948018 0.16208531
-0.21279715 0.152551 0.118289724 0.2545898 0.11303519 -0.037980985 0.19493535 0.20774017
0.13033049 0.08417399 0.0065551973 0.17596309 0.21656908 0.15076116 0.09128283 0.2891746
-0.20597483 -0.081735075 0.050023027 0.19322312 -0.2949497 0.011568951 0.092775606 0.006111296
0.14124319 0.2735452 -0.16270335 0.3303668 0.3457609 0.2533836 -0.13516945 0.115415685
0.1920794 -0.06301865 0.12452921 0.14686483 0.060350798 0.19196247 0.20949231 0.060509954
0.08196763 0.113650724 0.27916926 0.07793129 0.33833432 -0.083350144 0.06766987 0.0965778
0.11785346 -0.23694196 0.14020206 0.20887327 0.011537284 0.054943763 0.28670508 0.20047936
0.05356504 0.05691943 -0.011636095 -0.14206304 0.21874341 -0.024708286 0.007219484 0.29164717
0.14113423 0.0002814101 0.23787835 0.014071201 0.194268 0.21907185 0.09512684 -0.13958946
0.23095392 0.054242324 -0.018912645 0.11736036 0.2904454 0.14815822 0.11104099 -0.017607218
-0.07680861 0.10994412 0.0383034 -0.24909638 0.07715498 0.19946356 0.17977026 0.09260815
-0.03738298 -0.05694014 0.18588558 -0.031137947 -0.21676059 0.0008980967 0.17928223 0.066571765
0.33077773 -0.11549702 -0.027819348 -0.20469137 -0.26701346 0.24737594 0.28485945 -0.033717584
0.12116852 0.13618465 0.20266902 -0.07935118 0.0903337 0.09159938 0.055756446 0.20792353
-0.021339567 0.16828491 0.24992134 -0.013246392 0.23155148 -0.061893202 0.17836946 -0.009819704
-0.027399756 0.14619538 0.13268727 0.24634379 0.14165598 0.2261701 -0.022225272 0.10210766
0.27089143 0.039668985 0.31330326 0.14209253 0.1088382 0.17122144 0.395008 0.12499568
0.07640586 0.09931181 -0.24335998 0.037060786 0.28180844 0.041397456 -0.009888243 0.10015095
-0.13012272 0.12017133 0.10590844 0.08260503 0.31258908 -0.09001543 0.30136082 0.1698144
0.23086454 0.21978967 0.21135928 -0.1502798 -0.17557378 0.09460923 0.20110889 0.21149722

fc2.weight f4 [256, 260]
00000000: 3acf e03d 92eb 1cbd c7dd 55bd 3931 c0bd
00000010: 24bc f8bc 03c0 10bd 07a1 863d 6f6e 9d3d
00000020: 86d4 ae3d 2708 2e3d 1d21 0ebd 636d be3d
00000030: cb10 97bd b87b 4a3c e31a ccbc 833d b63d
00000040: 4029 9e3b f25a 9e3b 664c ca3c dcf8 50be
00000050: d816 e63c 0b04 4cbc 1f8a bbbc 10a4 633d
00000060: 5ece ddbb bdd7 d2bd 1293 64bd 94ac 03be
00000070: 249e e93d a637 f8bd e745 4e3c 4f76 2abd
00000080: 3bfe e33d d02e ed3d c26b 2a3d 19b2 1fba
00000090: acc4 533d 5918 6e3d 567c a0bd 1cb0 2b3d
000000a0: d52c b93d cd81 e53d cad2 ce3d 42fc 2b3e
000000b0: 764e ce3d 4ebc 673d 403d 0d3e e747 9c3d
000000c0: 1016 a7bd 26b5 5f3d e523 133d 2203 ee3c
000000d0: 7b3a 6139 9c27 8c3d 2f59 b8bd e1b2 ebbd
000000e0: 632f 0ebe 4453 903c 5080 d63d 6f02 ba3d
000000f0: 41bc 9a3c e92e 1b3d 2104 bcbd 2aad a53d
00000100: 9817 d43d cf18 79bd 701a 9a3d a405 073d
00000110: d1fa 85bb 994c 51bc a771 793d 6bac 303e
00000120: 9000 babd 8e6c a23c 3577 e4bc 2f43 2d3d
00000130: eb48 483d c21d 503d 25a9 073d b339 7a3b
00000140: 21b8 24bd cfbb 8f3d 0fcc 933d 1519 2abb
00000150: c09c c4ba a326 31bd 4618 e3bc 75a6 933c
00000160: 24df 4c3e 231c c93d b25d 1b3d 406c 133d
00000170: ca14 653b 0e18 01be 654f 9cbd b982 4abc
00000180: 9a84 563e 8613 7e3d 514c 863d e541 5cbd
00000190: f1b4 00bd 3a30 75bd 2aa2 41bd 7cd8 b6bc
000001a0: 88e6 d0bb 15e4 c1bc d698 00be f8a8 2d3d
000001b0: ec13 9ebd b80c 013d 3ed6 453b 9c10 573d
000001c0: 09e2 203e 396d 95bd 0e6f 68bd c2bb e73c
000001d0: f06d 273e 3f1f e93c f204 003e a78b 403d
000001e0: 7456 2e3c d596 783c bb36 ed3d a7ae f0bc
000001f0: 293d 053d f9b1 5ebd 62e8 293e 48c6 213e
00000200: 3c2d 5a3d 6c08 923d cc39 843c 2538 8dbd
00000210: 51e9 a53d 68de 6dbd 0087 16bd 9bb1 efbd
00000220: 7c3f 68bb ac65 ba3b 856a c93d b742 f13c
00000230: d279 8cbd 289e b13d 01f7 ffbc 2238 173d
00000240: 4beb b73d a03e ba3a 3f68 703d 0a3d 3e3d
00000250: 8003 883d c2f4 81bd fa30 4cbd 4e87 71bd
00000260: 27ac 213d cebb b63d e6ff d43b 5517 a43d
00000270: 21ab 24bd 4578 aa3d 876b 2bba 8085 ccbd
00000280: a4e9 2bbd eb2d b13d 9d64 8b3d f993 d53d
00000290: b5fa d3bc 0c9b 89bb f005 533d caf1 bb3d
000002a0: 053b c8bd bc25 04bc 6026 d7bd 2684 10bd
000002b0: fd53 8abd cf00 e73c a613 893d 7fc9 ab3d
000002c0: 8cf5 143e 6f71 e03b ec2b a3bd 7bf2 533e
000002d0: a9f9 8a3c f8f8 1abc 3004 61bc 6647 263e
000002e0: 9796 8c3d 599a adbd 1538 cf3c 45bd 8b3c
000002f0: 38aa 8f3d 7645 913c c806 70bc 6a07 51bd
00000300: 6f99 a2bd fde9 2c3e 3364 1c3e 7a35 a93c
00000310: b35c 573e 22ae 17bd bec7 e13b f7f1 c43d
00000320: 5685 dfbc 4a7d 313c 5de1 2f3d d14b 043e
00000330: 7dbd cf3c 3e45 7a3d 14ac 8c3b 9529 41bd
00000340: c44d afbc f81c 51bb bf97 ad3a d45a eabc
00000350: f886 1abe ec4c 8abd 5e70 02bd c9e5 31bc
00000360: 1efc 753d 92c4 323c c673 293e 48ec 16bd
00000370: e19e e7bc e4d5 313d 2b22 a43c 0b72 e53c
00000380: ccc6 2d3d 2a6d 153d 5ab4 913d 00b0 763d
00000390: 6547 d63d 6b9f ba3d 3b87 a63c 3205 323d
000003a0: 2da6 f93d a94a 1f3d e94f c83d 3980 5d3c
000003b0: e602 3e3d 500d ef3c 29c0 cbbd 0d04 a8bd
000003c0: c351 e63d a227 e13b 9aac 6fbd dd24 bebc
000003d0: ce5d 25bd 35f7 f33b 303b 853c 022b 5c3d
000003e0: aab2 3ebd bc5d 84bc 24b8 cabd 7b46 b63d
000003f0: 401f bc3d 013d 16bd bccf 0ebe 5111 663d
0.10977025 -0.038310595 -0.052213456 -0.093843885 -0.03036315 -0.035339367 0.06573682 0.07687079
0.085366294 0.042488243 -0.034699548 0.092982076 -0.0737625 0.012358598 -0.024915164 0.08898451
0.0048266947 0.004832619 0.024694633 -0.20407432 0.028087065 -0.012452136 -0.02289301 0.055576384
-0.0067689857 -0.10295055 -0.05580432 -0.12858802 0.11407116 -0.12119989 0.012589908 -0.041616734
0.11132475 0.115811944 0.041606672 -0.0006091907 0.051701233 0.05812869 -0.07836215 0.041915998
0.09041754 0.11206398 0.100987986 0.16795447 0.10073559 0.056576066 0.13792896 0.07630902
-0.08158505 0.054616116 0.035922904 0.029054228 0.00021479458 0.068434924 -0.090013854 -0.11508728
-0.13885264 0.01761783 0.104736924 0.090824954 0.018888595 0.037886534 -0.09180475 0.08089669
0.10356063 -0.060814675 0.07524574 0.032964364 -0.0040887375 -0.01277461 0.060899403 0.17253272
-0.090821385 0.019827154 -0.027888874 0.0423004 0.048897665 0.05080963 0.033120293 0.0038181364
-0.04021466 0.070182435 0.072166555 -0.0025954891 -0.0015000328 -0.043249737 -0.027721535 0.018023709
0.20006996 0.0981982 0.03793115 0.035991907 0.0034955018 -0.12606832 -0.07632331 -0.012360268
0.20949021 0.062030338 0.06557525 -0.05377378 -0.03142256 -0.059860446 -0.047273792 -0.022320025
-0.0063751377 -0.023668328 -0.12558302 0.04239747 -0.077186435 0.03150627 0.0030187513 0.052506074
0.15711226 -0.07296223 -0.056746535 0.028287772 0.16350532 0.028457282 0.12501886 0.047008183
0.010640729 0.01517268 0.11582705 -0.029380156 0.03252903 -0.054368947 0.16592553 0.15798295
0.053265795 0.071305126 0.016140841 -0.06895474 0.08101142 -0.05807343 -0.03674984 -0.117037974
-0.003543823 0.0056883898 0.0983477 0.029450757 -0.06859173 0.08672744 -0.03124571 0.036918767
0.089804254 0.0014209338 0.058693167 0.04644493 0.066412926 -0.06345512 -0.049851395 -0.058966927
0.039470818 0.0892254 0.006500232 0.08012263 -0.040202264 0.08323721 -0.0006539155 -0.099864006
-0.041970864 0.08651336 0.068063 0.10428614 -0.025876382 -0.004199391 0.051519334 0.09176977
-0.09776882 -0.008065637 -0.10505366 -0.035282277 -0.06754301 0.028198628 0.06693201 0.08388042
0.14546794 0.00684946 -0.07967362 0.20697968 0.01696475 -0.009458773 -0.0137339085 0.16238174
0.0686466 -0.08476705 0.025295297 0.017058024 0.070148885 0.017733317 -0.014650054 -0.05103246
-0.079394214 0.16886134 0.15272598 0.020655382 0.21031456 -0.0370313 0.006890266 0.09616464
-0.02728526 0.010833094 0.042939533 0.12919547 0.02535891 0.06110119 0.0042929742 -0.047158796
-0.021399386 -0.0031908136 0.0013244076 -0.028607763 -0.15090549 -0.06752953 -0.031845443 -0.010858008
0.06005489 0.010911124 0.1654807 -0.03684643 -0.028274002 0.043416873 0.020035824 0.028008481
0.042425916 0.03648106 0.071144775 0.06022644 0.10462836 0.09112438 0.020328155 0.043461986
0.12189899 0.03888956 0.09780867 0.01351934 0.046389483 0.029181153 -0.09948761 -0.082038976
0.112460636 0.0068711797 -0.058514215 -0.023210937 -0.040372662 0.007445241 0.016263574 0.053751953
-0.046557106 -0.016157977 -0.09898403 0.08900162 0.09185648 -0.03667927 -0.13946432 0.056168858

fc2.bias f4 [256]
00000000: a899 05be 5baf 2bbe f982 7abe e069 12be
00000010: 9407 42be 065e 60be 3e6e 75bd eb31 43be
00000020: afd0 76be c81d e1bd e000 10be 893c adbe
00000030: a194 36be 5d45 d1bd 849b 7ebe a4fa 23be
00000040: c9ff ffbd b9d2 dabd 1adc 02be 0f3a 2bbe
00000050: 8be4 40be b929 b8bd 7f3c 3abe cc14 a3bd
00000060: 6d87 1cbe 751d 0dbe e245 1cbe eb9e aa3d
00000070: 7e92 45be 70d6 1bbe 12aa 9abe a4de adbd
00000080: 64e0 5bbe 3f02 33be 09be dbbd f4ab 13be
00000090: 11d2 45be b041 7dbe f8e4 1abe 6820 31be
000000a0: 5b14 4cbe 18e9 aebd 2a45 61be 9241 d1bd
000000b0: 1b29 27be b04c 183e 5f82 fabd 8797 b3be
000000c0: ff89 87be cc06 35be 50b7 41be ce39 abbd
000000d0: bb11 12be c059 913e 90a8 bebd bb1a c5be
000000e0: f252 d2bd 6e17 26bd 7684 b3be cbf1 30be
000000f0: 6668 40be 5fb4 1fbe 7e22 43be 79f5 65be
00000100: 7e77 cbbe 4321 40be ca4e 44be cb64 38be
00000110: 5f36 99be adf1 1bbe 02fe 2dbe fd9b 77bd
00000120: 4927 03be 292b e5bd f096 a8bd 2053 07be
00000130: eb4f 80be e658 07be f4de 24be 0d8f 12be
00000140: 6779 35be 9e2d 07be a4a3 34be fbee cfbd
00000150: 8be3 26be f927 00be 19cd 78be ddd2 10be
00000160: 0546 e4bd 8415 06be 7e99 c5bd dabe 81be
00000170: 20d9 6cbe 7aee 11be c359 09be 33f7 fbbd
00000180: a085 8abe 6320 e8bd b41d bbbe 47bc 82be
00000190: e37c 42be b2e2 99bd 9fe4 0abe b1a4 38be
000001a0: e396 59be 38d0 adbd 279f 74be 9b60 25be
000001b0: 065d 11be 36f4 e4bd b8a4 37be bbf9 66be
000001c0: a7bd b8bd fa81 fcbd e863 64be eff5 2dbe
000001d0: 7ddb 35be c3f1 82be e560 ddbd 918c 73be
000001e0: 6f4a e7bd 3280 44be bf0f d3bd 4387 a8bd
000001f0: 01d6 c0bd 2dce 46be 8ba0 2ebe 2b89 55be
00000200: 5262 24be b28e 1abe 1792 15be 51eb 08be
00000210: 6e2e b1bd d7b9 1bbe b16e 88bd d590 2abe
00000220: cfa6 49be 3322 5dbe feb6 8bbd 5d4c 10be
00000230: ac1e 01be 7859 11be 212b 34be 4390 86be
00000240: 1e9c 29be db97 ee3b 5319 76be 3945 90bd
00000250: a079 ecbd b87b 6bbe 6f10 e2bd 28b8 0ebe
00000260: 8524 3ebe 28b1 2dbe d622 56be 15c7 d7bc
00000270: 7748 25bd c293 c0bd 8ecf 12be 97a1 98bd
00000280: 2eac 12be cbea ebbd d67a 91be a6de 64be
00000290: ad41 31be dd70 ffbd 16d5 1cbe 7757 14be
000002a0: ad7e 91be 1790 48be 242b 7ebe 0655 b8bd
000002b0: 9722 88be 52d2 fbbd 5fc5 86be d6a9 91be
000002c0: 06c9 c8bd a1a0 fbbd f99d 33be caf1 20be
000002d0: 0447 6bbe 10f9 2cbe 1247 6bbe 0fb8 56bd
000002e0: ab39 0bbe 2135 20be c9fb 8a3d 7d83 eabd
000002f0: 97ab 4dbe a01d 41be 0fc2 66be 3fef 60be
00000300: 8137 26be 1d02 99be ab72 13be 080d 12be
00000310: f47b 1abe d144 c3bd d420 7abe 29fb 1ebe
00000320: 3c01 63be 551f fcbd 35cc 36be 5457 3fbe
00000330: dbc8 88be 7458 67be cd11 15be d602 9abd
00000340: d962 88be 2fdd 39be fa97 4bbe 6751 25be
00000350: 4bc0 0abe ce7e d0bd c100 4bbe 6a56 71be
00000360: a7de 91bc d0d1 32be 8aa2 5bbe ff7f 7ebe
00000370: b538 2bbe 93e9 93be 96cc f5bd c793 f2bd
00000380: 70ee bdbd f710 22be 127e 25be 3a3f 3ebe
00000390: 5d87 afbe 743a 89be 23f9 3cbe 4244 8bbe
000003a0: 1feb 5bbe 11f3 7cbe 8548 52be ca43 b8be
000003b0: 8cec aebd 7416 54be e067 82be 9d8c 31be
000003c0: 0b3f 1bbe e3cb 1ebe 8baf 45be b620 94be
000003d0: 31cd cdbd 9685 0ebe a471 45be fcdf 30be
000003e0: a7ee 1ebe 0516 29be f8ae 53be 6904 c5bd
000003f0: 4ddd 8fbd 49e3 94bd f4b0 15be bbf1 11be
-0.13046896 -0.16766112 -0.24464025 -0.142982 -0.18948203 -0.21910867 -0.05991959 -0.19062011
-0.24103044 -0.109920084 -0.14062834 -0.33835247 -0.17830135 -0.10218308 -0.24864012 -0.1601358
-0.12499959 -0.106847234 -0.12779275 -0.16721366 -0.18837182 -0.08992333 -0.1818714 -0.07962951
-0.15286036 -0.13780768 -0.15261033 0.083310924 -0.19294164 -0.1521852 -0.30207878 -0.08489731
-0.21472317 -0.17481326 -0.10729606 -0.14421064 -0.19318415 -0.24732089 -0.15126407 -0.17297518
-0.1992964 -0.08540553 -0.2199904 -0.10217585 -0.16324274 0.14873004 -0.122318976 -0.35076544
-0.2647247 -0.17678374 -0.18917584 -0.08360635 -0.14264576 0.28388786 -0.093094945 -0.38496956
-0.10269727 -0.040549688 -0.35061997 -0.17279737 -0.18789825 -0.1559615 -0.19056126 -0.22456922
-0.39739603 -0.18762688 -0.1917068 -0.180072 -0.29924294 -0.1522891 -0.16991428 -0.060451496
-0.12807955 -0.11189873 -0.08231914 -0.13215303 -0.25060973 -0.13217506 -0.16100675 -0.14312382
-0.17722093 -0.13200995 -0.17640549 -0.10153004 -0.16297738 -0.12515248 -0.24296989 -0.14142938
-0.11146168 -0.13094145 -0.09648417 -0.2534092 -0.23129702 -0.14251128 -0.13413148 -0.12303009
-0.27055073 -0.11334302 -0.365461 -0.2553427 -0.18992953 -0.07513942 -0.13563775 -0.18031575
-0.21248965 -0.0848698 -0.23888837 -0.16150133 -0.14195642 -0.11179392 -0.17933929 -0.22556202
-0.09020548 -0.123294786 -0.22303736 -0.16988347 -0.1775951 -0.25575075 -0.10809497 -0.2378409
-0.11293494 -0.19189528 -0.10305738 -0.08228924 -0.09415818 -0.19414587 -0.1705343 -0.20853107
-0.16053131 -0.15093496 -0.1460651 -0.13371016 -0.08651434 -0.15207611 -0.06661738 -0.16656812
-0.19692539 -0.21595077 -0.06822012 -0.1409163 -0.12609357 -0.14194286 -0.17594577 -0.26281938
-0.1656346 0.007281286 -0.24033098 -0.07044453 -0.11546636 -0.22996414 -0.11038291 -0.13937438
-0.18568619 -0.16962111 -0.20911726 -0.026340047 -0.04035231 -0.094031826 -0.14336988 -0.07452696
-0.14323494 -0.115193926 -0.2841403 -0.22350559 -0.1731021 -0.12472699 -0.15315661 -0.1448649
-0.28416958 -0.19586216 -0.24821144 -0.09000592 -0.2658889 -0.12295975 -0.26322457 -0.28449887
-0.09803967 -0.12286497 -0.1754073 -0.15717235 -0.22976309 -0.16891885 -0.2297633 -0.052421626
-0.13596217 -0.15645267 0.067863055 -0.11450861 -0.20084988 -0.18858957 -0.22534965 -0.21966265
-0.1623211 -0.29884425 -0.14399211 -0.14262784 -0.15086347 -0.0953461 -0.24426585 -0.15525497
-0.2216844 -0.123106636 -0.17851336 -0.18685657 -0.2671574 -0.22592336 -0.14557572 -0.07520072
-0.26637915 -0.18150781 -0.19882193 -0.16144334 -0.13549916 -0.10180436 -0.19824506 -0.2356812
-0.017806364 -0.1746285 -0.21448722 -0.24853514 -0.16720851 -0.2888914 -0.12001912 -0.118445925
-0.09273994 -0.15826784 -0.16161373 -0.18578807 -0.3428296 -0.2680241 -0.18454413 -0.27200514
-0.2147641 -0.24702097 -0.20535477 -0.3598922 -0.085412115 -0.2071169 -0.25469875 -0.17338796
-0.15160768 -0.15507464 -0.19305246 -0.28931206 -0.10048903 -0.13918146 -0.19281632 -0.17272943
-0.15520726 -0.16512306 -0.20672214 -0.09619982 -0.07024632 -0.07269914 -0.14618284 -0.14252369

bn2.weight f4 [256]
00000000: 966e 073b 88f0 39bc fbc9 9b3e 69e3 2c3d
00000010: 6c0b da3d b916 9b3e d5c6 b13b 0a22 033e
00000020: 6d7a 603c 1129 ea3d 99b7 b43a 028a d63e
00000030: 1c5b a43c f452 463c 412f 173e 2f8d 0b3e
00000040: a1ba 1c3f 26d1 1f3a 64ae 323a 1cb5 ae3d
00000050: 3662 be3b a494 d43c 9ece 483d 54e0 0a3c
00000060: aeb4 5339 0e3e c43c cc8e 4bba 83ef 843a
00000070: 05f1 8939 281c 293c c295 2d3f aff0 9cba
00000080: e395 343e 3c4c 1a3f cecf 1c39 04fa f43a
00000090: 1e42 fa3d a12a 053f dbb5 353e 226c b53a
000000a0: 1992 463b 52c7 fa3a 55c8 4032 34ff 0a3e
000000b0: 14ee e53d a2e2 0c38 d8af df3e b214 163f
000000c0: 638f cc3e f881 3f3a bfcc 9c3c e3a0 c83d
000000d0: 37cd 2e3d d4b9 1b3e 7310 1e3b fc10 253f
000000e0: 9164 443b 1a91 c839 0b2b ad3e c33e 2b3b
000000f0: 3026 e83d af13 6db9 d41d 693a 0f08 273f
00000100: 5a5e 013f a75a 793e 5dd9 143d 16ce ed3e
00000110: a169 e93c 17a2 1aba 60cd 9aba 04b0 073b
00000120: 3118 ff3a 02c3 9f3e b025 5438 1904 38bc
00000130: 5c3d ea3e 6d5e 30bb ce44 163f 946f 2f3b
00000140: 0676 143e f447 453b bd4a b43a 1bbb 563a
00000150: bff3 b93c 54bc daba 4cd6 07ba 06e4 823e
00000160: ff1f 913b fb89 d33c 0859 b63c daea ad3e
00000170: 5378 ab3a eec2 203e c375 84ba 18ed 2c3b
00000180: f6fb 613e 8d5f d93b 778a 4e3f c40e 243f
00000190: 1d93 143e 5a3c 243b 72f8 8d3c 7961 493e
000001a0: 9fc6 19bb ec89 d43b ffa4 b3b7 a309 3734
000001b0: 5f2d b639 5c65 7dba be5a 22bb f483 963c
000001c0: 0162 f63d f722 cf3a 6647 163f 982d c43c
000001d0: e58d a93e 68a8 923e 616e 453b fb66 e73e
000001e0: f699 cfba 5725 873e 50d4 293e b29d 3b3e
000001f0: 74f7 8fb4 7734 e23c c091 4f3d 04be 893e
00000200: 4047 403c 0046 773e 185a 0b3c c941 f13e
00000210: cae0 51b6 ab1a 3c3c 411d c43a 64d2 2f3f
00000220: 612a 773e a19a 153e ea47 293b cb61 743e
00000230: 504e 143b 679b 553e 038a 82bb 4997 f43e
00000240: b650 313d d083 203e 0927 0d3d 5c31 17bb
00000250: 7e72 bfb8 6d5e 173e 8fbf 6e3b 17ce aa3d
00000260: 833b 893a 7774 193d 2e83 aa3c 1f24 933d
00000270: 8e08 333d 6ccb f63a eaf9 56bb 978b b63a
00000280: e055 c63d 6773 513a 9894 1d3f 1038 d83a
00000290: f033 e33c 48af 203e ab86 0d3e 06e7 4e39
000002a0: b8d2 033d 6301 303b fc9e 9e3d 6dc7 2f3a
000002b0: d7c3 9e3e a7df 193c 5f86 bc3e 609d 9539
000002c0: 5029 97b7 e36e 8f3e fa5f 6bba 0ad5 ef3e
000002d0: a990 843e 55c9 cd3e 01ad 1c3f 2e40 0c3b
000002e0: 0856 40bb 3687 ed3e 062d ae3d 047c 893a
000002f0: 97a9 a73d 2cf0 dc3e da2e fe3e 1394 8d3d
00000300: 41e1 703e 2883 fc3e 4837 363b d3d5 8f3b
00000310: 1958 c4ba 9420 403b 9e45 063f 8164 f83e
00000320: a6a6 0c3c 37ed b93c 9f29 6e3e 4820 ff3c
00000330: 0cce 173f 81db febb 60f3 023b 9f75 21bb
00000340: 8f1f af3d 5dd9 303f a892 023d a044 773d
00000350: 02c4 253c 4e16 22ba 53a2 713e 1024 ef3d
00000360: 31fd b63e 6928 003c b772 683e e37b 373e
00000370: b0c3 0d3e 8846 393f c6b2 9bba 764b 0eba
00000380: 8d48 c13a 150a 0b3c 284a 1e3f 1c04 ca3a
00000390: 6a62 d93e 4cd4 ad3e 614f 4c3e d61e 763e
000003a0: b7e4 163f 7093 393e 8a8e 273e 7824 853e
000003b0: e503 8e3c 92d5 293e b0d1 d53d 8463 b5b9
000003c0: 0176 993e be78 5031 1057 023e 66ad d3b4
000003d0: be65 a23b 9f60 b33c 6f9c e03d 2898 393e
000003e0: 94dc 113c 4541 f83a f94d b43e 7b81 693e
000003f0: 4fef c63e 02e6 313e cec3 923e c46d d23a
0.002066528 -0.011348851 0.30427536 0.042209063 0.1064671 0.30290774 0.005425314 0.12805954
0.013701064 0.11433614 0.0013787627 0.41902167 0.020062976 0.0121047385 0.1476412 0.13628076
0.61222273 0.0006096534 0.00068161474 0.085306376 0.0058100475 0.025949784 0.04902517 0.008476336
0.00020189837 0.023955371 -0.0007765114 0.0010142181 0.0002631025 0.010321654 0.6780664 -0.0011973585
0.17635302 0.60272574 0.00014954733 0.0018690233 0.12219642 0.5201817 0.17745154 0.001384143
0.0030299483 0.0019132888 1.1221421e-08 0.13573915 0.112270504 3.358967e-05 0.43688846 0.5862533
0.39953145 0.00073054386 0.0191406 0.09796312 0.042676177 0.15207607 0.0024118691 0.6447904
0.0029967169 0.00038255082 0.33821902 0.0026129938 0.11335409 -0.00022609414 0.00088926894 0.6524667
0.50534594 0.24350987 0.036340106 0.46446294 0.02849275 -0.0005898787 -0.0011810474 0.0020704279
0.0019462166 0.31203467 5.0579838e-05 -0.011231446 0.45749938 -0.002691175 0.5869874 0.0026769387
0.14498147 0.0030102702 0.0013755184 0.0008191333 0.022699235 -0.0016688206 -0.0005181774 0.25564593
0.004428863 0.02582263 0.02225925 0.3396824 0.0013082124 0.1569936 -0.0010105897 0.0026386436
0.22068772 0.006633705 0.8068003 0.6408503 0.14509244 0.0025060386 0.017330382 0.19666089
-0.0023464335 0.006486168 -2.1415295e-05 1.7046709e-07 0.0003474755 -0.0009666288 -0.0024773325 0.018373467
0.120304115 0.0015803267 0.58702695 0.023947522 0.3311607 0.2864411 0.0030125605 0.45195755
-0.0015838731 0.26395676 0.16584897 0.18321875 -2.6815871e-07 0.027612908 0.050676107 0.26902783
0.011735737 0.24147797 0.008505367 0.47120503 -3.1274271e-06 0.0114809675 0.0014962332 0.68680406
0.2413726 0.14609767 0.0025830218 0.2386543 0.0022629686 0.20860063 -0.0039837374 0.4777167
0.043289863 0.15675282 0.034461055 -0.0023070192 -9.1289156e-05 0.14782114 0.0036430096 0.0834009
0.0010470006 0.037464585 0.020814504 0.07184624 0.04370933 0.0018828935 -0.003280277 0.0013927099
0.09684348 0.00079899136 0.6155486 0.00164962 0.027734727 0.15691864 0.13820903 0.00019731754
0.03218338 0.0026856295 0.077451676 0.0006705437 0.3100879 0.009391702 0.36821267 0.00028536748
-1.801984e-05 0.28014287 -0.000897884 0.46842223 0.25891617 0.40192667 0.61201483 0.0021400559
-0.0029348154 0.4639222 0.08504681 0.001048923 0.081866436 0.43151987 0.4964512 0.069130085
0.23523428 0.49318814 0.0027803946 0.0043895035 -0.0014979868 0.0029316293 0.5244998 0.48514178
0.008584654 0.02269612 0.23258065 0.031143323 0.5929878 -0.0077776317 0.0019981489 -0.0024636758
0.08550941 0.6908167 0.031878144 0.06036818 0.010117533 -0.0006183133 0.23597078 0.116768
0.35740045 0.0078221345 0.2270001 0.17918353 0.1384418 0.7237325 -0.001187884 -0.00054281147
0.0014746353 0.00848629 0.61831903 0.0015412602 0.42457896 0.33951032 0.19952156 0.240352
0.5894274 0.18122649 0.16362968 0.26004386 0.017335841 0.16585377 0.10440385 -0.00034597155
0.29972842 3.0336618e-09 0.12728524 -3.9427977e-07 0.0049559763 0.021896658 0.10967337 0.18124449
0.008902688 0.001894035 0.35215738 0.22803299 0.38854453 0.17372897 0.28665012 0.0016054441

bn2.bias f4 [256]
00000000: a46f 7939 94af 1f3c 4650 163d e506 c43a
00000010: f8c7 92bc 40a6 f83c eb14 c4b9 145e 6d3c
00000020: e916 d6b9 17a5 053c 8e87 b33a 42fa 4e3d
00000030: 6f6c e2b9 4a78 acb9 ef0b 7d3c 5597 903c
00000040: 81c0 993d f022 b6b9 6b23 2839 c378 1c3c
00000050: cb43 303a 2d79 58b9 ee03 163b f6b7 6b3a
00000060: d375 89ba 57e2 aeb9 99ac 4ab8 9c9b b9ba
00000070: df35 ef3a 0a1f 4bb9 c4ff aa3d 0fdc 2539
00000080: 7d49 823c d8e9 963d 5415 78b8 aa3e 5cba
00000090: 844f 813c b2cd 7c3d faab b73c e376 b23a
000000a0: 3932 0c39 0038 2e3b 5226 6b31 e44c c83b
000000b0: ff7f 5f3c 20f4 1c3b 2017 553d c53c 933d
000000c0: fe12 453d 463e 4a3b be55 a0b8 80e8 95bc
000000d0: 148c ca3a c149 eabe 9b88 8c3a eaa0 a03d
000000e0: 2acb 033b b9c1 e5b9 cdfa 103d faa7 893a
000000f0: 4eaa 273c 6016 00b8 3426 193b bafa a33d
00000100: 9216 793d 53a6 ea3c 9572 963b ca3e 423d
00000110: d4b5 ccbb 46e8 81bb ac2d e03a 4b05 983a
00000120: c68e 983a be63 203d 6b37 4a37 ab9f 1a3c
00000130: b1e5 5e3d 6eae 4a3b 7666 923d 5e6f 39bb
00000140: 073c 803c 51ab 5839 302b 25ba 276e 6238
00000150: 44de cfb9 30b2 41b9 796e 8a37 cd54 073d
00000160: 5b8e d8bb 55fb 5fb9 cea8 d9b9 3e54 043d
00000170: 787b 0a39 9a3b 9c3c ff7e cbb8 0e03 0e3b
00000180: df5d 7b3c 6748 1cba fba0 ca3d 6781 a13d
00000190: 9d96 993c 807c 8a3a 7fc9 03ba 2b08 0ebb
000001a0: f56d 863b 334e 4eba ddcb 1c39 dc4a cfb3
000001b0: c018 0838 a561 b8ba 67e8 99b8 da84 09ba
000001c0: 524a 27bd b9f7 a63a 5a85 913d bb08 afb9
000001d0: 40a5 293d 7685 0f3d 2a5a 9bbb d34c 5c3d
000001e0: 6da1 31b9 ed57 f83c 0f1a 91bc 24cf be3c
000001f0: 583e 9ab2 1b00 4e3b 6664 c73b 58b4 043d
00000200: 97a2 9fb9 d303 003d ee7a 2ab8 ee5f 593d
00000210: 85c9 1135 00a9 073a d304 56ba f92e ad3d
00000220: 89ad ff3c f68d 8f3c cd41 2739 3522 fd3c
00000230: 436f b9ba ad4a f33c 7848 f33b ac0e 693d
00000240: f42a d43a 9632 f43b c10d 1d3a 6c18 103b
00000250: 0dde b9b6 5d68 503c 4d2c 75bb 3455 d8bc
00000260: 09ae cc38 4b68 763a 64ba f1b9 3d75 cabd
00000270: fa5f 07bd 4cf6 9b3a d3d3 a0b9 fb45 0a39
00000280: 0de2 173c d00d 9038 6b50 9a3d 70f8 9e3a
00000290: a3cb 8fb8 e3a4 9d3c b1e0 843c 7185 9737
000002a0: ec29 783b 9869 55bb c46b 143c bcd6 c4ba
000002b0: 50d1 043d cb29 d3b8 a897 213d ba1f 1538
000002c0: 6889 11b7 4c95 a93c 2c87 43b7 393b 643d
000002d0: 2ae7 073d 417b d93c 7251 993d 51b9 20bb
000002e0: 9d50 823b b780 663d fc92 11bf 9009 453b
000002f0: de13 183c e359 3c3d 8284 7c3d 3a0d 2f3a
00000300: 70aa f93c 9359 753d 367d 24bb ef76 703a
00000310: c037 45ba 1c06 2ebb 4a77 803d e9ac 6c3d
00000320: 080c 2db8 e4ec cfb9 5337 ae3c 3122 8239
00000330: 537f 943d 79ed 4dba a998 7539 40a4 30bb
00000340: 91d0 0a3c 8715 ae3d 1b2d a939 6e18 ed3b
00000350: 65b3 36b9 ef30 b6ba 1a73 fa3c f744 503c
00000360: 29c3 24be 9ccf 69b8 3dd0 d93c cf09 b13c
00000370: 6063 853c 1a43 913d 95b2 beba 5998 1339
00000380: 0d46 58b9 33e5 c738 0521 9b3d 423f 3339
00000390: 2230 533d b946 383d 744a 943c 93f0 6f3c
000003a0: 8683 923d 5c2a b23c 5563 a63c d3cf 013d
000003b0: a27c 02ba 5e09 223c 998d 2d3c f6c2 6a3a
000003c0: ccff 1b3d 1ff3 fbaf f1aa 613c 1ca1 97b4
000003d0: 93c5 fdb7 3a2a ebb9 0e6a 3b3c c9f9 6b3c
000003e0: a5eb c2b8 8526 8939 80b8 303d 0502 f23c
000003f0: f8e8 403d f9bc 793c 103a 163d a237 a53a
0.0002378808 0.009746451 0.03669765 0.0014955668 -0.017917618 0.030352712 -0.00037399618 0.014487762
-0.0004083433 0.008157036 0.0013697015 0.050531633 -0.00043186868 -0.0003289602 0.01544474 0.017650286
0.0750742 -0.00034739776 0.00016034923 0.009550276 0.0006723969 -0.00020644507 0.0022890526 0.0008991951
-0.0010487385 -0.00033356503 -4.8321297e-05 -0.0014160755 0.0018250308 -0.00019371152 0.08349565 0.00015817604
0.015904183 0.07368821 -5.914767e-05 -0.00084016717 0.015784986 0.061719604 0.022420872 0.0013615753
0.0001337015 0.0026583672 3.4218783e-09 0.0061126817 0.0136413565 0.002394922 0.052024007 0.07189325
0.048113815 0.0030859872 -7.645365e-05 -0.018299341 0.0015453123 -0.45759395 0.0010721864 0.07843192
0.002011011 -0.00043822618 0.035395432 0.0010502331 0.010233475 -3.0538416e-05 0.0023368718 0.08006807
0.06081254 0.028643763 0.004591296 0.04742316 -0.0062472615 -0.0039644567 0.0017103455 0.0011598257
0.001163923 0.03915762 1.2053041e-05 0.009437482 0.05441827 0.0030926722 0.07148449 -0.002829514
0.015653623 0.00020663186 -0.0006300686 5.3985186e-05 -0.00039647717 -0.00018472294 1.6502325e-05 0.033039857
-0.006608767 -0.00021360566 -0.00041515235 0.032306902 0.00013206701 0.019071389 -9.703449e-05 0.0021669301
0.015342205 -0.00059617165 0.09893986 0.0788601 0.018748576 0.0010565668 -0.00050272787 -0.002167235
0.0041024634 -0.0007869929 0.00014953264 -9.6528055e-08 3.2447977e-05 -0.0014067186 -7.338897e-05 -0.00052459317
-0.04084236 0.0012738622 0.07105513 -0.00033385106 0.04141736 0.035039388 -0.004740973 0.053784203
-0.00016940171 0.030315364 -0.017712621 0.023292132 -1.795631e-08 0.0031433168 0.0060849665 0.03239855
-0.00030447982 0.031253647 -4.0645646e-05 0.05307 5.430996e-07 0.0005175024 -0.0008164171 0.08456225
0.031210678 0.017523747 0.00015950874 0.0309001 -0.0014147538 0.029698694 0.0074244104 0.056898758
0.0016187117 0.0074523194 0.0005991124 0.0021987213 -5.5392798e-06 0.012720195 -0.0037410439 -0.026407816
9.7598946e-05 0.0009399696 -0.00046105974 -0.09885643 -0.033050515 0.0011898964 -0.000306754 0.00013186775
0.009270203 6.869028e-05 0.0753487 0.0012128484 -6.856702e-05 0.019243663 0.016220422 1.8062741e-05
0.0037866784 -0.003256416 0.009058896 -0.0015017609 0.03242618 -0.000100690486 0.03945127 3.5553916e-05
-8.674666e-06 0.020701073 -1.1654378e-05 0.05572054 0.03317944 0.02654803 0.074862376 -0.002452452
0.003976895 0.056275096 -0.56864905 0.0030065514 0.00928208 0.04598416 0.061649807 0.0006677691
0.030476779 0.059899878 -0.0025099046 0.0009172996 -0.0007523261 -0.0026553934 0.062727526 0.057782087
-4.125762e-05 -0.00039658614 0.021266615 0.00024821007 0.07250848 -0.00078555156 0.00023421891 -0.002695337
0.008472578 0.085002 0.00032267798 0.0072355783 -0.00017423702 -0.0013900081 0.030572463 0.012711755
-0.16090073 -5.574488e-05 0.026588554 0.021611122 0.016282737 0.07092877 -0.0014549071 0.00014075766
-0.00020625461 9.531751e-05 0.07574657 0.00017094336 0.051559575 0.04498932 0.018101908 0.01464476
0.07153992 0.021748714 0.020311037 0.031692337 -0.0004977678 0.009889929 0.010592842 0.0008955443
0.038085744 -4.5829382e-10 0.013773666 -2.8243164e-07 -3.0251953e-05 -0.00044854154 0.01143886 0.014402815
-9.294533e-05 0.00026159376 0.043144703 0.029541979 0.047097176 0.0152428085 0.036676466 0.0012605081
